trained_models/TimesNet_RSAD_mixed_all_bands/checkpoint.pth (torch, 659874 bytes, 40 tensors)

model.0.conv.0.kernels.0.weights f4 [8, 16, 4, 1]
0.009154266 -0.05801662 -0.10804469 -0.20716894 0.47394797 -0.291804 0.057500325 0.2509384
-0.4796158 -0.15222465 0.34762242 0.025753625 0.8826405 -0.27005666 -0.18711425 0.17896606
-0.7035803 0.05465608 0.5548131 0.0324869 0.5851395 -0.016596492 0.102101184 -0.26596403
0.3034157 -0.10364764 -0.47743577 0.479507 0.23063542 0.04469448 0.27655682 0.419686
-0.7733145 0.9112145 -0.12859598 0.24136886 0.5299742 0.21847424 0.26721135 0.3847352
0.8242864 0.7675659 -0.81941175 -0.00048595996 -0.2877645 0.3828832 -0.8928876 -0.4556792
-0.49410057 0.042192373 0.5160373 -0.2163139 0.2086122 0.7826507 -0.27380887 0.62859714
-0.74229765 0.048835084 0.66822684 -0.5686328 0.33416027 0.53517663 -0.5939699 0.17904489
-0.52695596 -0.66504276 -0.06414247 0.1509102 -0.28618628 -0.45717144 -0.9073712 0.09585049
-0.051439203 0.43904915 0.8825749 -0.38998023 -0.24096698 -0.8924488 0.16253595 -0.3147195
0.7439973 0.28569278 0.6557702 0.06875434 -0.47490844 -0.6566572 -0.15636705 -0.068808995
0.5503539 -0.38101488 -0.4762229 0.9218358 0.3297443 -0.31514305 0.07041181 0.344018
0.46255177 1.0366285 0.049194377 -0.2821513 0.20789418 -0.30295104 -0.7102172 0.42189056
0.56600666 -0.792168 -0.809347 0.7627079 0.2179297 -0.040303104 0.04610587 0.29872593
-0.0038559802 0.48016188 0.22282045 -0.33534703 0.5690022 0.42272693 0.079741985 -0.10836628
-0.1223084 0.31780872 1.3557643 -0.5895639 0.105896465 -0.07533522 -1.0046242 0.2463126
0.3394481 0.38870233 -0.114267066 -0.0848233 -0.35461628 0.41362187 -0.10587526 0.28387243
-0.040910114 -0.46618327 -0.0887727 0.43474525 0.6383298 0.7948 0.02687911 -0.32926556
-0.0496207 0.07304038 -0.20321676 -0.107322425 0.743762 0.6147828 0.13816138 -0.25973848
0.79215324 0.9668835 0.16006872 -0.061790273 -0.05215444 0.561489 0.522536 0.00012384693
-1.0300386 -1.3422384 -0.29478294 0.44304022 0.92721874 0.70913845 0.10739251 0.16477612
-0.022793021 -0.20405537 0.30281633 -0.09795984 0.43587348 0.61935794 -1.1116099 0.61463624
-0.22864123 -0.46511537 -0.6375451 0.29524776 -0.24519768 -0.4102933 0.62150115 0.3694491
-0.09247403 0.17145257 0.20496646 -0.13683067 0.5863646 -0.012392056 -0.45696345 -0.06173241
-0.02210089 0.031020632 0.09304557 -0.17100176 -0.5141226 0.30257973 0.6341303 -0.5797634
1.1956084 -0.12877667 -0.33183512 0.15996003 -0.15975885 0.029334195 -0.047119077 0.112296954
0.847155 0.07435934 -0.30967775 0.38704437 -0.56417274 -0.35917446 -0.24213028 0.14565273
-0.42025387 0.042026103 -0.15110023 0.017870018 -0.14446953 0.8526738 0.3512875 -0.34962776
0.53894246 -0.28908718 -0.16931345 0.33755597 -1.5204602 0.7779879 -0.050348192 -0.42803603
-0.58144575 0.038144708 0.11886283 -0.20699349 0.065941215 -0.600458 -0.06751574 0.004577941
0.11095091 0.090054475 -0.16244452 0.038160942 0.22424477 -0.021043785 0.20672269 0.20496354
1.2507349 0.05046714 -0.42540506 0.1392458 -0.10570893 -0.16796395 0.0852097 -0.26298058
00000000: c6fb 153c d6a2 6dbd 8946 ddbd 1824 54be
00000010: 4fa9 f23e 5567 95be 7685 6b3d ff7a 803e
00000020: 3490 f5be c7e0 1bbe 91fb b13e 44f9 d23c
00000030: baf4 613f de44 8abe e19a 3fbe e142 373e
00000040: d71d 34bf 0edf 5f3d 3b08 0e3f fc10 053d
00000050: b4cb 153f 5ef5 87bc 6d1a d13d 702c 88be
00000060: 4d59 9b3e 3745 d4bd 7672 f4be f181 f53e
00000070: b12b 6c3e 8f11 373d db98 8d3e 15e1 d63e
00000080: f0f7 45bf 5a45 693f aaae 03be 6629 773e
00000090: 64ac 073f b6b7 5f3e edcf 883e 03fc c43e
000000a0: 6f04 533f 337f 443f f8c4 51bf 71c8 feb9
000000b0: de55 93be 4409 c43e 4894 64bf c94e e9be
000000c0: c0fa fcbe e9d1 2c3d 051b 043f 6481 5dbe
000000d0: 709e 553e cc5b 483f ad30 8cbe beeb 203f
000000e0: 3807 3ebf 4c07 483d ea10 2b3f eb91 11bf
000000f0: 0e17 ab3e 5601 093f 690e 18bf 8b57 373e
00000100: 96e6 06bf 3e40 2abf 215d 83bd 3488 1a3e
00000110: 0287 92be 6012 eabe 7b49 68bf 434d c43d
00000120: eab1 52bd 0dcb e03e 6ef0 613f 7dab c7be
00000130: 0cc0 76be 8677 64bf d36f 263e ea22 a1be
00000140: 9b76 3e3f 5346 923e 8ee0 273f 13cf 8c3d
00000150: 3327 f3be b01a 28bf af1e 20be bbeb 8cbd
00000160: fee3 0c3f 6214 c3be 7dd3 f3be 6efd 6b3f
00000170: 3fd4 a83e 6e5a a1be 1134 903d 2123 b03e
00000180: 96d3 ec3e 3eb0 843f 0b80 493d 2376 90be
00000190: 36e2 543e 661c 9bbe cbd0 35bf 0a02 d83e
000001a0: d0e5 103f 86cb 4abf 5d31 4fbf d340 433f
000001b0: f728 5f3e de14 25bd 82d9 3c3d 9bf2 983e
000001c0: 9db4 7cbb c7d7 f53e 0b2b 643e 9bb2 abbe
000001d0: 21aa 113f aa6f d83e c44f a33d 24ef ddbd
000001e0: d47c fabd d3b7 a23e af89 ad3f a9ed 16bf
000001f0: 3fe0 d83d 5a49 9abd 8797 80bf 5f39 7c3e
00000200: 24cc ad3e fe03 c73e da04 eabd d7b7 adbd
00000210: 4490 b5be 3fc6 d33e 21d5 d8bd ba57 913e
00000220: 5d91 27bd 93af eebe 76ce b5bd ee96 de3e
00000230: 9569 233f 0378 4b3f 9431 dc3c 7f95 a8be
00000240: 133f 4bbd 3296 953d 0e18 50be dccb dbbd
00000250: 3067 3e3f 6862 1d3f 2d7a 0d3e 71fc 84be
00000260: 8eca 4a3f ad85 773f 0ee9 233e cc17 7dbd
00000270: e59f 55bd bebd 0f3f ebc4 053f e8dc 0139
00000280: 4ed8 83bf 78ce abbf caed 96be 2bd6 e23e
00000290: 355e 6d3f 198a 353f 9bf0 db3d 12bb 283e
000002a0: 6eb8 babc e4f3 50be be0a 9b3e 2b9f c8bd
000002b0: cf2a df3e 3e8e 1e3f 3c49 8ebf cd58 1d3f
000002c0: ed20 6abe 9a23 eebe 2836 23bf b72a 973e
000002d0: 1a15 7bbe f711 d2be b31a 1f3f 6f28 bd3e
000002e0: 0663 bdbd 4391 2f3e bae2 513e 571d 0cbe
000002f0: fe1b 163f 0d08 4bbc 1df7 e9be 20db 7cbd
00000300: ed0c b5bc fb1e fe3c ad8e be3d 161b 2fbe
00000310: 8a9d 03bf bbeb 9a3e 5d56 223f 606b 14bf
00000320: b209 993f 08de 03be 4be6 a9be 90cc 233e
00000330: d397 23be 444e f03c efff 40bd f2fb e53d
00000340: 26df 583f b649 983d 158e 9ebe ae2a c63e
00000350: a06d 10bf b7e5 b7be 00f1 77be fd25 153e
00000360: 842b d7be 9023 2c3d 05ba 1abe 2564 923c
00000370: d2ef 13be d548 5a3f f5db b33e 6902 b3be
00000380: 22f8 093f 3c03 94be 8160 2dbe 23d4 ac3e
00000390: 719e c2bf 372a 473f e839 4ebd 8a27 dbbe
000003a0: a1d9 14bf a03d 1c3d 5b6e f33d 1af6 53be
000003b0: 300c 873d 9eb7 19bf b145 8abd 8d02 963b
000003c0: 3b3a e33d 7b6e b83d db57 26be a64e 1c3d
000003d0: 6ca0 653e 0464 acbc 1daf 533e f6e1 513e
000003e0: 1518 a03f a2b6 4e3d b1ce d9be 7396 0e3e
000003f0: ec7d d8bd befe 2bbe 6c82 ae3d 64a5 86be

model.0.conv.0.kernels.1.weights f4 [8, 16, 4, 3]
0.012229116 0.53725696 -0.039717473 -0.07642371 -0.09338317 0.4162452 -0.115817904 -0.05441629
0.17805204 -0.28109533 -0.17038871 -0.057895724 -0.6817302 0.7831007 -0.12060951 0.34094462
-0.29438695 0.40551794 0.9165667 -0.088836946 -0.06249079 0.6302338 0.0363569 0.11110201
-0.044167202 -0.94927967 -0.1720034 -0.013988797 0.019113299 0.03906221 -0.85560226 0.4007208
0.09339149 -0.3860216 -0.3220384 0.06713253 0.25555238 0.42187923 0.32734317 0.09257
-0.2476487 0.13103732 0.03116995 -0.039440565 0.12052884 0.02937846 0.12460614 0.18106706
0.4492321 -0.42795014 -0.20493527 0.44071463 0.31427684 -0.13733736 -0.62908715 0.11574857
0.10365022 -0.59782493 -0.19775552 -0.08533046 0.11213068 0.45297578 -0.21924831 0.05471269
-0.4051115 0.6297096 -0.44458202 -0.1409917 0.10747712 -0.05882677 0.005903787 0.047399484
0.20692307 0.5915487 -0.18307026 0.08979567 -0.26370272 -0.3228767 -0.3054803 -0.50957745
0.005656562 -0.16950604 0.082908124 -0.11480833 0.14438228 0.21706851 0.091920085 0.2738598
0.025298232 -0.22488289 0.32970798 0.44635537 0.04880096 0.11334546 0.7161497 0.18993586
-0.45523816 -0.7393295 -0.20222794 0.3700947 0.5567111 -0.074709564 -0.62248987 0.038784247
-0.30912417 0.15411451 -0.094155334 -0.120629825 0.14587013 0.53481174 0.27469555 0.01577023
0.43345776 -0.3291518 1.1081151 0.24710006 0.22299123 0.575946 0.28798342 0.28000838
-0.6535254 0.74005765 0.2722332 0.24553631 0.6850638 -0.34498793 0.04285148 -0.29239693
-0.031873234 0.34928468 -0.110766955 0.14647214 -0.6611148 -0.16164105 -0.08598012 0.5061583
0.7528469 0.5594167 -0.5418507 -1.0046884 -0.42231828 -0.47858128 -1.058611 -0.09618408
-0.1219103 -0.38151455 -0.1234916 -0.56330335 -0.40416002 0.18898806 0.09630388 0.06995441
-0.18919052 -0.34260523 0.07100037 -0.047283486 0.1493826 0.3705778 0.31632236 0.10523558
0.57210433 -0.4943641 -1.1268201 -0.82214534 -0.17634276 0.22300003 0.07324645 -0.074605934
0.57693166 -0.83080685 -0.15133478 -0.08070259 -0.2636881 -0.4492628 -1.0985485 0.62920153
-0.14454316 -0.9334642 -0.24209283 -0.12545398 -0.3793336 0.14988846 0.001577017 -0.125639
0.44381073 1.0172683 0.10475605 -0.5335777 -0.027497742 0.21109343 0.024404887 -0.10768581
-0.1859851 -0.0228377 0.28080222 -0.17783362 -0.1758067 -0.17553501 -0.12550701 0.037303973
-0.22087817 -0.29799494 0.025055401 0.60935235 0.6219186 -0.24147753 -0.4460487 -0.26599228
-0.41988447 0.078147896 0.084682986 -0.9747976 -0.16564873 -0.11350092 0.110417165 0.7436408
-0.33447984 -0.39046323 -0.4348439 0.2750865 -0.03834152 0.25401035 0.037610684 0.40767506
0.13865584 -0.28664294 -0.20838094 -0.52127934 -0.01973836 -0.47966594 0.08274157 0.019156981
-0.627143 -0.11753604 0.0027777187 0.0769343 0.10750066 0.035124436 0.02622121 0.06234648
-0.09604916 0.40213075 -0.4550961 0.31217545 0.12803493 0.123899855 -0.047617506 0.68105274
0.13314508 0.054156616 -0.18946587 -0.96947247 0.1244557 -0.1344393 0.46532154 -0.045179002
00000000: a15c 483c ac89 093f caae 22bd 0984 9cbd
00000010: ad3f bfbd 171e d53e f031 edbd 9ee3 5ebd
00000020: 4653 363e baeb 8fbe 617a 2ebe 1124 6dbd
00000030: df85 2ebf 4a79 483f 1e02 f7bd 4b90 ae3e
00000040: e3b9 96be 0ca0 cf3e 1ea4 6a3f 25f0 b5bd
00000050: 58f6 7fbd 0157 213f f9ea 143d 7389 e33d
00000060: abe8 34bd fe03 73bf a921 30be 4431 65bc
00000070: 7e93 9c3c b2ff 1f3d c008 5bbf 472b cd3e
00000080: 0a44 bf3d a0a4 c5be 38e2 a4be c87c 893d
00000090: c3d7 823e 8e00 d83e 8699 a73e 5795 bd3d
000000a0: 9f97 7dbe a62e 063e 1f58 ff3c 6e8c 21bd
000000b0: d3d7 f63d 19ab f03c 8131 ff3d a569 393e
000000c0: c001 e63e 481c dbbe 8dda 51be 59a5 e13e
000000d0: e5e8 a03e 2aa2 0cbe db0b 21bf 960d ed3d
000000e0: 9146 d43d 0e0b 19bf 6c80 4abe bcc1 aebd
000000f0: c5a4 e53d 71ec e73e a182 60be 6a1a 603d
00000100: c66a cfbe a634 213f 41a0 e3be 2160 10be
00000110: f71c dc3d 57f4 70bd 8e74 c13b f625 423d
00000120: a4e3 533e bc6f 173f c576 3bbe cbe6 b73d
00000130: 0b04 87be 1850 a5be ea67 9cbe ab73 02bf
00000140: ae5a b93b fe92 2dbe bccb a93d a120 ebbd
00000150: f3d8 133e 3547 5e3e 9940 bc3d 5a37 8c3e
00000160: 3d3e cf3c b347 66be 7ccf a83e b188 e43e
00000170: 84e3 473d aa21 e83d 9655 373f 8c7e 423e
00000180: fa14 e9be b344 3dbf d714 4fbe 0d7d bd3e
00000190: 9e84 0e3f 5401 99bd 7f5b 1fbf 3bdc 1e3d
000001a0: 8645 9ebe 32d0 1d3e 83d4 c0bd c50c f7bd
000001b0: fb5e 153e 6ce9 083f e5a4 8c3e 9230 813c
000001c0: 2dee dd3e 9686 a8be b7d6 8d3f cc07 7d3e
000001d0: d057 643e 3271 133f 9072 933e 425d 8f3e
000001e0: 714d 27bf 6b74 3d3f 2662 8b3e df6d 7b3e
000001f0: 5760 2f3f 42a2 b0be 0985 2f3d 0db5 95be
00000200: 828d 02bd 71d5 b23e c9d9 e2bd cbfc 153e
00000210: d23e 29bf 3b85 25be 5816 b0bd 9793 013f
00000220: 93ba 403f ef35 0f3f bab6 0abf a199 80bf
00000230: 1a3a d8be 9b08 f5be 9180 87bf 29fc c4bd
00000240: 1bac f9bd e055 c3be 2ae9 fcbd a634 10bf
00000250: 10ee cebe 1686 413e f83a c53d 4244 8f3d
00000260: 29bb 41be f469 afbe a468 913d 54ac 41bd
00000270: c1f7 183e 60bc bd3e 01f5 a13e c085 d73d
00000280: 6e75 123f 4b1d fdbe a43b 90bf 1e78 52bf
00000290: 3293 34be 1f5a 643e 3c02 963d ffca 98bd
000002a0: cbb1 133f c2af 54bf 81f7 1abe 6647 a5bd
000002b0: 2002 87be c605 e6be 3d9d 8cbf 5a13 213f
000002c0: 1f03 14be 83f7 6ebf 2fe7 77be 0277 00be
000002d0: 0338 c2be 5c7c 193e e9b3 ce3a 83a7 00be
000002e0: 293b e33e d935 823f 578a d63d 8c98 08bf
000002f0: f242 e1bc e028 583e c2ec c73c 618a dcbd
00000300: e172 3ebe 2116 bbbc 4fc5 8f3e 041a 36be
00000310: ac06 34be 73bf 33be e984 00be 0dcc 183d
00000320: e32d 62be cb92 98be fc40 cd3c 84fe 1b3f
00000330: 0f36 1f3f e345 77be 7f60 e4be 2430 88be
00000340: 19fb d6be 010c a03d 466e ad3d 568c 79bf
00000350: d29f 29be 2c73 e8bd 6522 e23d 3e5f 3e3f
00000360: f140 abbe ccea c7be dca3 debe 23d8 8c3e
00000370: ff0b 1dbd a50d 823e a90d 1a3d c9ba d03e
00000380: ccfb 0d3e ddc2 92be d061 55be 9072 05bf
00000390: 57b2 a1bc c696 f5be 6a74 a93d 1aef 9c3c
000003a0: 728c 20bf bcb6 f0bd 630a 363b bb8f 9d3d
000003b0: 4e29 dc3d a4de 0f3d ddcd d63c 065f 7f3d
000003c0: 6cb5 c4bd 15e4 cd3e 5b02 e9be 76d5 9f3e
000003d0: 971b 033e 35bf fd3d 930a 43bd 7959 2e3f
000003e0: 2f57 083e 54d3 5d3d 5703 42be 592f 78bf
000003f0: a1e2 fe3d 75aa 09be a03e ee3e 9e0d 39bd

model.0.conv.0.kernels.2.weights f4 [8, 16, 4, 5]
-0.030056225 0.1513076 0.36847335 -0.05807066 -0.03383136 0.11024503 0.04271495 -0.0909575
0.5193532 0.27722907 -0.16754963 -0.115059495 0.07869383 0.09117644 -0.28652593 -0.10360314
-0.048124835 -0.14539501 -0.046288457 0.14960846 -0.27585363 -0.6504551 0.77402896 0.045298617
-0.17911237 0.12549232 0.17764482 -0.21380351 0.56121767 -0.6894708 0.45813206 1.0924678
-0.24712422 0.106346786 -0.16355175 -0.22664818 0.7442334 0.22903667 -0.069036454 -0.87509125
-0.19124828 0.14424926 -0.72375363 -0.17239425 0.20301694 -0.036663447 0.16146697 -0.28479686
-0.10887249 0.61215883 0.013777426 -0.7562277 0.10736491 0.07137643 0.4950521 -0.100619264
-0.5639378 -0.08961944 -0.15857212 0.5863199 0.19439901 -0.043158162 0.51278514 0.1227632
0.01447111 -0.043378696 0.10564066 0.0061587607 0.30876648 0.097941376 0.08027295 -0.14164987
-0.015885228 -0.06010707 -0.124665536 -0.12812771 -0.02956052 0.10754206 0.011176674 0.020948613
0.2084699 0.48072425 -0.6458816 -0.25856063 -0.032118857 -0.38808846 0.3263035 0.23338887
-0.014810787 0.7694653 -0.029415492 -0.8382039 -0.00474325 0.04166347 0.34815615 -0.0034265586
-0.8492888 -0.24562791 -0.07555474 0.7961859 -0.12474532 0.032172408 0.3840192 0.04065351
-0.011840483 -0.03649089 0.017349822 -0.19124067 0.6160645 0.36494914 -0.0710251 -0.08041737
-0.24053954 0.27480778 -0.0843654 -0.015469259 -0.22955452 -0.20130928 0.16875519 0.08511431
0.12097541 0.04229077 0.48675933 -0.0020498224 0.046385612 -0.28267202 0.17681278 0.048683953
-0.25015077 -0.47785226 -0.22165006 -0.5514743 -0.3310649 0.12084893 -0.4099765 -0.12843487
-0.017074455 -0.15357994 -0.0046691764 -0.22231354 0.3459943 0.16380627 0.2513915 0.1869968
0.109731935 -0.15761818 0.13745888 0.24033816 -0.10240319 -0.14277752 0.26416957 0.3460371
0.2657786 0.17597787 -0.07816723 0.05149617 0.40944165 0.4654125 -0.11967118 -0.14586662
-0.47320148 -0.2665307 -0.6641264 -0.20948592 -0.29102665 0.4215682 0.4976518 0.59472966
0.17585403 0.5990813 -0.675918 -0.71863306 -0.039499745 -0.14337163 0.21895094 -0.22945894
0.014278494 0.072950505 0.09063465 0.25698677 0.6202583 0.30705065 0.58554804 0.2853668
0.20958157 0.085813515 0.11360891 0.40196818 -0.35614914 -1.4747174 0.47247517 0.8941952
0.07272371 0.2608669 -0.1002784 0.1039681 0.4547404 0.2771826 0.23729977 -0.62468004
-0.15093504 -0.5512955 0.62437844 0.07627648 -0.20966916 -0.06107126 0.2778708 0.39941388
0.021759676 -0.18375729 -0.34739414 0.20258468 -0.3884676 -0.14823209 -0.5503809 -0.1867324
0.32866722 0.25094825 -0.07442522 -0.66748554 -0.30439818 -0.23601179 -0.3117266 -0.4978178
-0.20821932 0.21311313 0.44728398 0.48891577 0.55498147 0.29667166 -0.36319554 -0.5228184
-1.137768 -0.4254389 -0.35617113 -0.56252486 -0.59684336 -0.69606084 -0.119361326 0.17438985
-0.12439706 -0.17422824 -0.2611646 -0.26857755 -0.017586993 -0.102820575 -0.23394401 -0.2429149
0.2198226 0.5553561 -0.1078599 -0.19948025 0.14866555 -0.24638887 0.29292512 -0.26693112
00000000: 7938 f6bc 61f0 1a3e 8aa8 bc3e 80db 6dbd
00000010: c192 0abd 25c8 e13d dff5 2e3d ed47 babd
00000020: 55f4 043f f8f0 8d3e 2192 2bbe 50a4 ebbd
00000030: 3b2a a13d b7ba ba3d 87b3 92be e22d d4bd
00000040: 8c1e 45bd 6ee2 14be f798 3dbd f632 193e
00000050: b03c 8dbe 3a84 26bf c326 463f 0b8b 393d
00000060: 3c69 37be 0f81 003e 86e8 353e 4fef 5abe
00000070: f6ab 0f3f 2981 30bf 4990 ea3e fcd5 8b3f
00000080: 220e 7dbe 58cc d93d 1c7a 27be 7616 68be
00000090: 1586 3e3f 9788 6a3e fc62 8dbd fb05 60bf
000000a0: 97d6 43be 14b6 133e eb47 39bf 1e88 30be
000000b0: ace3 4f3e 692c 16bd 9957 253e e5d0 91be
000000c0: 8af8 debd 71b6 1c3f b7ba 613c 2398 41bf
000000d0: 22e2 db3d ce2d 923d 7877 fd3e 7911 cebd
000000e0: 3a5e 10bf 668a b7bd bb60 22be 1019 163f
000000f0: 8910 473e 9dc6 30bd e345 033f 466b fb3d
00000100: 3c18 6d3c dcad 31bd 215a d83d 6ecf c93b
00000110: a416 9e3e 7d95 c83d 2566 a43d aa0c 11be
00000120: bd21 82bc d532 76bd a550 ffbd e933 03be
00000130: e728 f2bc 033f dc3d 5e1e 373c 6d9c ab3c
00000140: 2279 553e 7d21 f63e 7f58 25bf 0f62 84be
00000150: 108f 03bd 88b3 c6be 4111 a73e 7efd 6e3e
00000160: f1a8 72bc aefb 443f c2f8 f0bc 8894 56bf
00000170: 446d 9bbb 51a7 2a3d 8641 b23e 1d90 60bb
00000180: fe6a 59bf e285 7bbe 72bc 9abd d7d2 4b3f
00000190: 797a ffbd 37c7 033d 2a9e c43e 4b84 263d
000001a0: 96fe 41bc 7977 15bd 3721 8e3c 98d4 43be
000001b0: 67b6 1d3f 9dda ba3e 9c75 91bd ddb1 a4bd
000001c0: ff4f 76be 9bb3 8c3e c4c7 acbd c672 7dbc
000001d0: 5710 6bbe 0524 4ebe 29ce 2c3e 6950 ae3d
000001e0: f5c1 f73d 1639 2d3d 8538 f93e 5056 06bb
000001f0: d7fe 3d3d 63ba 90be 690e 353e d368 473d
00000200: c313 80be 0da9 f4be 3cf8 62be 6b2d 0dbf
00000210: 5781 a9be a57f f73d 71e8 d1be 6e84 03be
00000220: badf 8bbc 0f44 1dbe e4ff 98bb 29a6 63be
00000230: 2a26 b13e d5bc 273e 63b6 803e 177c 3f3e
00000240: 23bb e03d a966 21be 05c2 0c3e 351b 763e
00000250: c4b8 d1bd 4534 12be 3c41 873e c62b b13e
00000260: 2214 883e 8b33 343e 2416 a0bd a6ed 523d
00000270: 56a2 d13e 8c4a ee3e 2a16 f5bd 0f5e 15be
00000280: 7747 f2be b676 88be 3004 2abf 7a83 56be
00000290: 7201 95be cad7 d73e 37cc fe3e 3440 183f
000002a0: 1413 343e 645d 193f f608 2dbf 56f8 37bf
000002b0: 7cca 21bd 03d0 12be ad34 603e 49f7 6abe
000002c0: 58f0 693c 1367 953d a99e b93d c593 833e
000002d0: 3fc9 1e3f be35 9d3e 7ae6 153f 991b 923e
000002e0: 8d9c 563e ffbe af3d caab e83d c6ce cd3e
000002f0: 2e59 b6be 8ac3 bcbf 44e8 f13e fae9 643f
00000300: 2bf0 943d 5990 853e c35e cdbd 3aed d43d
00000310: bcd3 e83e e1ea 8d3e b6fe 723e 08eb 1fbf
00000320: b78e 1abe b421 0dbf 44d7 1f3f d836 9c3d
00000330: 83b3 56be dc25 7abd 1545 8e3e fa7f cc3e
00000340: 5941 b23c df2a 3cbe a5dd b1be 5c72 4f3e
00000350: 3ae5 c6be 27ca 17be c3e5 0cbf c736 3fbe
00000360: 1247 a83e 4a7c 803e 406c 98bd 55e0 2abf
00000370: 14da 9bbe 13ad 71be a19a 9fbe fae1 febe
00000380: 7237 55be 543a 5a3e 6802 e53e 2b53 fa3e
00000390: 4413 0e3f 59e5 973e c4f4 b9be 6dd7 05bf
000003a0: 62a2 91bf 21d3 d9be 105c b6be a101 10bf
000003b0: baca 18bf 0b31 32bf b673 f4bd 4193 323e
000003c0: e3c3 febd e368 32be 5eb7 85be ff82 89be
000003d0: 9912 90bc 9893 d2bd 058f 6fbe afbe 78be
000003e0: 2d19 613e d12b 0e3f a7e5 dcbd 8d44 4cbe
000003f0: c83b 183e 5d4d 7cbe 48fa 953e 32ab 88be

model.0.conv.0.kernels.3.weights f4 [8, 16, 4, 7]
-0.030378118 0.04408799 -0.032357328 0.27061775 0.008573014 -0.12721655 -0.19830848 -0.08332827
-0.105371654 0.13726044 -0.28036827 0.4183899 0.2181656 0.19452384 -0.06703793 -0.2543428
-0.088909335 -0.2908672 0.11550563 -0.17709678 0.38640755 -0.25874138 -0.027204901 -0.040762525
-0.11252901 0.16276595 0.17958413 -0.007694046 -0.52722234 -0.3904543 -0.72460806 0.6882586
-0.08759469 -0.1668763 -0.2498946 -0.082004555 0.4146511 0.17449173 0.06157545 0.3136268
-0.76330703 0.4760693 -0.11332995 0.43370092 0.969704 -0.1463253 -0.053770542 -0.045274474
0.36157423 -0.28328794 -0.13450293 0.5573191 -0.025169993 0.06356728 -1.0179743 0.34191388
0.028028755 -0.30515563 -0.03270547 -0.7747764 -0.10346768 -0.019341948 0.13216385 0.1111601
-0.04812175 -0.06858758 -0.49621034 0.031942822 0.62285864 -0.13176188 0.47730702 -0.0042442814
-0.72445524 0.32454646 0.0878843 0.36871165 -0.2575909 -0.13809161 -0.14407572 -0.5786064
-0.34451884 -0.107378565 0.51658106 -0.3367197 0.086766176 0.26304552 -0.016084114 0.47848308
0.0093104495 0.007914437 0.01626593 0.1518078 -0.09092101 -0.0125875855 -0.31766337 0.26770198
0.09938433 0.11459656 0.01402901 -0.07137705 0.0003989268 -0.16346377 0.16726358 -0.11473109
0.17088424 -0.110848956 -0.014916056 -0.083445944 0.034304313 -0.0879301 0.11026291 0.05088836
0.25960925 0.042520646 0.665453 -0.8840738 -0.26857454 0.01898734 0.19811448 -0.059473697
-0.28512827 0.46910587 0.17783806 0.101396054 0.76319396 -0.1584271 0.16809906 -0.12251988
-0.68696946 0.26204205 0.37884438 0.45288008 -0.22093534 0.0884261 0.08604628 -0.6068358
-0.07417201 -0.09057875 0.7646292 -0.27846268 -0.1279354 0.21270537 -0.095557004 0.2378962
-0.12592192 -0.13873969 -0.029479234 -0.15114908 -0.13200714 0.013987149 -0.15265664 0.48970765
0.24358381 0.25840017 -0.18142785 -0.2837266 -0.3160404 -0.08652623 0.10608478 -0.27586836
0.29167038 -0.23241144 -0.12554336 -0.0837665 -0.036004595 0.12536739 0.19931786 0.0044047404
0.07261668 0.091868125 0.11706743 0.49844584 0.028281074 -0.008049573 -0.12266111 -0.033949826
-0.10251689 0.121930666 -0.007837139 -0.24036291 -0.219025 -0.23883028 -0.17867626 -0.20651503
-0.72761244 -0.18758845 0.13606654 -0.09438521 0.19911167 -0.17369272 -0.107628725 -0.029952925
0.13403736 -0.2834325 -0.10417824 -0.0138607295 -0.14770529 -0.08564117 0.024739815 0.4472168
0.29258788 0.09777174 0.22996762 0.05155963 -0.18220685 0.015416865 0.19121185 -0.46217385
-0.13506141 -0.12549576 -0.045478616 0.2040958 0.31998354 0.45991734 0.15551178 0.049100272
-0.03203548 0.4112029 0.08767329 0.3337176 0.4603559 -0.06636757 -0.18767127 0.033461355
-0.21169618 -0.5037114 -0.23707235 -0.65769756 -0.028658487 -0.37519556 -0.106989086 0.51824945
0.12542073 0.31690893 0.7093712 0.08264692 0.45483768 0.5066627 -0.7317772 -0.9546009
-0.59014076 -0.089946575 -0.15358505 0.13612033 -0.07386846 -0.044221412 -0.029080197 0.06818117
-0.07313191 -0.0397061 0.19815429 0.18519042 0.22262825 0.4215933 -0.01088925 0.7880995
00000000: 88db f8bc 9c95 343d 1e89 04bd 698e 8a3e
00000010: d475 0c3c 0e45 02be 6111 4bbe 03a8 aabd
00000020: 18cd d7bd 008e 0c3e 6e8c 8fbe 3337 d63e
00000030: ce66 5f3e 4231 473e 2f4b 89bd 3839 82be
00000040: 1916 b6bd 8cec 94be 378e ec3d dc58 35be
00000050: 36d7 c53e c079 84be d0dc debc 9bf6 26bd
00000060: 9c75 e6bd 1eac 263e e7e4 373e 561e fcbb
00000070: 0bf8 06bf a0e9 c7be ea7f 39bf b731 303f
00000080: d864 b3bd 9fe1 2abe 5fe4 7fbe 01f2 a7bd
00000090: 264d d43e f6ad 323e 8a36 7c3d b193 a03e
000000a0: 1768 43bf 5bbf f33e 8819 e8bd 0c0e de3e
000000b0: 853e 783f 4dd6 15be 803e 5cbd ba71 39bd
000000c0: 4220 b93e 1e0b 91be 23bb 09be 77ac 0e3f
000000d0: 4d31 cebc 902f 823d fb4c 82bf 560f af3e
000000e0: 8f9c e53c 5c3d 9cbe 2cf6 05bd bf57 46bf
000000f0: dde6 d3bd 0173 9ebc f655 073e e8a7 e33d
00000100: 501b 45bd a577 8cbd 480f febe 7ad6 023d
00000110: aa73 1f3f 96ec 06be 9661 f43e 9d13 8bbb
00000120: e675 39bf f42a a63e affc b33d c6c7 bc3e
00000130: f4e2 83be e367 0dbe 9688 13be 8d1f 14bf
00000140: c664 b0be 4be9 dbbd a83e 043f 8666 acbe
00000150: 77b2 b13d e7ad 863e d5c2 83bc bcfb f43e
00000160: db8a 183c 8eab 013c 2140 853c 8173 1b3e
00000170: cb34 babd 293c 4ebc c6a4 a2be 3c10 893e
00000180: 038a cb3d 9ab1 ea3d efd9 653c 212e 92bd
00000190: 0c27 d139 0c63 27be 2547 2b3e 22f8 eabd
000001a0: 47fc 2e3e c704 e3bd 7962 74bc b5e5 aabd
000001b0: ae82 0c3d b214 b4bd 85d1 e13d 5070 503d
000001c0: 81eb 843e 212a 2e3d 215b 2a3f a952 62bf
000001d0: 9a82 89be 578b 9b3c 86de 4a3e b19a 73bd
000001e0: 55fc 91be a52e f03e 2e1b 363e bca8 cf3d
000001f0: ae60 433f b73a 22be 2922 2c3e b4eb fabd
00000200: 3bdd 2fbf 602a 863e e4f7 c13e e6df e73e
00000210: e03c 62be be18 b53d 0839 b03d 9759 1bbf
00000220: 7fe7 97bd 5a81 b9bd bdbe 433f a992 8ebe
00000230: 7f01 03be 70cf 593e 64b3 c3bd 109b 733e
00000240: adf1 00be c711 0ebe 6f7e f1bc d3c6 1abe
00000250: e12c 07be 5b2a 653c 0652 1cbe f6ba fa3e
00000260: 096e 793e 074d 843e 39c8 39be 9d44 91be
00000270: 0cd0 a1be aa34 b1bd fa42 d93d 9e3e 8dbe
00000280: d255 953e 44fd 6dbe 708e 00be c58d abbd
00000290: 8e79 13bd 4f60 003e fb19 4c3e a455 903b
000002a0: 0eb8 943d 5b25 bc3d 0cc1 ef3d 4b34 ff3e
000002b0: b6ad e73c 5be2 03bc bf35 fbbd f90e 0bbd
000002c0: 60f4 d1bd c9b6 f93d 5867 00bc b221 76be
000002d0: 1748 60be ed8f 74be e9f6 36be ad78 53be
000002e0: cf44 3abf 3017 40be 0755 0b3e 084d c1bd
000002f0: eee3 4b3e 81dc 31be 736c dcbd d65f f5bc
00000300: 1741 093e 111e 91be 675b d5bd 1d18 63bc
00000310: 0e40 17be a364 afbd 27ab ca3c 9af9 e43e
00000320: 14ce 953e 8d3c c83d a27c 6b3e 3130 533d
00000330: 6f94 3abe 0597 7c3c 0acd 433e 0da2 ecbe
00000340: 8a4d 0abe f681 00be c947 3abd 7dfe 503e
00000350: e2d4 a33e 497a eb3e 7b3e 1f3e 5e1d 493d
00000360: a337 03bd 3089 d23e 0e8e b33d 09dd aa3e
00000370: c5b3 eb3e b8eb 87bd e62c 40be c60e 093d
00000380: e2c6 58be 3bf3 00bf 18c3 72be de5e 28bf
00000390: 34c5 eabc a219 c0be 181d dbbd ffab 043f
000003a0: 4b6e 003e e341 a23e 5a99 353f ca42 a93d
000003b0: 7ce0 e83e a6b4 013f c055 3bbf b960 74bf
000003c0: 7713 17bf e935 b8bd 6645 1dbe 2163 0b3e
000003d0: 5948 97bd 8321 35bd 9839 eebc 92a2 8b3d
000003e0: 2fc6 95bd dda2 22bd f5e8 4a3e 8fa2 3d3e
000003f0: a9f8 633e 14db d73e d368 32bc e4c0 493f

model.0.conv.0.kernels.4.weights f4 [8, 16, 4, 9]
0.17152703 -0.035899248 0.044592984 0.023646297 0.3991898 -0.069477245 -0.018453483 0.033549044
-0.09653921 -0.035009764 -0.024532294 0.0439422 0.062329646 -0.23491484 0.56361187 0.19234589
0.04495584 0.2199406 0.082320735 0.070412904 -0.06237829 -0.15137918 -0.04139486 0.27113912
-0.11563675 0.14606732 -0.019282958 -0.030492382 -0.018899895 -0.02465493 -0.14948747 -0.095085055
0.19242449 0.074988425 0.07121908 -0.0043556727 -0.47739744 -0.43804082 -0.2799308 -0.68737805
0.6499972 0.04074173 0.03308133 -0.28995913 -0.32294217 -0.2343013 -0.26898316 0.3526945
0.07506208 0.014855242 0.19519411 -0.74452496 0.42434353 0.33500734 0.10451743 0.027245332
0.42561743 1.037317 -0.2473878 0.2111676 -0.20295848 0.326625 0.2348115 0.10443522
-0.26460254 -0.16326714 0.48930144 0.074707724 0.021475647 -0.89130324 0.250881 0.4597873
-0.063986465 -0.056171063 -0.35550636 0.11156952 -0.920553 -0.2611408 0.0003854487 0.041530274
0.09472412 -0.06114179 0.0006232371 -0.10539494 0.14672549 -0.4855023 -0.15853685 0.65914965
-0.24844165 -0.22466156 0.3654196 0.40853882 0.2577506 -0.60857505 0.29603392 0.13502674
0.3917221 -0.0057214876 0.03276051 -0.31618384 0.097114444 0.113786764 -0.50312716 -0.053142235
-0.10532954 0.47811878 0.048659842 -0.12491302 0.008343216 -5.927815e-05 -0.12458881 0.1118464
0.5463611 -0.119744346 -0.07475301 -0.023495184 0.013188918 -0.11572206 -0.16631615 -0.026663508
-0.027524695 -0.2239947 0.302331 0.14447278 0.042194583 0.07650594 0.23920734 0.064246334
-0.12291564 0.10514852 -0.07995374 0.10798605 0.005441738 0.10244168 0.13980405 -0.14301324
-0.11551988 -0.06729209 -0.06662003 -0.108059116 0.0091926735 0.14929727 -0.021706855 0.0868885
0.08559155 0.1659588 -0.008098983 0.3036084 -0.64910364 -0.2672496 -0.077533446 0.22829771
0.1147401 0.21201874 -0.0690109 -0.25406674 0.19088724 0.13872178 0.035214823 0.75736165
0.12776102 -0.19163808 0.14912523 0.1145845 -0.2902014 -0.67052335 0.22674003 0.10454344
0.29362404 -0.21451235 0.031090755 -0.12050038 0.21752387 0.050051194 -0.6925115 -0.11887327
-0.082579955 0.8583122 -9.826636e-05 -0.34232628 -0.008666703 0.1281823 -0.093666986 -0.022362001
0.31655064 0.041041564 -0.0080730375 -0.16207148 -0.07956466 -0.33938769 -0.09544608 -0.097630724
-0.025732288 -0.28210253 0.6278798 0.36533803 0.09038314 0.19803055 -0.17510103 -0.15010709
-0.24458124 -0.28373852 -0.08281903 0.117518015 -0.21197926 0.20677462 0.09861305 -0.06252491
-0.26841712 -0.20281363 -0.1975522 -0.048871994 0.15629938 0.14904621 0.11745442 -0.017123982
0.19018646 0.17484038 0.0774451 0.103647105 0.508815 -0.047901366 0.1188134 -0.16741724
-0.18422934 -0.03493224 -0.013143448 -0.16826962 -0.17042534 -0.25059474 -0.25347584 -0.31799176
-0.23395048 -0.42013103 -0.046607308 0.007211194 -0.28587905 -0.67479265 -0.3008725 -0.09003217
-0.2568735 0.17176908 -0.005112169 -0.01638744 -0.095041685 -0.02552124 0.0465136 -0.20150527
-0.14412801 -0.13382283 -0.045893285 0.1410045 -0.15024993 0.042474788 -0.06086001 0.18068525
00000000: c8a4 2f3e 170b 13bd 22a7 363d e1b5 c13c
00000010: 9b62 cc3e 164a 8ebd c22b 97bc b96a 093d
00000020: 59b6 c5bd 6666 0fbd f3f7 c8bc bcfc 333d
00000030: 5f4d 7f3d 848d 70be de48 103f 52f6 443e
00000040: 9d23 383d 1c38 613e c697 a83d a434 903d
00000050: 6180 7fbd 2503 1bbe a88d 29bd bfd2 8a3e
00000060: f6d2 ecbd ac92 153e 4bf7 9dbc 29cb f9bc
00000070: f4d3 9abc 23f9 c9bc 3e13 19be f4bb c2bd
00000080: ed0a 453e 8893 993d 4fdb 913d 08ba 8ebb
00000090: 706d f4be e346 e0be 1753 8fbe 02f8 2fbf
000000a0: 3766 263f cde0 263d 4a80 073d 8675 94be
000000b0: ad58 a5be aeec 6fbe 29b8 89be 6094 b43e
000000c0: 26ba 993d 6763 733c f7e0 473e 3099 3ebf
000000d0: 8e43 d93e 1586 ab3e 3c0d d63d 9a31 df3c
000000e0: 87ea d93e cec6 843f 3a53 7dbe 523c 583e
000000f0: 59d4 4fbe 643b a73e 6d72 703e 22e2 d53d
00000100: fc79 87be 802f 27be b885 fa3e 5d00 993d
00000110: b2ed af3c 732c 64bf 7973 803e 3e69 eb3e
00000120: 560b 83bd a113 66bd ee04 b6be 8f7e e43d
00000130: 5da9 6bbf 3fb4 85be 0c16 ca39 a61b 2a3d
00000140: b8fe c13d d06f 7abd bc60 233a 4dd9 d7bd
00000150: 353f 163e c293 f8be 7c57 22be 08be 283f
00000160: 7d67 7ebe ae0d 66be 4718 bb3e 002c d13e
00000170: e3f7 833e 93cb 1bbf c291 973e 7344 0a3e
00000180: cd8f c83e 517b bbbb e22f 063d d9e2 a1be
00000190: f0e3 c63d 0909 e93d f1cc 00bf acab 59bd
000001a0: 04b7 d7bd fccb f43e 8b4f 473d 66d2 ffbd
000001b0: fcb1 083c 6ea1 78b8 6b28 ffbd ba0f e53d
000001c0: 52de 0b3f 863c f5bd 1b18 99bd f978 c0bc
000001d0: 5516 583c b0ff ecbd c84e 2abe 6e6d dabc
000001e0: 787b e1bc de5e 65be 21cb 9a3e acf0 133e
000001f0: 3ad4 2c3d 25af 9c3d c5f2 743e 9593 833d
00000200: 32bb fbbd 1b58 d73d c9be a3bd ca27 dd3d
00000210: 9b50 b23b f2cc d13d cb28 0f3e 1072 12be
00000220: b095 ecbd 6fd0 89bd 1570 88bd 194e ddbd
00000230: de9c 163c 62e1 183e 93d2 b1bc 99f2 b13d
00000240: 9f4a af3d 1bf1 293e 99b1 04bc 8f72 9b3e
00000250: a82b 26bf f1d4 88be dbc9 9ebd e0c6 693e
00000260: dcfc ea3d 711b 593e 9655 8dbd 0915 82be
00000270: f277 433e 150d 0e3e 6b3d 103d 74e2 413f
00000280: c9d3 023e c63c 44be 49b4 183e 47ab ea3d
00000290: 4795 94be 6ba7 2bbf 8a2e 683e df1a d63d
000002a0: e455 963e 20a9 5bbe 0ab2 fe3c e7c8 f6bd
000002b0: 94be 5e3e 7b02 4d3d 6f48 31bf d473 f3bd
000002c0: ae1f a9bd 59ba 5b3f 5a14 ceb8 6445 afbe
000002d0: c9fe 0dbc 3942 033e 7ad4 bfbd 8430 b7bc
000002e0: ed12 a23e 331b 283d c644 04bc 11f6 25be
000002f0: ccf2 a2bd 39c4 adbe 3c79 c3bd 9ef2 c7bd
00000300: 85cc d2bc be6f 90be bbbc 203f 960d bb3e
00000310: cc1a b93d 85c8 4a3e af4d 33be acb5 19be
00000320: 8173 7abe 2d46 91be 069d a9bd 49ad f03d
00000330: 1711 59be babc 533e a4f5 c93d 0f0d 80bd
00000340: f86d 89be 60ae 4fbe 204b 4abe 002e 48bd
00000350: f20c 203e 929f 183e f18b f03d 9847 8cbc
00000360: 3dc0 423e 5b09 333e 899b 9e3d ef44 d43d
00000370: b341 023f 3934 44bd 7154 f33d 6d6f 2bbe
00000380: 9ea6 3cbe 1c15 0fbd 9e57 57bc df4e 2cbe
00000390: fb83 2ebe f44d 80be 96c7 81be d1cf a2be
000003a0: b790 6fbe 6a1b d7be 4ee7 3ebd e14b ec3b
000003b0: bd5e 92be 36bf 2cbf f60b 9abe c962 b8bd
000003c0: ec84 83be 3ce4 2f3e fb83 a7bb f43e 86bc
000003d0: 37a5 c2bd eb11 d1bc 0b85 3e3d 6657 4ebe
000003e0: 4b96 13be da08 09be 99fa 3bbd 7c63 103e
000003f0: 1edb 19be 0bfa 2d3d 5948 79bd 8e05 393e

model.0.conv.0.kernels.5.weights f4 [8, 16, 4, 11]
0.050559383 0.05048708 0.110689975 -0.024593024 -0.0067307493 0.3585965 -0.03802974 0.035620924
-0.038599838 0.004157717 0.022835612 -0.2035862 -0.22067612 -0.02704829 0.093827546 0.10553414
-0.05949892 0.42401814 0.21336573 0.015860824 0.11148522 0.25416502 -0.030851241 0.026684789
-0.11700019 -0.16389547 -0.20445642 -0.0068523185 0.14103766 -0.12456018 0.0155268 0.04088938
-0.1278799 -0.08403093 -0.033183467 -0.21739693 -0.19649278 -0.13136265 -0.13562149 0.02337765
-0.0034670113 -0.06772225 0.0909901 0.0130558275 -0.43825543 -0.49097168 -0.65413564 -0.2595813
-0.72228086 0.6506328 0.1152882 -0.19640675 -0.2402374 -0.23986891 -0.06629848 0.123526655
-0.26144063 -0.10990103 0.14953648 0.13218726 -0.06572486 0.41473326 -0.60501033 0.44022417
0.19372366 0.029619182 0.18888177 -0.018877793 0.15496352 0.424907 1.1428002 -0.088189706
0.011715299 -0.14244933 0.200488 0.23338158 0.14147086 0.033813156 0.11752901 -0.25660264
-0.23905933 0.5527562 0.042303544 0.17006174 -0.993322 0.14573106 0.44663477 0.09229383
-0.022386571 -0.17563842 -0.057022296 -0.29630455 0.0039935657 -0.80429834 -0.19617891 -0.13479705
0.03754225 0.0077390056 -0.059663106 0.16775736 0.0015080455 -0.019418422 -0.23545797 -0.014290726
-0.2530287 -0.13948217 0.64508367 -0.035092507 -0.10744622 -0.17304471 0.24080308 0.42921838
0.4155899 0.039787453 -0.7545553 0.29697976 -0.09531284 0.32826588 -0.20907918 -0.007652972
0.18389273 0.0025211028 -0.096891366 0.0215457 0.1233973 -0.48875186 -0.13705502 -0.05749356
0.4646292 -0.05056786 -0.2391121 0.02767801 0.016852777 0.09330573 0.1509911 0.056380723
0.10322481 0.3948959 -0.09381576 -0.0070518376 -0.020800704 0.025319677 0.015183314 -0.09297865
-0.056472093 -0.07653465 -0.076602146 0.19336337 -0.24353386 0.32573602 -0.06808811 0.16537069
0.014034642 0.11619154 -0.16743675 0.11915444 -0.012853784 -0.14003068 -0.04702295 -0.09681241
-0.051041745 -0.07043493 0.14812745 0.059814636 -0.030934073 -0.14911854 0.118848845 -0.19985926
-0.13440078 0.036894385 -0.13714036 0.06849472 -0.11897101 0.0044970065 -0.032626737 -0.09304308
0.12145478 0.09674041 0.17542438 -0.032825764 0.47645643 -0.6912405 -0.101470985 0.0011764211
0.19577333 0.22770807 -0.17110038 0.07429895 0.13713929 -0.07621451 -0.36564586 0.27856833
0.25947303 0.05987273 0.80927193 -0.049239893 -0.21355477 -0.13100497 0.22863454 0.15355529
0.17752866 -0.013257756 -0.92686045 0.32660818 0.07069012 0.35829914 -0.20654877 0.03870319
0.14889659 0.096364476 -0.1344721 0.18386695 0.049847968 -0.7251169 -0.18659867 -0.024691036
0.7948127 -0.24839763 -0.2714805 -0.13056722 -0.031121342 0.050377674 0.14674716 -0.067626104
0.010605177 0.43534118 -0.031962827 0.02375854 -0.03706865 -0.0077220914 -0.022897167 -0.3071373
-0.151685 -0.16336319 -0.066773154 -0.037498336 -0.36686456 0.5525527 0.2250021 0.20309894
0.19100696 0.41790536 -0.2940257 0.019874467 -0.098669305 -0.2627106 -0.15104781 0.05571441
0.09702329 -0.14403276 0.261079 0.10450553 -0.13296258 -0.16573682 -0.16059503 -0.30111375
00000000: 5b17 4f3d 8acb 4e3d 6db1 e23d 4f77 c9bc
00000010: 9e8d dcbb f699 b73e 13c5 1bbd 3fe7 113d
00000020: dd1a 1ebd 753d 883b c011 bb3c e778 50be
00000030: ecf8 61be 6094 ddbc a828 c03d 4822 d83d
00000040: 24b5 73bd e818 d93e 8c7c 5a3e 8fee 813c
00000050: 5d52 e43d eb21 823e bebb fcbc 0f9a da3c
00000060: cc9d efbd 37d4 27be 065d 51be 6a89 e0bb
00000070: 2d6c 103e 6819 ffbd 1f64 7e3c 9f7b 273d
00000080: f3f2 02be 6918 acbd 63eb 07bd 4d9d 5ebe
00000090: 6735 49be ee83 06be 5ce0 0abe 7c82 bf3c
000000a0: cc36 63bb f7b1 8abd 0459 ba3d 1ce8 553c
000000b0: 0463 e0be a460 fbbe 6f75 27bf d7e7 84be
000000c0: 66e7 38bf df8f 263f 381c ec3d da1e 49be
000000d0: cb00 76be 32a0 75be 7fc7 87bd 8bfb fc3d
000000e0: 8cdb 85be cb13 e1bd 1720 193e 195c 073e
000000f0: c19a 86bd eb57 d43e f5e1 1abf 1065 e13e
00000100: 7f5f 463e eda3 f23c 396a 413e 9aa5 9abc
00000110: c2ae 1e3e 698d d93e 4747 923f ce9c b4bd
00000120: 87f1 3f3c 3dde 11be ba4c 4d3e 95fb 6e3e
00000130: bddd 103e aa7f 0a3d 0db3 f03d 6c61 83be
00000140: f8cb 74be 6e81 0d3f 7b46 2d3d aa24 2e3e
00000150: 5a4a 7ebf 863a 153e 50ad e43e 8c04 bd3d
00000160: 0b64 b7bc 8fda 33be 3690 69bd 3bb5 97be
00000170: 75dc 823b 7fe6 4dbf 20e3 48be 3d08 0abe
00000180: e7c5 193d 7c97 fd3b 4d61 74bd 96c8 2b3e
00000190: 9ca9 c53a 6213 9fbc e51b 71be a623 6abc
000001a0: fa8c 81be 6ad4 0ebe 3424 253f 29bd 0fbd
000001b0: c40c dcbd a232 31be 1595 763e 83c2 db3e
000001c0: 33c8 d43e 2bf8 223d 892a 41bf bb0d 983e
000001d0: 6133 c3bd 7712 a83e da18 56be c8c5 fabb
000001e0: 604e 3c3e 1639 253b fb6e c6bd 9c80 b03c
000001f0: b9b7 fc3d af3d fabe 2758 0cbe 5e7e 6bbd
00000200: e1e3 ed3e 3f20 4fbd cdd9 74be febc e23c
00000210: d60e 8a3c 1317 bf3d 699d 1a3e 79ef 663d
00000220: 8767 d33d cc2f ca3e 7a22 c0bd 1a13 e7bb
00000230: 3d66 aabc 366b cf3c 6fc3 783c 976b bebd
00000240: 484f 67bd 33be 9cbd 96e1 9cbd 0c01 463e
00000250: f160 79be dfc6 a63e c771 8bbd ef56 293e
00000260: 8ef1 653c d5f5 ed3d 8a74 2bbe 3e07 f43d
00000270: ad98 52bc 3464 0fbe 239b 40bd 9645 c6bd
00000280: 2611 51bd 3040 90bd b9ae 173e 3100 753d
00000290: 7469 fdbc 88b2 18be 0667 f33d e8a7 4cbe
000002a0: 5ca0 09be 911e 173d 866e 0cbe f646 8c3d
000002b0: 13a7 f3bd a05b 933b 9da3 05bd 5f8d bebd
000002c0: 49bd f83d d61f c63d 73a2 333e 4f74 06bd
000002d0: 19f2 f33e 23f5 30bf 05d0 cfbd 2432 9a3a
000002e0: ce78 483e 4e2c 693e f034 2fbe 0c2a 983d
000002f0: 3e6e 0c3e 5a16 9cbd ef35 bbbe 82a0 8e3e
00000300: a6d9 843e 1c3d 753d 722c 4f3f c5af 49bd
00000310: 1aae 5abe 2b26 06be 2c1f 6a3e 993d 1d3e
00000320: 13ca 353e 0f37 59bc ba46 6dbf 3039 a73e
00000330: fbc5 903d fc72 b73e 8581 53be 3c87 1e3d
00000340: 5978 183e bd5a c53d 0eb3 09be 9e47 3c3e
00000350: 622d 4c3d 43a1 39bf b913 3fbe db44 cabc
00000360: d878 4b3f f35b 7ebe 7eff 8abe 6ab3 05be
00000370: 2ff2 febc d258 4e3d e344 163e 8e7f 8abd
00000380: 56c1 2d3c 0ae5 de3e 74eb 02bd 45a1 c23c
00000390: 4cd5 17bd 9909 fdbb d792 bbbc 1a41 9dbe
000003a0: 5053 1bbe ae48 27be 5dc0 88bd db97 19bd
000003b0: acd5 bbbe 1874 0d3f f366 663e 2bf9 4f3e
000003c0: 5497 433e b1f7 d53e 898a 96be c7cf a23c
000003d0: 2213 cabd 0182 86be 47ac 1abe cb34 643d
000003e0: 26b4 c63d 537d 13be 26ac 853e ff06 d63d
000003f0: 5827 08be eab6 29be 0673 24be 952b 9abe

model.0.conv.0.kernels.6.weights f4 [8, 16, 4, 13]
-0.047889356 0.07544927 0.06621042 0.11226754 -0.0073644 0.00963613 0.26336965 -0.010121139
-0.031318713 -0.0029231186 -0.007143065 -0.0434843 -0.012575295 -0.21469189 -0.17768016 -0.21577172
-0.10434531 -0.044924926 -0.013901339 -0.14778952 0.4524357 0.2855802 0.13627028 0.07146593
0.31600347 0.40245062 -0.1640248 -0.11150277 0.025676157 -0.0909315 -0.19018272 -0.11697935
-0.011708775 0.17086558 -0.12016726 0.21773446 0.017450014 -0.046935912 0.060877398 -0.11831697
-0.11299681 -0.074044555 -0.12782702 -0.1019041 -0.13748845 -0.23377101 0.122425206 0.08422178
-0.00952884 0.09965833 -0.049029943 0.053925317 -0.41592813 -0.33953327 -0.441501 -0.5495133
-0.43103734 -0.6547396 0.6499672 -0.03006011 -0.13785227 -0.28880435 -0.25904992 -0.091911495
-0.27372366 -0.01858774 -0.057833996 -0.13041872 -0.15971883 0.18676013 0.106668554 -0.026523408
0.36062163 -0.722977 0.3934246 0.20714033 -0.077644505 -0.049246814 0.24608254 0.14822108
-0.02541865 0.102244735 0.360138 0.9920859 -0.122811384 0.18919988 -0.048147477 0.30363682
0.17065355 0.20268053 0.10113967 0.43380347 0.095418975 0.05589669 -0.22550677 -0.19750567
0.6532714 0.09720947 0.096881814 -0.84533083 0.2916017 0.3844012 -0.0029251622 -0.15140346
-0.31169128 -0.17009914 -0.091282986 0.0778667 -0.25978726 0.028811257 -0.80370474 -0.17752182
-0.037925925 0.055994555 -0.03219643 -0.08216592 -0.016828414 0.081509784 -0.042262513 0.10457134
0.063906625 -0.1160932 -0.2079748 -0.40036166 -0.0030714402 0.631522 -0.036019426 -0.10686243
-0.23629844 -0.12872754 0.13444908 0.074354365 0.37070268 0.37335595 -0.016257321 -0.59633267
0.32637802 0.0893295 0.3991799 -0.1685809 -0.09193277 0.23760453 0.09997362 -0.005794092
0.116893224 -0.06559815 0.13687299 -0.0002819022 -0.4404025 -0.0896102 0.075422205 0.56094354
-0.015124917 -0.10611363 -0.01940461 0.038705066 0.031949967 -0.034727518 0.20840283 0.06734159
0.07127286 0.15634406 0.55793667 -0.005152848 0.057003394 -0.030157601 -0.08061021 0.0044610645
-0.08690155 -0.19064909 -0.07473843 -0.08913155 -0.16724783 0.02378958 0.15132852 -0.17388242
0.2822097 0.09671268 0.14173079 -0.0420514 0.046221144 0.4372381 -0.15833522 -0.03329735
0.13955663 0.12341874 -0.34954304 -0.016995411 0.02190383 0.01573628 -0.12789345 -0.050930314
0.017343214 -0.055581085 0.19108412 -0.11992447 -0.1416312 0.026473407 -0.019349543 -0.08512172
-0.0729403 -0.23673366 -0.022229241 0.028327262 0.017397437 0.15875 0.052864715 0.046899177
-0.12465304 0.009094206 0.2637065 0.2342184 0.09335597 0.47544256 -0.60574603 -0.25581142
-0.11051616 0.23309799 0.23295406 -0.020231042 0.08633346 0.14908403 0.17108335 0.09065893
-0.09146739 -0.28169394 0.41631553 0.20198599 0.0959912 0.9251541 -0.013251418 -0.24158743
-0.02057958 0.0336749 0.2924358 0.28268778 0.2415706 0.19351956 -0.21829042 -0.72878355
0.05201798 0.05849527 0.25610322 -0.18547712 0.109262936 0.29141176 0.11914388 -0.25296167
-0.07170246 -0.20288688 0.32647926 0.06864334 -0.60709876 -0.03272145 -0.122265264 0.68790686
00000000: a127 44bd 2685 9a3d 5499 873d 86ec e53d
00000010: 1151 f1bb dce0 1d3c 63d8 863e 22d3 25bc
00000020: 0d48 00bd cb91 3fbb 5f10 eabb 981c 32bd
00000030: 9c08 4ebc 31d8 5bbe caf1 35be 43f3 5cbe
00000040: feb2 d5bd 3303 38bd 71c2 63bc 2356 17be
00000050: a7a5 e73e 9137 923e 708a 0b3e bb5c 923d
00000060: 35cb a13e 020e ce3e 1ef6 27be 905b e4bd
00000070: ce56 d23c 4b3a babd 42bf 42be df92 efbd
00000080: 29d6 3fbc 63f7 2e3e 411a f6bd c8f5 5e3e
00000090: 55f3 8e3c df3f 40bd 945a 793d 2b50 f2bd
000000a0: df6a e7bd aca4 97bd 16e5 02be 19b3 d0bd
000000b0: c6c9 0cbe ab61 6fbe 11ba fa3d 787c ac3d
000000c0: da1e 1cbc ab19 cc3d 9fd3 48bd cbe0 5c3d
000000d0: 88f4 d4be 4ed7 adbe 6b0c e2be e7ac 0cbf
000000e0: edb0 dcbe 049d 27bf 4064 263f 9f40 f6bc
000000f0: 2529 0dbe 2ade 93be 31a2 84be 183c bcbd
00000100: 8225 8cbe 5145 98bc 57e3 6cbd 7c8c 05be
00000110: 558d 23be 0c3e 3f3e 0b75 da3d 9e47 d9bc
00000120: 66a3 b83e 0515 39bf f36e c93e 981c 543e
00000130: 1504 9fbd 07b7 49bd 10fd 7b3e 44c7 173e
00000140: c63a d0bc b065 d13d 0264 b83e 57f9 7d3f
00000150: 8984 fbbd 9dbd 413e 4a36 45bd 4976 9b3e
00000160: cebf 2e3e 7c8b 4f3e 5122 cf3d 7d1b de3e
00000170: 066b c33d edf3 643d 3feb 66be ed3e 4abe
00000180: cb3c 273f c215 c73d f969 c63d 9a67 58bf
00000190: d14c 953e 3cd0 c43e 14b4 3fbb 8209 1bbe
000001a0: 0096 9fbe 782e 2ebe 93f2 babd 9478 9f3d
000001b0: d602 85be 9605 ec3c 98bf 4dbf 48c8 35be
000001c0: 3758 1bbd 8c5a 653d 67e0 03bd 9b46 a8bd
000001d0: bedb 89bc 9aee a63d 751b 2dbd 8029 d63d
000001e0: 7ae1 823d 46c2 edbd 59f7 54be 34fc ccbe
000001f0: 374a 49bb 6dab 213f 1b89 13bd b1da dabd
00000200: 38f8 71be 27d1 03be 05ad 093e 1a47 983d
00000210: becc bd3e 8328 bf3e 132e 85bc 42a9 18bf
00000220: 051b a73e 63f2 b63d 4f61 cc3e 79a0 2cbe
00000230: 4047 bcbd 9a4e 733e f8be cc3d 5edc bdbb
00000240: b765 ef3d 5358 86bd 6f28 0c3e 46cc 93b9
00000250: 707c e1be 8d85 b7bd f576 9a3d ff99 0f3f
00000260: 80ce 77bc 1a52 d9bd 6bf6 9ebc 3489 1e3d
00000270: f8dd 023d 713e 0ebd 8d67 553e 63ea 893d
00000280: 81f7 913d a818 203e f0d4 0e3f 39d9 a8bb
00000290: 647c 693d 130d f7bc f716 a5bd 1f2e 923b
000002a0: 71f9 b1bd 8439 43be 7610 99bd 9a8a b6bd
000002b0: 0443 2bbe 5ee2 c23c ddf5 1a3e 3c0e 32be
000002c0: ca7d 903e 4c11 c63d e021 113e 173e 2cbd
000002d0: 6252 3d3d acdd df3e a122 22be cd62 08bd
000002e0: efe7 0e3e f7c2 fc3d 4ef7 b2be f639 8bbc
000002f0: a96f b33c 5fe9 803c 80f6 02be 4e9c 50bd
00000300: 5b13 8e3c fea8 63bd 8eab 433e f69a f5bd
00000310: c507 11be c2de d83c ef82 9ebc 4c54 aebd
00000320: b961 95bd 4f6a 72be 191a b6bc 930e e83c
00000330: 1285 8e3c 5c8f 223e ac88 583d 5a19 403d
00000340: 184a ffbd ddff 143c 8a04 873e f3d6 6f3e
00000350: 6a31 bf3d 356d f33e 2c12 1bbf b7f9 82be
00000360: 4c56 e2bd 3db1 6e3e 828b 6e3e 92bb a5bc
00000370: 99cf b03d 7ca9 183e 7930 2f3e 64ab b93d
00000380: 4153 bbbd 303a 90be 4f27 d53e 6ad5 4e3e
00000390: 0997 c43d e6d6 6c3f 7a1c 59bc b262 77be
000003a0: 8296 a8bc b1ee 093d 25ba 953e 74bc 903e
000003b0: 495e 773e fe29 463e 8687 5fbe 8f91 3abf
000003c0: ce10 553d bc98 6f3d f61f 833e b7ed 3dbe
000003d0: 3fc5 df3d ec33 953e b501 f43d 3184 81be
000003e0: bdd8 92bd 94c1 4fbe 4a28 a73e e194 8c3d
000003f0: d36a 1bbf ed06 06bd 3666 fabd aa1a 303f

model.0.conv.0.kernels.7.weights f4 [8, 16, 4, 15]
-0.030813234 -0.026449213 -0.08396764 0.058815103 0.05649519 0.106142096 0.077025175 0.33606344
-0.07406047 -0.004896918 0.016045408 0.0016627971 0.0016773775 -0.058829676 -0.15604356 -0.108681545
-0.035533775 -0.16560479 -0.18584189 -0.09606888 0.02859975 0.038349893 -0.1697781 0.3186633
0.18553875 0.079551056 -0.05079003 0.305256 0.32151544 0.53112596 -0.24895957 -0.18452424
-0.09037628 0.0897127 -0.12543805 -0.16209841 -0.14550894 -0.093311936 0.25545302 -0.09319119
0.12179327 0.0012327395 -0.19831058 0.08879784 0.22568625 -0.43803123 -0.1630652 -0.11579421
-0.15035321 -0.055196095 -0.17122176 -0.14747383 -0.0773418 0.17044586 -0.008575545 -0.021615153
0.023501279 0.18385255 -0.011151339 0.05423576 -0.57041067 -0.24953468 -0.4284941 -0.44318974
-0.50215226 -0.31139144 -0.6469392 0.56281656 -0.01472366 -0.053398483 -0.25298804 -0.17551321
-0.109131165 -0.39364332 -0.27434286 -0.19424975 0.052591227 0.080362245 -0.14580402 -0.02271941
0.30032313 0.093516506 -0.0558547 0.42231295 -0.73993224 0.50295514 0.3363389 0.087544486
-0.104393125 -0.056070037 0.76878744 0.26718238 -0.0077677313 0.00033979752 0.083178155 0.40074983
1.0215418 -0.2382992 -0.017754937 -0.14564171 0.31764227 0.018731078 0.16939811 0.17200865
0.2229343 0.36205974 0.43282273 0.09470073 0.07075339 -0.19503029 -0.15481125 0.5861876
0.15752646 -0.023411337 -1.0347612 0.32211304 0.47174096 0.112863325 -0.19304283 -0.19002427
-0.5344159 -0.34640414 -0.17295742 -0.19522576 0.042727858 -0.37250835 -0.021342112 -0.8805186
-0.13233106 -0.035418637 0.09632454 0.09916184 -0.13253677 0.055749223 -0.091315866 -0.048081968
0.026816122 -0.026535157 0.12134869 -0.05846054 -0.10849118 -0.08107197 -0.37821442 -0.113222696
0.67533416 -0.1702507 -0.2288569 -0.175819 -0.31341028 -0.2279163 0.18208726 0.15005803
0.18381177 0.42453498 0.47377086 0.041653436 -0.7078033 0.2705284 0.04348573 0.5058527
-0.14381921 0.0439992 0.17115395 0.19288068 0.037553683 0.14674564 0.0069189672 0.021057338
0.025932344 0.12431845 -0.014554521 -0.51138455 -0.18013373 -0.24742384 0.44398746 -0.07103672
-0.07333698 -0.13267037 -0.023271145 -0.09510642 0.026632898 -0.05535112 -0.013625639 0.18890628
0.07864855 0.056359563 0.051557466 0.5328709 -0.07032543 0.030382436 -0.030234816 0.10380916
-0.0126335025 -0.053577185 -0.18119922 -0.28448492 -0.0665284 -0.17089309 -0.16181852 -0.088588096
-0.06335914 0.13912688 -0.15274253 0.3270817 -0.023802137 0.13506019 0.21779351 0.22373894
0.24400866 0.5090804 -0.31799358 -0.23828685 -0.018541962 0.09591714 0.070506945 -0.16945457
0.035663094 -0.0010412295 0.2684328 0.0009515639 0.07845639 -0.020932022 0.037060644 0.21301681
0.47850314 -0.3645426 -0.2974453 -0.17729206 0.016197091 -0.046927165 0.009084551 0.013572838
-0.12156897 0.027643416 -0.036000844 0.124395855 0.03510764 -0.052590348 0.15093853 0.21763915
-0.0134406835 0.034440584 0.14238471 0.19242315 0.26305056 -0.02143428 0.44241822 -0.5884782
-0.16846426 -0.087884955 0.1750038 0.0934247 -0.12545699 0.11838867 0.0048249005 -0.033817176
00000000: 096c fcbc 05ac d8bc 3af7 abbd 1be8 703d
00000010: 8067 673d 0761 d93d 60bf 9d3d 8210 ac3e
00000020: 04ad 97bd 5376 a0bb a971 833c 36f2 d93a
00000030: 73db db3a 63f7 70bd e2c9 1fbe 6e94 debd
00000040: dd8b 11bd 4d94 29be 564d 3ebe c3bf c4bd
00000050: 064a ea3c c714 1d3d 4fda 2dbe d627 a33e
00000060: dffd 3d3e aaeb a23d 3509 50bd 844a 9c3e
00000070: ac9d a43e dff7 073f 42ef 7ebe ecf3 3cbe
00000080: 3317 b9bd 4bbb b73d d572 00be 20fd 25be
00000090: 4c00 15be 541a bfbd bdca 823e 06db bebd
000000a0: c06e f93d e093 a13a ee11 4bbe a4db b53d
000000b0: 4c1a 673e a145 e0be 90fa 26be 8425 edbd
000000c0: 31f6 19be 4d15 62bd c254 2fbe 6103 17be
000000d0: 6165 9ebd 5c89 2e3e 7180 0cbc 4312 b1bc
000000e0: c185 c03c d843 3c3e 1bb4 36bc 5126 5e3d
000000f0: 6f06 12bf 0586 7fbe 9463 dbbe c4e9 e2be
00000100: 0d8d 00bf b36e 9fbe cf9d 25bf bf14 103f
00000110: 823b 71bc 5eb8 5abd a687 81be bcb9 33be
00000120: 2980 dfbd 9e8b c9be ab76 8cbe 68e9 46be
00000130: e669 573d f694 a43d a64d 15be 0e1e babc
00000140: f4c3 993e 9585 bf3d e6c7 64bd 6739 d83e
00000150: 336c 3dbf abc1 003f 9d34 ac3e 864a b33d
00000160: 10cc d5bd b2a9 65bd 41cf 443f 21cc 883e
00000170: 7488 febb da26 b239 4f59 aa3d 152f cd3e
00000180: e2c1 823f b504 74be cd72 91bc 1a23 15be
00000190: 02a2 a23e eb71 993c b376 2d3e 0923 303e
000001a0: e448 643e e55f b93e f19a dd3e 75f2 c13d
000001b0: 27e7 903d 05b6 47be d786 1ebe 6410 163f
000001c0: 9e4e 213e 22c9 bfbc 0e73 84bf 00ec a43e
000001d0: 0888 f13e e324 e73d 05ad 45be b995 42be
000001e0: 7bcf 08bf e25b b1be c01b 31be 43e9 47be
000001f0: 6803 2f3d 6ab9 bebe a7d5 aebc ab69 61bf
00000200: cb81 07be 2213 11bd cd45 c53d 5d15 cb3d
00000210: b8b7 07be 4c59 643d d003 bbbd 99f1 44bd
00000220: 7cad db3c 4260 d9bc a985 f83d 5274 6fbd
00000230: a030 debd 1009 a6bd 52a5 c1be 4de1 e7bd
00000240: b3e2 2c3f 3356 2ebe 7759 6abe e509 34be
00000250: 5077 a0be e462 69be 1575 3a3e d0a8 193e
00000260: 2739 3c3e a65c d93e 1892 f23e cb9c 2a3d
00000270: 9932 35bf b382 8a3e 181e 323d 907f 013f
00000280: 5845 13be 8138 343d fb42 2f3e 8382 453e
00000290: e4d1 193d 7d44 163e 81b8 e23b 7080 ac3c
000002a0: 1170 d43c ac9a fe3d 1676 6ebc 19ea 02bf
000002b0: fa74 38be ad5c 7dbe 5352 e33e b37b 91bd
000002c0: b331 96bd beda 07be 21a3 bebc 28c7 c2bd
000002d0: 3c2d da3c dbb7 62bd 123e 5fbc a670 413e
000002e0: 7e12 a13d 49d9 663d ec2d 533d 3a6a 083f
000002f0: c706 90bd 96e4 f83c 01af f7bc e699 d43d
00000300: c0fc 4ebc c073 5bbd 4a8c 39be 02a8 91be
00000310: 0b40 88bd 99fe 2ebe c1b3 25be ad6d b5bd
00000320: 70c2 81bd 4777 0e3e 8a68 1cbe 4177 a73e
00000330: b3fc c2bc 384d 0a3e 4305 5f3e d21b 653e
00000340: 68dd 793e 1853 023f 0ed0 a2be 7801 74be
00000350: 50e5 97bc 3570 c43d f265 903d 8085 2dbe
00000360: 7713 123d dd79 88ba 0670 893e 5f72 793a
00000370: bead a03d a279 abbc e7cc 173d 1421 5a3e
00000380: 5dfe f43e 54a5 babe c04a 98be 0d8c 35be
00000390: c3af 843c b336 40bd 5ed7 143c 9c60 5e3c
000003a0: 27f9 f8bd 7274 e23c 9f75 13bd 41c3 fe3d
000003b0: 07cd 0f3d fa68 57bd a18f 1a3e ccdc 5e3e
000003c0: 5036 5cbc 9211 0d3d 4ccd 113e 930a 453e
000003d0: 90ae 863e f196 afbc a484 e23e 82a6 16bf
000003e0: e581 2cbe 07fd b3bd 3234 333e 7355 bf3d
000003f0: cc77 00be c275 f23d 331a 9e3b e183 0abd
