trained_models/TimesNet_RSAD_mixed_CRSWIR/checkpoint.pth (torch, 658722 bytes, 39 tensors)

model.0.conv.0.kernels.0.weights f4 [8, 16, 4, 1]
00000000: 787b f6bc 9572 f93d 2ea1 a93e e1d9 d83e
00000010: 60e3 e5be 0149 d9be 7223 d1bd 8d05 87be
00000020: 29c8 c83e 8ea3 8c3e 35b6 813e 9345 d23e
00000030: 5208 693b 805d f8be 1742 39bf 4d59 0abf
00000040: 9e81 73be 591d ccbe ba06 543d 5df2 5fbe
00000050: 8055 dcbd d7f2 c1bd 46e9 23be c76c 2cbf
00000060: efc0 cc3e bfc9 203e eacb 623e 3597 a23f
00000070: 25aa 5c3e 7c09 c83f c49c 06bf 4ac2 4abe
00000080: 1c42 0bbe f04e 84bf 2df9 c53e a1de b23e
00000090: 04a5 ad3e 0146 3bbf d31f e13e d0d2 f23e
000000a0: 8eb4 1f3f 486a c13e e63a ab3d 47d7 433f
000000b0: 35bc f5bd 662b 5fbf 928e 023f 3478 003f
000000c0: b23f 48bf d803 8e3e 44e4 5d3f d9ca 12bd
000000d0: 8dbf 313e 8211 7d3e 94ef 373f bcad 4b3f
000000e0: 0558 aabe ecc3 da3e b794 e7be 3422 87bf
000000f0: a94b cebd 64a2 1abe 7efc 093d 2da0 493e
00000100: c725 89be 76d9 4f3d e256 b4bc f630 8dbc
00000110: 9dcb 5bbb 5ab4 efbe 3705 2a3e 87bb 203d
00000120: 3991 433e f36c be3e 44c0 7f3e c14e 97be
00000130: 7c21 263e 69a3 93be df92 d93e 726f 31bf
00000140: a567 c13e 11b3 663d 906e d93d cbe0 063e
00000150: e95e c43c 13d2 a2bd 3d0d 8a3d d517 63be
00000160: 19b1 bebd ce9d 9abe 7758 26bf 67db 323f
00000170: 39b1 03be df82 a83f e560 2a3f ca62 d03f
00000180: f3b6 17be ffb8 cebf 6220 71bf 2a18 b0bf
00000190: 5926 983e 3eb2 053f 699a 343f 95bf 76be
000001a0: 3a09 00bf 018b 47bf 4284 a6be 5951 193f
000001b0: a472 89be d934 8abf 224f 4fbf 9ec7 5bbf
000001c0: 6491 1abf 191b a2bf ff04 8bbf a517 08bf
000001d0: 5cb3 02bf b93b 403e b94d 66be dfa8 aa3b
000001e0: c1b0 f1be a29b 0fbf d746 a63d 4ffa cebd
000001f0: 925c d8be 1128 5fbf a6ce 93bf cee1 60bf
00000200: 0acb e23e dfcc 903e a5e0 2d3d 1b07 923e
00000210: 2603 2abf 87cb 95be e1fc febd 73d9 53be
00000220: cf84 893e 986f ad3d a9e9 d5bd 1be5 0e3f
00000230: 535d f9be 376f f4be f752 07bf d1ca 1dbe
00000240: 8026 0bbf ac9e 78bd fe89 afbe 6e9c 6ebe
00000250: 3744 25be 95f6 9cbe 9146 8c3d 82af 19be
00000260: 92bc 053f 5981 ccbb 6b2b 873d 3344 aabc
00000270: 519c bebe f835 753e 9669 b23f a8f6 d63f
00000280: 92f4 3d3e 65c4 d73e c169 b0bf bc9e b4bf
00000290: 0227 213f 9aec ae3e b97a 03be c1a7 43be
000002a0: f9e9 3d3f db0a 94bc 96e9 1e3f 16fc 54be
000002b0: c416 5d3e c810 2b3f 4151 bfbf 2c1b fabe
000002c0: 3bdd 64be 89ea e43e 9901 35bf 93af e1be
000002d0: ffd3 22be ddff 88bb 77fa b13e a87e ab3e
000002e0: 5583 04bf 7bf8 853e c0bd e13e ae66 60be
000002f0: a6d4 193f 6adb 833e 732e a0bf 3b48 20bf
00000300: cecb 80bc 6f17 1f3e 9fdf 073f cd95 35bf
00000310: 5fb3 5a3e 98fb 803d 3b02 2d3d 1aa1 da3e
00000320: a3ca d43e f49d 95be 5b43 62bc 0378 d0be
00000330: 1907 d0be 80ec fdbd fc37 0bbf e84b 8f3f
00000340: 50fe b73d b9d8 823d 5a96 93be ead0 1d3f
00000350: 64f5 29bf fc25 c0be 2e32 febe 9381 463f
00000360: 7924 2f3f e45c ec3e 36fe 643e 6d42 633b
00000370: a9c4 d23f c89e e93f 5e9f dfbe eaab 2dbf
00000380: 6fbb a4bf 6fa2 b9bf ecfc 0e3f c195 063f
00000390: 41e1 12bf 6536 043f 880e 9ebd 5f0a 41bd
000003a0: 42c2 153f 0ce0 fa3e da71 7d3e 405a 60be
000003b0: 56d9 9bbf 5976 89bf 7dd7 6b3f 6576 eebe
000003c0: 01b2 bcbe 87fe 84bf 825d 273f 6ab0 c0be
000003d0: 89fd 433f 6ae3 323e 7e89 8f3e 311d 57be
000003e0: 9173 3a3f 3827 813e d270 1cbf 67de d73e
000003f0: b631 fdbe ccd1 87bf 0446 3b3f a03a aebe
-0.030088171 0.12180058 0.33130783 0.42353728 -0.44900036 -0.4243851 -0.10211839 -0.26371422
0.3921521 0.27468532 0.25334325 0.41068706 0.0035557938 -0.48508835 -0.7236647 -0.5404251
-0.23779914 -0.3986614 0.051764227 -0.21869798 -0.10758495 -0.09470146 -0.16006956 -0.6735348
0.39990947 0.1570196 0.221481 1.2702395 0.2154928 1.5627894 -0.52582955 -0.19800678
-0.13599437 -1.033659 0.3866667 0.34935477 0.3391496 -0.7315369 0.43969592 0.47426462
0.6238488 0.377764 0.08360843 0.7650036 -0.11998788 -0.87175596 0.50998795 0.50183415
-0.7822219 0.27737308 0.8667643 -0.03583798 0.17358227 0.2471371 0.7184994 0.7956197
-0.3327028 0.42727602 -0.45230648 -1.0557313 -0.10073025 -0.1510101 0.03368806 0.19690008
-0.26786634 0.050744496 -0.022014085 -0.01723526 -0.003353811 -0.46817285 0.16603552 0.03924134
0.19098367 0.37192497 0.24975687 -0.29552272 0.16223711 -0.2883561 0.42494866 -0.6931068
0.37774387 0.056323115 0.10616791 0.13171689 0.023971038 -0.07950225 0.06740806 -0.2217706
-0.093111224 -0.3019852 -0.64978737 0.6986603 -0.12860574 1.3164939 0.665541 1.6280148
-0.14815883 -1.6150206 -0.9419004 -1.3757374 0.29716757 0.522251 0.7054811 -0.2409652
-0.5001408 -0.7794648 -0.3252278 0.5988975 -0.26845276 -1.0797378 -0.8098012 -0.85851467
-0.603781 -1.266452 -1.08609 -0.5316108 -0.5105493 0.18772782 -0.22490586 0.0052081193
-0.47205165 -0.5609685 0.081189804 -0.10106336 -0.42258126 -0.8717051 -1.1547439 -0.8784455
0.44295532 0.28281304 0.042450566 0.28521046 -0.66411054 -0.29256842 -0.124505766 -0.20688419
0.26859137 0.084685504 -0.10444958 0.5581834 -0.48704013 -0.477411 -0.5286097 -0.154094
-0.5435562 -0.060698196 -0.34284967 -0.2330186 -0.16139303 -0.30656877 0.06849397 -0.15008357
0.5224086 -0.0062410054 0.06600078 -0.020784473 -0.37228635 0.23946369 1.3938472 1.6794024
0.18550327 0.42142025 -1.3782274 -1.4110942 0.62950146 0.34164888 -0.12839784 -0.19106962
0.7418514 -0.018071583 0.62075174 -0.20799288 0.21590716 0.6682248 -1.4946672 -0.48848855
-0.22350018 0.44710186 -0.7070556 -0.44079265 -0.15901183 -0.004180892 0.34761402 0.3349507
-0.51762897 0.26166138 0.4409008 -0.21914169 0.600901 0.25753337 -1.2514175 -0.62610215
-0.015722182 0.15536283 0.53075594 -0.709317 0.21357487 0.06297988 0.042238455 0.42701036
0.4156085 -0.2922207 -0.013810004 -0.40716562 -0.40630415 -0.123986244 -0.543823 1.119504
0.08984053 0.06388993 -0.28825647 0.616469 -0.6639006 -0.3752898 -0.4964766 0.77541465
0.6841503 0.4616462 0.22362599 0.0034677044 1.6466266 1.8251581 -0.43676275 -0.67840445
-1.28697 -1.4502696 0.5585468 0.52572256 -0.5737496 0.516455 -0.07717615 -0.04712903
0.5849954 0.4899906 0.24750462 -0.21909428 -1.2175701 -1.0739242 0.92125684 -0.46574703
-0.36854556 -1.0390176 0.65377057 -0.37634593 0.7655874 0.17469564 0.28034586 -0.2100723
0.7283259 0.25225234 -0.6110965 0.42161867 -0.4945199 -1.06109 0.7315371 -0.34029102

model.0.conv.0.kernels.1.weights f4 [8, 16, 4, 3]
00000000: 70f7 0cbe effa fe3e 4f26 883d 1fac 6dbe
00000010: 7c05 b13d 0de4 57bd a254 2ebd 5e16 c53e
00000020: 58ae b0bd dfd5 88be 6aae eb3e 79e1 f2bd
00000030: 9472 8b3d aa35 0fbe bb01 2ebe 4b3f 6d3e
00000040: 7e9b dabe cbaa 223d 925e f1bd ca6c 7ebe
00000050: 2f5b 7ebd 06ae c33d 43e3 f4be 0cca 9b3c
00000060: 5c01 00be 9cc4 9ebd ecbb 363d bb50 94bc
00000070: 3b5e e43e 99a5 ca3d 89ab 3fbe bce5 9c3e
00000080: e9e9 2b3c 3f03 9a3d d9d2 803d 0b48 2e3e
00000090: f582 cd3e 0514 eabe 1863 9b3b 9e1a 07bb
000000a0: 17e4 ecbe 5452 0ebe e558 423e f473 13bf
000000b0: 03d6 413d 9454 2c3e 1b44 18bf 2e2d 823d
000000c0: 99c3 4a3d 6dfc 1a3d 54c5 4abd e90b c13d
000000d0: c660 0ebe 1aaf 3dbe d3f1 f13d c14a c6be
000000e0: f4e1 7abd 4d85 193e 6ddb e5be e0ed 67bc
000000f0: 5155 183e 9880 75be 1ce4 aebe 225c eb3d
00000100: 0967 f7be 2336 ee3d 8e5c 52be 8d6a cebe
00000110: 5600 903d 4658 3f3e 49a7 cdbe 796f 2dbe
00000120: 5dfb 5c3e 2723 303f ca62 3e3d bab3 46bd
00000130: af26 47bb 7997 18be 036b c33e d3e1 413e
00000140: f189 84be 9b3a 52be 36a6 5f3f eb47 443e
00000150: 881b 84bd 9cc6 4e3e c71b dcbe b8c4 993e
00000160: ea8d c53f a7b4 e43d 8711 dcbd d348 b6be
00000170: be5d 2fbf 3ef6 f0be 98a5 c93d 4deb 363d
00000180: fef8 2c3e 2be9 d0bd 63ca 923e 3890 61bd
00000190: 64af b1bf 5025 52be 6388 013e d3d5 0d3f
000001a0: 10c3 f83e 95d6 a73e a2a0 623c 82d3 76bc
000001b0: 8ce7 c4bb 1e1f b03e 994d 813e 338c 833d
000001c0: a23d 04bf a880 2a3e d241 743e 03d4 d63e
000001d0: 7ce7 f9bd 3684 193e 8949 c13e c563 e43d
000001e0: 6f90 1ebe d424 0a3f 990f 0c3f 4dd2 f03d
000001f0: f32d 973e caa7 afbe 7907 7abe 6e51 1c3f
00000200: e387 20bd b714 eabd 409c 273f 2838 8d3e
00000210: 58b3 a6bd b1cc c83b 717d f73e 4f36 efbd
00000220: 3775 00bf 0d4b d1bd 8455 4f3e 55dd cb3e
00000230: 2284 c43e c818 a03e 5f12 cfbd d68f a93d
00000240: 29af 313e 896d 2bbf c520 7c3e 3256 53be
00000250: cd07 2dbe 2a83 5ebd 9e2e 3c3e 7761 d73e
00000260: a16b 1d3f 19f4 b53c 67c0 803e 4c00 2abe
00000270: 26ed ac3e 24cc ab3e 34a4 f83e 1176 903d
00000280: 90d7 153d 62bb 4ebe f70f e73c 3942 2e3e
00000290: 5db3 0b3e f54d 533e cb0d 763e 7e01 4ebd
000002a0: bf0f 883d a8a8 d7be c4b1 f4bc 5438 253e
000002b0: e400 eb3d 8231 c43c c45f 2e3d 238f fbbe
000002c0: b9f6 283d 09cd 52bc 13ad 3abf 85f7 56be
000002d0: 5c69 463b 09eb 91be ece4 083e 3660 14be
000002e0: 7930 78be 19ad 4abe ad0d 083e 3aac c03d
000002f0: ed68 eb3e 4620 563e 951d 2d3d e716 87bc
00000300: bb6f 63bf 17ed 713e a8eb 16bf 455c 063d
00000310: 433b 0a3f 84a4 b13c 77c8 b63e 6aad a23d
00000320: bb5b c1bd 8ef6 cfbe 1286 12be 642a e83e
00000330: b59b 2a3f 5a63 293d 04b4 313c fa92 e63a
00000340: 179d dcbe 66d6 ff3b df8b abbe 0bf6 c93d
00000350: 7921 4cbd d253 37bc 5166 5c3d 2b09 f1bd
00000360: ffc9 f3be 3698 17be 04da 63be c7fa d73d
00000370: 05fe d7bd 9d69 063c b326 a23e 928b 66be
00000380: e35d d73d f5dc 71be f34f e9bd 8ad6 533e
00000390: 7574 433f 9197 9cbd 9613 ef3e 325d 3dbd
000003a0: fdc4 bcbc ebaa 153e 9984 e0be 11bf ad3e
000003b0: 31b0 3b3d adce 01be f64d b4be c6cb d4be
000003c0: 4520 633f 72ed 123d 5075 0f3f 5fcb 57bd
000003d0: 4582 cfbd 031a febd 5b85 9bbe 099b 063e
000003e0: bc54 943c e764 ab3d c789 01be fb5b e6bd
000003f0: b585 2c3f 5596 ba3e b756 053f 0249 afbd
-0.13766265 0.49800822 0.06647932 -0.2321019 0.08643624 -0.05270772 -0.04256118 0.38493627
-0.086270034 -0.2672567 0.46031505 -0.11859412 0.068089634 -0.13985315 -0.16992848 0.23168676
-0.42696756 0.039713662 -0.11785616 -0.24846187 -0.06209868 0.09554677 -0.47829637 0.019017242
-0.12500519 -0.07752344 0.04461281 -0.018104902 0.44603142 0.098948665 -0.18717779 0.30644023
0.01049278 0.075201504 0.06290216 0.1701967 0.40138975 -0.457184 0.0047420375 -0.002061523
-0.4626777 -0.13898593 0.18979223 -0.57598805 0.047323238 0.16829139 -0.5947892 0.063562736
0.049502943 0.03783839 -0.049504593 0.094261 -0.13904104 -0.18523827 0.118137024 -0.38728908
-0.061250642 0.14992256 -0.4489397 -0.014155835 0.14876296 -0.23974836 -0.3415841 0.11492182
-0.48320797 0.116314195 -0.2054312 -0.40315667 0.07031314 0.18686017 -0.4016669 -0.16937055
0.21580262 0.6880364 0.04648093 -0.048511244 -0.0030388047 -0.14901532 0.3816758 0.18933801
-0.2588649 -0.20530169 0.8736299 0.1916806 -0.06450564 0.20192951 -0.42989942 0.30032897
1.5433934 0.11167269 -0.107455306 -0.35602435 -0.68502414 -0.47062868 0.098460376 0.044657994
0.16891858 -0.10200723 0.28670034 -0.05506918 -1.388165 -0.20522046 0.12649684 0.55404395
0.4858632 0.327809 0.013832243 -0.015065076 -0.006009048 0.3439874 0.25254515 0.06423225
-0.51656544 0.16650641 0.23853233 0.41958627 -0.12202355 0.1499184 0.37751415 0.11151842
-0.15484785 0.53962445 0.547113 0.11758862 0.29527244 -0.343077 -0.24416913 0.6106175
-0.03919209 -0.11429732 0.65472794 0.27581906 -0.08139676 0.0061279167 0.48337892 -0.116802804
-0.50178856 -0.10219393 0.20247465 0.398173 0.3838206 0.31268907 -0.10110926 0.08279388
0.17351975 -0.6696401 0.24621876 -0.2063835 -0.16897507 -0.054324307 0.18377158 0.42066547
0.61492354 0.022211121 0.2514679 -0.16601676 0.3377468 0.33554184 0.48562777 0.070537694
0.03658253 -0.20188668 0.028205855 0.1701745 0.1364264 0.20635207 0.24028699 -0.05029439
0.06643628 -0.42120862 -0.029869922 0.16134769 0.11474779 0.023949388 0.042571798 -0.49132642
0.041250918 -0.012866267 -0.7292034 -0.20992859 0.0030275201 -0.2849963 0.13368577 -0.14489827
-0.24237241 -0.19792594 0.13286467 0.094078496 0.4597849 0.20910749 0.04226454 -0.016490413
-0.8884236 0.23625599 -0.5895333 0.03280284 0.53996676 0.021684892 0.35699818 0.07943232
-0.09441324 -0.40617794 -0.14308956 0.4534484 0.6664384 0.041354515 0.010846142 0.001759141
-0.430886 0.0078075407 -0.3350515 0.09861382 -0.04983661 -0.011189418 0.053808514 -0.11769327
-0.47615048 -0.14804158 -0.22251135 0.10545879 -0.10546497 0.008203891 0.3167015 -0.2251418
0.10515954 -0.23619445 -0.11392202 0.20687309 0.76349574 -0.076460965 0.4669463 -0.046231456
-0.02304315 0.14615981 -0.43851164 0.33934835 0.045822326 -0.12676497 -0.3521573 -0.41561717
0.88721114 0.035870977 0.5603838 -0.052684184 -0.10132269 -0.12407305 -0.3037518 0.13145079
0.01810681 0.08368855 -0.12650214 -0.11248013 0.6739152 0.3644282 0.5208544 -0.08558847

model.0.conv.0.kernels.2.weights f4 [8, 16, 4, 5]
00000000: b288 ad3e f316 b93a 7291 a83e 131f 453d
00000010: 84c5 cebc 2dab fbbb fb57 e7bd 08fd b53d
00000020: 856a 4e3d 040c 4ebb 3fbf 5bbc 1739 2bbd
00000030: 4c9f 043f 174c 31be 679f 80be a3d4 aebc
00000040: b077 0cbd 1d7a f83e e31b dbbd 8069 673e
00000050: c66d 91be 8682 cb3d 917f 18be 3eb5 83bb
00000060: f53b 67bd 9ec3 cbbd 120d 8c3d fb58 b1be
00000070: a418 483e ba54 723c cb4e 3c3d e8bd 6d3d
00000080: ca41 d0be cf98 da3d b113 963d 3f09 98bc
00000090: b594 563e 4e3c 92be a6fc 24be ce9f a9bd
000000a0: ba5d 983e badf 813d 138f 173e a021 353d
000000b0: 1b9a 6f3e 9be4 313d e21f 213e 8c86 113e
000000c0: 0fa8 48bd b087 15bd 496b 2fbd b5d3 b3bd
000000d0: ce5e 563c e0c6 3cbc 84b2 1e3c d7c5 dfbd
000000e0: 6359 d2bd 2834 973e 855f 63bd 6ea1 403e
000000f0: 55f6 aebe 7d4a d23d 9989 bbbe eca0 4cbe
00000100: 682d c6bd bc13 dd3c 9365 343c ace3 55be
00000110: 68ac 1e3d fad7 413d 3698 1b3e 0206 8b3c
00000120: c46c 0dbf 3982 08be 8fea 273d a47c 3cbd
00000130: 46f5 df3d 9ca2 1cbf 96c2 d9bd 5739 10be
00000140: d869 85be 98e1 a53d ba6b 38be d034 d3bd
00000150: 01a3 373c ceb8 96bd 641d a5bc 0436 61be
00000160: 996e 80bd f5e2 81bd 1126 f73d 3c4f babd
00000170: bcfd 01bf f366 fcbd 33ba 953c 6af0 62bd
00000180: 81f8 cfbd 025e febe ae7d 8fbb 3c85 b9bd
00000190: 1ce0 d3be d9e8 8c3d 780e 9ebe b54e a7bd
000001a0: 62a6 d13d 8901 023d 9dd8 9e3d afe8 89be
000001b0: 0746 d23d 6270 b33d e155 323e 948a 223e
000001c0: c5b0 00bf 3458 733e 3791 5c3e aa1a 293e
000001d0: ed22 843c 91df 1bbf 3faa 44bd 74eb 3bbe
000001e0: d2b0 613f 439e 513d 644f 153f 4ff5 683e
000001f0: 00cc 81be 0949 4bbe c0b8 1d3d 0362 9e3e
00000200: a03e 9cbd 1b33 3bbe 4674 e13d 28f1 0a3e
00000210: 7155 bc3e c420 13be 92d9 8fbe 2997 c43b
00000220: b98f 58bd 1b1c 233f 4588 9a3e 6c50 4f3d
00000230: 3dfd 9a3e d0a9 38bd 6feb 713e b46d abbe
00000240: 4e6a 94be d527 943d 65db 273e 5314 e13f
00000250: c1c7 6f3e 390b 813e 7a1b 8c3e 13a0 babd
00000260: fa5e 09bf f0ce 0ebf 15e9 0abf c441 99be
00000270: bbba 32be cbee 1bbe 54a7 87be 2987 95bd
00000280: 8a61 dd3e 011a b73e fa91 dbbc 5512 8f3e
00000290: 1ca0 af3e 78e1 4d3d ff79 943d dcd1 acbf
000002a0: 6bb5 393d 2d2b 8d3c e747 d2bd 7ab5 f83c
000002b0: 9b97 f33e 68d0 263f 1e2d 8e3e 5c4d 92bd
000002c0: bf7b 403e f247 393e 52ea 483e 4a50 043e
000002d0: c42d f53e 83e5 1e3e 6918 ca3e 73c4 863e
000002e0: f620 3fba b6e4 ae3c 7ff5 253e a84c 0cbf
000002f0: dfda 0e3e d382 c93c e0b4 f8bb 09d5 c93c
00000300: c216 7b3e 5357 acbd b4b5 c5be e168 faba
00000310: 4a5a eb3c 01c2 bb3e fcec 8c3d 9784 5d3d
00000320: af38 093f 7f80 57bd e210 d93e e1ca b33e
00000330: 60d6 04be d45d bf3a c984 193e 8993 1d3c
00000340: 57e0 c13c 6268 39be 30ce 13be 41ef acbd
00000350: 4eb9 033f 7448 1fbe 6251 32be f24e 8d3d
00000360: d327 0abe 9b1a 823f 9001 613d 38dd 803e
00000370: 32a6 d53e 40f9 af3e 2767 13be 8f7f 923d
00000380: acc0 a43e d17d 86be 23e6 33be 0a06 44bf
00000390: 4261 dabd fcc5 06be 9b53 86bd 0dd3 623e
000003a0: 44ba 873e 11eb c23e bd90 5d3e 3f06 a0bd
000003b0: 2719 473e 0fde 853e c22d 743d 3683 8f3d
000003c0: 1d3f ff3d ad38 f83d 6c9e 0cbf 0a1c cf3d
000003d0: ed2e 0d3e 29a9 48bd a3d6 fb3d d97f fdbb
000003e0: 886f c0bc 0e01 56be a340 2a3d c56a e5bd
000003f0: d8ad ff3e c3c6 0e3f 9263 1a3f b369 58bd
0.33893353 0.0014121219 0.32923466 0.048125338 -0.025240667 -0.007680318 -0.11296078 0.088861525
0.050394554 -0.0031440267 -0.013412296 -0.041802492 0.5180557 -0.17314182 -0.25121614 -0.021341627
-0.03429383 0.48530665 -0.10698678 0.22598839 -0.28404063 0.09937005 -0.14892413 -0.0040194085
-0.056453664 -0.099494204 0.068384305 -0.346382 0.1954065 0.014790708 0.04597358 0.058042437
-0.40675193 0.10673677 0.073279746 -0.018559096 0.20955165 -0.28561634 -0.16112003 -0.082824335
0.29759008 0.063415006 0.14800672 0.04422152 0.2339863 0.043430906 0.15734819 0.14211482
-0.0489884 -0.036506355 -0.042826924 -0.08780614 0.013084127 -0.011522025 0.009686116 -0.10926407
-0.102709554 0.2953198 -0.055511016 0.1881158 -0.3417231 0.10268114 -0.36628416 -0.19983262
-0.09676629 0.02698695 0.011010545 -0.20887631 0.03873864 0.047325112 0.15194783 0.016970638
-0.5524409 -0.13330926 0.040995177 -0.046017304 0.10935454 -0.6118562 -0.106328174 -0.14084373
-0.26057315 0.08099669 -0.18009844 -0.103128076 0.011208297 -0.073594674 -0.020155616 -0.21993262
-0.06271095 -0.06342117 0.120678075 -0.09097144 -0.5077779 -0.123243235 0.018277263 -0.055405058
-0.1015482 -0.49681097 -0.004378996 -0.090586156 -0.4138192 0.0688035 -0.30870414 -0.08169309
0.10236813 0.031739745 0.077561595 -0.26935336 0.10267263 0.0876167 0.17415573 0.15873176
-0.5026973 0.23764116 0.2153977 0.16514078 0.016129935 -0.6088801 -0.04801392 -0.18351537
0.8816043 0.05117632 0.58324265 0.22749828 -0.25350952 -0.1985208 0.03850627 0.30934152
-0.07629132 -0.18281214 0.110085055 0.13568556 0.36783937 -0.14367968 -0.2809568 0.005999465
-0.05287144 0.6371476 0.3018209 0.050613806 0.3027133 -0.04508382 0.23624967 -0.33482134
-0.28987354 0.0723416 0.16392286 1.7584327 0.23416044 0.25203875 0.27364713 -0.09112563
-0.5366055 -0.5578451 -0.54261905 -0.29932988 -0.17454045 -0.15227811 -0.2649485 -0.073011704
0.4323848 0.35762027 -0.026803005 0.27943674 0.3430184 0.050263852 0.072498314 -1.3501544
0.04533903 0.017232502 -0.102676205 0.030359972 0.47576603 0.6516175 0.27768797 -0.071436614
0.18797205 0.18093851 0.19620636 0.12921253 0.4788648 0.1551724 0.39471748 0.26321754
-0.00072909833 0.021349292 0.1620693 -0.5480447 0.1395068 0.024598515 -0.0075899214 0.024637716
0.245204 -0.08415093 -0.3861519 -0.0019104743 0.028729577 0.3667145 0.06881139 0.054081526
0.5360212 -0.052612778 0.42395693 0.35115722 -0.12972403 0.0014600107 0.1499206 0.009617695
0.023666544 -0.18106225 -0.14434123 -0.084440716 0.5145463 -0.15554982 -0.17413858 0.06899823
-0.13491754 1.0164369 0.05493313 0.25168777 0.4172836 0.3436985 -0.14394818 0.07153236
0.32178247 -0.26267865 -0.17568259 -0.76571715 -0.10663082 -0.13161463 -0.06558915 0.22150822
0.26509297 0.38069966 0.21637245 -0.07813691 0.19443189 0.2614598 0.05961395 0.070074484
0.1246321 0.12120185 -0.5492923 0.1011277 0.13787432 -0.04898945 0.12296798 -0.007736188
-0.023490682 -0.2089884 0.04156555 -0.11202005 0.4993732 0.55772036 0.6030818 -0.052835178

model.0.conv.0.kernels.3.weights f4 [8, 16, 4, 7]
00000000: 2ae6 d83d 777e d33e 679f 3abe 51ed 6c3e
00000010: 4c0c eb3d 79f0 f2bd 39b6 37be 2fd0 2fbd
00000020: 64a9 64be b3dc 96bc adea cdbd a81a 4fbd
00000030: 11cf 7ebd fba8 d33d 6a59 393d 5834 cdbd
00000040: 1439 80bc 490e 183e 5262 18be 2532 11be
00000050: 65c5 9b3d c50c 7bbd 9b7d 613d e89e dcbc
00000060: 83a6 043f 0c09 d13d 940e 833e 7203 7b3d
00000070: 1716 26be 4e1b ccbe 608d ce3c 9854 70be
00000080: cf33 0cbe 771c 35bd 2819 8739 49bc 7d3d
00000090: d038 423e 0f98 853d df67 91bd 71b9 55bd
000000a0: 61d5 71bd 882d 743c 8d3c 7abe 4a77 b03c
000000b0: d38a 84bd a1a5 9cbe d7a2 5abd 7327 443e
000000c0: 1aae 2b3e bc55 67bd 6fb3 963d dd5a b93c
000000d0: e631 0abf 3d95 e9bc 1e20 67be f1fe 023a
000000e0: 4f2c e73d c718 3c3e e989 e8bd 2a9e c63d
000000f0: 73bd e73d 1775 3e3c 657b c93d 3f95 ab3d
00000100: 9bf3 023d b0e5 94bd 7fed 8dbd 5811 bc3d
00000110: 1b6d d3bc 80bd 173c 0559 583d a13d 79bd
00000120: 6085 65bd bdca 6b3e 3c5c a33b dbe7 eebd
00000130: f777 22be 15ac 42be a361 1cbe f95f f0bd
00000140: 0491 253d 8c6e 8dbb 1273 f23d 99f8 58be
00000150: becc 5dbe d3d0 8bbe 7cde 043e c118 cdbe
00000160: ea67 a0be 239b d3bd 9629 123e f7ee 733e
00000170: 5b62 a8bc fe94 dbbd e15f 08bf 096a 18bb
00000180: 2dc1 473d 3b53 90bd 54b6 d5bd 120a 9d39
00000190: 1dd6 223e d333 33bf 78a3 c03d f49b 503d
000001a0: e770 a93d 69ef 8dbd 349d 893d 4037 633d
000001b0: ac61 2fbf 715d 52be a114 53bd 5f1d bc3c
000001c0: edb4 1fbe 6460 dabe 5a0b 883e 9729 d6be
000001d0: b4b6 e7bd a53f 7f3d 1943 b4bc 7245 b4ba
000001e0: 0293 f03c 0a2e fb3d 410c 8dbe 4226 5b3d
000001f0: 3eba 8ebd 30ac 35be 9af3 74bd 24e2 e13c
00000200: 2bd3 763d bbc8 76be ca14 5b3e 6fea fb3d
00000210: 49c4 4bbd 802e 38be f888 0b3d 1c4b 103e
00000220: 2395 a6be b9f7 9ebc e927 fabd 38ab 2cbe
00000230: ffc1 91be 8166 9cbd ba5b 71bd efde e8be
00000240: 9b38 7ebe 40f4 c8bc d0fa 3a3d 19d4 6dbc
00000250: 6f9d 82bd d3f5 973d 654e 6cbe fcfc c1bc
00000260: c63d 0abd d9eb ac3d 0c18 5cbd 0eda 1dbd
00000270: 7179 9dbd d987 b2be 4026 8d3d f4c0 c33c
00000280: 8643 0c3e b13b 8c3c 3d8b 613d decd 253e
00000290: 1c1c e3be c230 bbbd acf3 8dbd c979 0dbe
000002a0: 666c b53d 283d 5a3f 2cf9 003e 6f4d 183f
000002b0: a202 843e 53aa 9dbe 85a1 edbd b366 9ebd
000002c0: b983 96bc 4824 86bc b471 813e 7f32 88bd
000002d0: 8eb2 9b3d 1b89 2fbe ff4a 663d c839 003e
000002e0: 89ad 25bd 1ae6 023f 8e8b 03be a2e0 0d3d
000002f0: 8005 09bd 3b3f a83d 1298 db3c bda8 86bd
00000300: d6bc 6c3f 85e4 bc3c 31ce 2c3e 93f1 1cbd
00000310: 8620 8f3d de04 04be ab92 3cbe ea37 dd3e
00000320: e3ba 6abe d089 9abe f3be 83be b782 803c
00000330: e19f 433d 1a88 2b3d 78ca da3f b4a3 00be
00000340: 55fe 843e 73ad e33d f059 623d d8b1 5a3e
00000350: b5fb efbd 7f57 afbe fe0b 14bf a7a7 d4be
00000360: 88c8 49be 85e0 803a 88bb 86be 4e24 80be
00000370: 1d1c 21be 0bb9 58be 6024 ebbd 47d7 c73d
00000380: 852c 033e f1c2 cd3e a82e c63e 4ee7 a6bc
00000390: f1a7 eb3e be86 843e 3971 743e 7469 4c3e
000003a0: 75c6 7bbe 7ab4 ddbd ae25 9ebf 110e 44bd
000003b0: ac12 02be d825 89bd 742b a6bd 6542 c3be
000003c0: 37a8 223e 50c3 d93e 3333 243f 1989 473e
000003d0: c5c3 ad3e ce9f 0c3e a307 043e 33ae 773e
000003e0: f0c5 0e3d 5fe1 863d 7726 903d 1021 033e
000003f0: bc2a 803e 7676 8f3e 08ad 26be 31e6 183f
0.10590775 0.41307423 -0.1822487 0.23137404 0.11476955 -0.11862273 -0.17940606 -0.04292315
-0.22330242 -0.018415784 -0.100545265 -0.05056253 -0.062209193 0.10334965 0.045251288 -0.100197494
-0.015652217 0.148492 -0.14881256 -0.14179285 0.076060094 -0.061291475 0.055051427 -0.026931241
0.51816577 0.10206804 0.2559706 0.061282583 -0.16219364 -0.39864582 0.025213897 -0.2346977
-0.13691638 -0.0442166 0.0002576795 0.06194714 0.18966985 0.065231435 -0.0709989 -0.052178804
-0.059041385 0.014903434 -0.24437161 0.021541256 -0.06471791 -0.30595115 -0.053377952 0.19155674
0.16765633 -0.056478247 0.07358443 0.022626335 -0.5398239 -0.028513545 -0.22570845 0.00049970957
0.11287748 0.18368827 -0.11354429 0.09698136 0.113154314 0.011624596 0.09837989 0.08378076
0.0319706 -0.07270372 -0.069300644 0.091829956 -0.025808861 0.009261489 0.05281927 -0.06084979
-0.0560354 0.23026557 0.0049853604 -0.11665317 -0.15866075 -0.19010957 -0.1527162 -0.11737055
0.0404215 -0.0043161567 0.11838354 -0.21188582 -0.21660134 -0.27307758 0.12975496 -0.40057948
-0.3132928 -0.10332324 0.14273676 0.23821627 -0.020554712 -0.107217774 -0.532713 -0.0023256561
0.04876821 -0.07047125 -0.10435167 0.00029952877 0.1590199 -0.7000095 0.09406179 0.05092998
0.082734875 -0.069304295 0.06719437 0.055472612 -0.6850841 -0.20543458 -0.051533345 0.022963224
-0.15596361 -0.42651665 0.2657116 -0.41828606 -0.11314145 0.062316556 -0.02200465 -0.0013753606
0.029366974 0.12264641 -0.2754841 0.053503282 -0.06969117 -0.17741466 -0.05980263 0.027573653
0.06025998 -0.2410001 0.21394649 0.12300574 -0.04974774 -0.17986488 0.03406617 0.14091152
-0.32535657 -0.019405233 -0.122146435 -0.1686219 -0.2846832 -0.076367386 -0.058925368 -0.45482585
-0.24826281 -0.02453053 0.04564935 -0.0145159 -0.06377684 0.07419934 -0.2307678 -0.023680203
-0.033750318 0.08443422 -0.05373387 -0.03853803 -0.07689179 -0.3486927 0.06892061 0.023895718
0.13697633 0.017118307 0.05506443 0.16191813 -0.44357383 -0.09140159 -0.06931242 -0.13815989
0.08858566 0.8524957 0.12595052 0.59493154 0.2578326 -0.3079401 -0.11603073 -0.07734432
-0.018373357 -0.016374722 0.2528206 -0.06650256 0.07602416 -0.17142145 0.056223866 0.12522042
-0.0404487 0.5113236 -0.12846205 0.034638055 -0.03345251 0.08215185 0.026805911 -0.06575153
0.9247564 0.023058185 0.16875531 -0.03831632 0.06988625 -0.12892482 -0.18415324 0.43206722
-0.22922854 -0.30183268 -0.2573162 0.01568733 0.047759894 0.041877843 1.7093039 -0.12562448
0.2597529 0.11117067 0.055261552 0.21356905 -0.11717931 -0.34246442 -0.578308 -0.4153416
-0.19705403 0.0009832537 -0.2631495 -0.25027698 -0.1573338 -0.21164338 -0.11481547 0.09757858
0.12809952 0.4018779 0.3870747 -0.020373967 0.46026567 0.2588405 0.23871316 0.19962102
-0.24587424 -0.10825439 -1.2355249 -0.047864977 -0.12702435 -0.06696671 -0.08113757 -0.38136593
0.15884481 0.42531824 0.64140624 0.19485892 0.33938423 0.13732836 0.12893538 0.24187545
0.034856737 0.06585955 0.070385866 0.12805581 0.25032604 0.28020066 -0.16276944 0.59726244

model.0.conv.0.kernels.4.weights f4 [8, 16, 4, 9]
00000000: b524 cf3d 4e97 cd3d abc0 d33e 9a46 01be
00000010: f44a b83e b866 163d c894 21bc 55d3 563d
00000020: 3421 5abc 1085 163e 7f08 823c 2c87 97bd
00000030: 8e2c bfbd 65a7 61bd 5ad3 c13d e348 b4bd
00000040: ed4b 3dbd bb47 013e ac21 3a3d 7c16 3b3e
00000050: 25ee bb3d 81fe 9fbd 57c1 cb3e 4385 df3b
00000060: c684 a4bd 9539 28be 6916 d5bd fb53 843c
00000070: 4ad6 363e a8ee 6b3d 0ae9 0abe dd1d 093f
00000080: aae3 063e e3ff 1a3e ee8f 0f3e 64d5 edbc
00000090: 0ce8 e4bd 8488 95bd 7b84 93be 02c3 7f3d
000000a0: 37c2 8bbe 3283 0cbc ac78 1f3e 270a 23bd
000000b0: fbed c5bd 6b96 87bd a508 00be 7fc7 023e
000000c0: 6e14 0cbd 4918 f1bd 7ab4 2ebe 7fe8 24bd
000000d0: cbcf 16bd 1102 863d f364 c23d 9f97 d4bd
000000e0: da7a 5c3c 1a54 3d3b 5464 d0be 80a1 583e
000000f0: 8dbd 0a3d d9e4 073e dcdc 7e3d 63a6 083d
00000100: 87c9 1abd 4a97 373d d7e9 39bd a940 e1be
00000110: a598 90bd d4d2 cabd fd68 b9bd d387 813c
00000120: f8fe be3d e9ef ea3c 1689 083e 98c9 fb3c
00000130: c3e0 47bd 015b 36bd f26e 003d 14c8 fd3b
00000140: f63f cc3d 9184 d0bd a333 dbbc 2c4b cfbc
00000150: ea07 123e a0ff 6fbd 3c09 cabd adca 2b3c
00000160: 5cfd dbbd a578 2bbd 2298 6bbd 8ca0 82bc
00000170: 7cf9 4d3e 0f1e 753d d897 4e3e 358a 553d
00000180: 4fc9 bfbd 4be2 be3d 5fe7 393c e13b 61be
00000190: 98b8 383d 8f56 d73d 9da2 2bbd 2de1 a93e
000001a0: 638f 14bb 58ad a33d a7a7 313e fc18 063c
000001b0: 2dd7 55be 6e59 9bbe 4923 29bf 6aee 833e
000001c0: 8059 aabe 297b e2be 0774 3ebe 9fe4 d23d
000001d0: 0862 133c ef24 9bbb 16a8 a3bd e401 333d
000001e0: e72b fabd d6c7 e0be 0050 043d 6b37 c03d
000001f0: 694c 12be b63a e53a 3f0a 173e cdb8 5dbd
00000200: 4fe0 51bd 490d 873e 88d3 1dbf 6e77 0e3d
00000210: 8a35 2f3e ca30 6a3c 0aa2 5abb 1930 10be
00000220: d780 97bd 21cb 723c af10 943d 41d3 53bf
00000230: c2d2 ddbd bac6 4cbc ae4b 4bbd eaff a23c
00000240: 46bb 06be 779b 7fbe 6c4b f4be 68d9 c4bd
00000250: 95b8 3bbe 1400 e5bd 221c 0cbd da06 063c
00000260: 7505 23bd 8781 3f3c b6c9 32bc f984 773d
00000270: c24f 1fbe 7113 a1be 52b9 4fbc efab 9abd
00000280: f7c4 de3d 54c1 12bc 00a1 e8bd bc13 e8bd
00000290: d377 0fbe cd17 9d3d 4977 8dbe 5439 77bd
000002a0: f584 14bd fe75 31bd 4bb2 41be 8b59 daba
000002b0: 12f7 4fbd eddb fcba 0b3e 623d 7278 bdbe
000002c0: 7edd 3abc 6a3a e9bc 4bbe e03d 337a 40bd
000002d0: 1ee2 fbbd 8eff e9bc 69f6 c3be 93c5 693c
000002e0: 8d98 c0be 6683 a6bd 465d d93d f610 b2bd
000002f0: d563 993c 96dc dcbd f9af 283d a6d9 f0bc
00000300: 1c37 0d3d e26b b8be 2f77 ea3d 303c b43d
00000310: 9a30 abbd 5eda 7bbc aca5 b83c 919b b7bc
00000320: 3860 1e3a f4a2 36bd d8a1 b0be bb90 a43d
00000330: 2ac2 b33d 184d 553d 9978 7e3d 0334 b43d
00000340: a0af 9abc b5ea b5bc c426 453d 8fb2 e9be
00000350: 5ab0 77bd 89e8 f4bd 5fbb cdbc 5505 d2bd
00000360: 0c71 52bd bf62 433e c78b 563f 5c77 e63d
00000370: 26f5 1a3f 8201 3a3e e16b 39be e7a4 24be
00000380: 0e1f b9be 32dc 593c 6898 67bd 1b4a acbd
00000390: a211 9ebe 77fc 243c 820e a3bd abf9 bbbc
000003a0: 2c8a 2abe 8d5c 45be e20c 10be 4beb 773e
000003b0: e2d5 3b3d c8a8 4a3c 14cb cb3e 0289 b5be
000003c0: adeb 02be b009 79bd b6c9 17be a2f5 6fbc
000003d0: 14a9 243e f80d df3d a195 2f3c 28d7 163f
000003e0: e141 263e e771 0e3e 8911 90bd 744e 8bbd
000003f0: c721 163e 9b27 853e d749 d5bd 2414 e7bc
0.10114423 0.10038625 0.41357931 -0.12624589 0.35994685 0.036719054 -0.009862132 0.052447636
-0.01331358 0.14699197 0.015873192 -0.07398829 -0.0933467 -0.05509128 0.0946414 -0.088029645
-0.046214987 0.12625019 0.04544227 0.18270296 0.09176282 -0.07812215 0.39795944 0.006821306
-0.08033137 -0.16428216 -0.10404665 0.016153326 0.17855182 0.057600647 -0.1356546 0.5356119
0.13172784 0.15136676 0.14019749 -0.029032417 -0.11177072 -0.07301429 -0.28812012 0.062441833
-0.27296612 -0.008576201 0.15573376 -0.039804604 -0.09664532 -0.06620487 -0.12503298 0.12771414
-0.03419917 -0.1177221 -0.17061034 -0.040260788 -0.03681926 0.06543363 0.09491911 -0.10380482
0.0134570245 0.002888924 -0.40701544 0.21155357 0.033872176 0.13270892 0.062222347 0.033361804
-0.037789848 0.044822015 -0.045389023 -0.43994644 -0.07060365 -0.099034935 -0.09053228 0.015811836
0.09325975 0.028678851 0.13333544 0.030735776 -0.048798334 -0.04452038 0.031355806 0.0077447984
0.09973137 -0.10181535 -0.02675802 -0.0253044 0.14260831 -0.058593392 -0.098650426 0.010485333
-0.10741684 -0.041863102 -0.057518132 -0.015945695 0.20114702 0.05984312 0.20175111 0.052133758
-0.093645684 0.09320506 0.011346667 -0.21995498 0.045097917 0.105145566 -0.041903127 0.33179608
-0.0022668473 0.07992047 0.1734911 0.008184668 -0.20882864 -0.30341667 -0.66069466 0.25767833
-0.33271408 -0.4423459 -0.18598948 0.10297512 0.00899554 -0.0047346274 -0.07991044 0.043702975
-0.12215405 -0.43902463 0.032302856 0.0938557 -0.1428696 0.0017488811 0.14750002 -0.054131318
-0.051239308 0.26377323 -0.61650896 0.034781866 0.17110267 0.014293859 -0.0033360743 -0.14080848
-0.07397621 0.0148189375 0.07229745 -0.8274422 -0.108312145 -0.012498552 -0.04963272 0.01989742
-0.13157377 -0.24961649 -0.47713792 -0.096117795 -0.18332131 -0.111816555 -0.034206517 0.0081803445
-0.039800126 0.011688597 -0.010912349 0.060429547 -0.15557769 -0.31460145 -0.012678461 -0.07552325
0.10877412 -0.008957226 -0.11358833 -0.11331889 -0.14010553 0.07670555 -0.2763007 -0.060357407
-0.03625961 -0.043325417 -0.1891567 -0.0016658766 -0.050772734 -0.0019291617 0.05523495 -0.37005955
-0.011405347 -0.028470237 0.109737955 -0.04699154 -0.12298988 -0.02856424 -0.38273934 0.014268297
-0.37616387 -0.08130531 0.106134936 -0.08694641 0.018724361 -0.10784261 0.041183446 -0.029400658
0.034476385 -0.36019808 0.11448514 0.08800542 -0.083588794 -0.015371887 0.022539936 -0.022413047
0.00060415594 -0.044588998 -0.34498477 0.08035418 0.08777268 0.052075475 0.06212673 0.08798983
-0.018882573 -0.022206644 0.048132673 -0.45644042 -0.060470916 -0.11958415 -0.02511376 -0.10254923
-0.05137734 0.19080637 0.83807033 0.11253235 0.60530317 0.18164638 -0.18107559 -0.1607853
-0.36156505 0.013297128 -0.05654183 -0.08412572 -0.30872828 0.010069958 -0.079617515 -0.0229462
-0.16654271 -0.19273587 -0.14067414 0.24210851 0.04585827 0.012369342 0.39803374 -0.3545609
-0.12785216 -0.060800254 -0.1482304 -0.014645966 0.16080123 0.10891336 0.010716827 0.5892205
0.16236068 0.13910638 -0.070345946 -0.06802073 0.14661323 0.2600678 -0.104144745 -0.028207846

model.0.conv.0.kernels.5.weights f4 [8, 16, 4, 11]
00000000: db18 313d 0cf4 a2bc 03e7 7c3e b954 b03e
00000010: 4561 20be d682 a33e 149b 8b3d 9918 353d
00000020: 4a67 a1bc acf7 b23d 8873 973c 9b95 bebc
00000030: 9468 1ebd 59d6 5a3c e367 c5bc 7563 4dbd
00000040: 4569 f63d 460d 38bd f93b 89bd 9d3c 9abd
00000050: 8ac8 913c ff45 ebbc bfb6 273d 9d04 27bc
00000060: 3c40 9abb b1e2 1fbc 6759 06be ab70 dd3e
00000070: e07a fcbd 41cc b6bd 8cf3 96be 3cb8 33bd
00000080: 2ee0 e0bd 9deb 24bd a38f 5c3c 325d a3bc
00000090: 95f5 e9bd b7b3 f0bd 027b fd3e 53da 18bd
000000a0: d551 953d 0f40 a43a 77cf 873d b51c 8bbc
000000b0: 4d3b 05be 3f5a 00be 5304 94be 3819 89be
000000c0: 049c e13c db6e 8bbe 2e1a 873d b009 97bd
000000d0: 6174 223c 7567 5ebc 3492 403b 222f 453d
000000e0: 122c bfbd a178 0b3d 7e84 9abd 92cf bb3c
000000f0: 940f 4bbe e867 483d 7b46 cb3d 6485 abbc
00000100: a55a 9bbd 79f7 0e3d 0671 723d 4445 e9bc
00000110: 8cef c33c 18d7 503c 80f9 dd3d 6ac3 7dbe
00000120: 1457 463c a74a c13d ac17 d73b 3801 793d
00000130: 7e6b bfbd ecbd 31bc 8146 3e3d 310a f4bc
00000140: f8b3 fdbc cef6 933c dcd7 f1be 60b2 9f3d
00000150: bee1 4dbe cf60 48be 8928 2e3b 2279 b2bb
00000160: 5964 0a3e 43a6 96bc daf5 e33c 3d29 453e
00000170: 5861 9dbd 4929 8a3d 6577 a73c 0aa5 d4bd
00000180: 4b3b 763b ceda 503c 4ae0 053d 96e6 0d3e
00000190: 7c69 20bd adb0 3fbd 3417 1fbe 8ac9 96bc
000001a0: 820e 323e 0e03 a3bd 80cd 6abb a6f0 d83d
000001b0: 3951 9a3d 327b f93c d377 443d 80e6 cd3b
000001c0: 63c1 11bc b9c0 89bc b866 b0bd fc8f 4f3e
000001d0: e77c 36be afdd 20be 0196 e1bd d920 eebc
000001e0: 9442 84bc 551b 27bd 7e18 2eba 549e f9bc
000001f0: 2106 eb3d b881 e1bc b7d5 7d3e c5a8 3a3d
00000200: 290c 883d ca16 983d 841e d9bd e9f3 d03d
00000210: e374 283c d6aa fdbd 1708 1cbe afa0 f5be
00000220: df09 7f3e d8e4 f7be 7234 d5be 9d41 f2bd
00000230: 8669 d83d be12 ad3c 2151 52bc 838a 9f3d
00000240: fa47 5f3d ddc5 213c 2d59 ccbb 1e35 ca3d
00000250: c8c8 eabe b22b 643d f81c f3bd 4b5c a1bc
00000260: 02bb 78bd 6ff7 8c3d 84d3 8eb9 9be1 e03c
00000270: dc61 06be 17fd 8bbd 898f e43d 1b24 22bf
00000280: bd73 febd 8c04 c33d 5cab 753d 60a5 aabd
00000290: 64b0 46be dad3 203c 1aec f73d 131d 22be
000002a0: 632d 56bd ee06 343e 0d45 5bbf b2c0 48bd
000002b0: cdc1 8fbe f1f1 bfbc 5904 ccbd cf75 e2bd
000002c0: a9d9 c6bd d6a2 f6bd 21ea 75be f279 00bf
000002d0: e323 9d3d dadd 66be 3003 5d3d 5a4a 363d
000002e0: 5471 c7bc d8d9 953d fa82 a2bd 6221 d8bb
000002f0: 1f6a 81bd 2368 94bc 1886 51bd 5209 8bbd
00000300: d67f 46be 7844 443c 8673 c1bc efba 8bbd
00000310: 0ee8 fcbc e450 8bbd ebc4 59bd d68e dfbd
00000320: c455 4ebd 6e1e 0c3e 3cf2 37be 1aab 34be
00000330: 9bf2 c0bd 89d3 e83c 1bd7 10bd 60e6 39be
00000340: fa43 5cbe 0b30 a73d f41a 80bc d6e8 acbd
00000350: 6fc0 0bbb 0f55 b93c 1125 e0be 2e67 3e3d
00000360: 9155 bcbd 44e2 0dbe 3260 c33c e8c3 39bd
00000370: d827 15bd 22f7 82bd 3fd6 23bc 79a1 b6be
00000380: bf7b 413d 9dc7 83be 8f03 1ebe 1647 0d3e
00000390: 89e6 1b3d 697b b93d 0294 3b3d 7339 db3c
000003a0: a38f a33d 22fe dabc 6c2d bf3a a90c ba3c
000003b0: f2d1 e3be 8463 203d 0d5c 56bd 8ea6 ee3c
000003c0: 1b76 b7bc ada5 b33d e34f d5bd 01bb 5e3e
000003d0: 2ac7 ed3c b18f 8fbc ab6d b43d 4269 53be
000003e0: 282f 753d 0975 1f3e 6bdd d93d 244e 8b3d
000003f0: 4d7b 93bd c879 48bb 302a 25bc ec45 53bd
0.043236595 -0.019891761 0.24697499 0.34439638 -0.15662105 0.31935757 0.06816688 0.04421291
-0.019702572 0.08738646 0.018487707 -0.023264697 -0.038673952 0.0133567685 -0.024097389 -0.050143678
0.12031797 -0.044934534 -0.06700892 -0.07531092 0.01779582 -0.0287199 0.040945765 -0.010193971
-0.0047073644 -0.009758637 -0.13120042 0.4325002 -0.12328124 -0.08925677 -0.29482687 -0.04387687
-0.10980259 -0.04026376 0.01346198 -0.0199419 -0.11423794 -0.11753028 0.4950791 -0.037317585
0.07290999 0.0012531298 0.06631368 -0.016981462 -0.13010903 -0.12534426 -0.2890955 -0.26777053
0.027540214 -0.27233014 0.0659679 -0.073748946 0.009915442 -0.013574471 0.002938402 0.048140652
-0.093345776 0.034050588 -0.07544802 0.022926126 -0.19830161 0.048927218 0.099255525 -0.020937629
-0.075856484 0.034903977 0.05918982 -0.028475411 0.023917936 0.012746595 0.10838604 -0.24781576
0.012105722 0.09438067 0.006564101 0.060792178 -0.093466744 -0.010848504 0.046453957 -0.029790016
-0.030969605 0.018062022 -0.47235 0.07797694 -0.20105645 -0.1956818 0.0026574454 -0.005446569
0.13514842 -0.018389827 0.027827192 0.19254012 -0.076845825 0.06746156 0.020442674 -0.10383041
0.0037571962 0.01274748 0.0326846 0.13857493 -0.039163098 -0.04679935 -0.15536195 -0.018406648
0.17388347 -0.07959567 -0.0035828054 0.10592775 0.07535023 0.030454252 0.047965836 0.0062835813
-0.008896205 -0.01681553 -0.08613342 0.2026977 -0.17821084 -0.15709566 -0.11014939 -0.029068397
-0.016145028 -0.04079755 -0.0006641223 -0.030471005 0.11475778 -0.027527675 0.24788557 0.045571107
0.06642944 0.07426222 -0.106015235 0.10202772 0.010281774 -0.123861 -0.15237461 -0.47974154
0.2490611 -0.4841678 -0.41641575 -0.11828921 0.10567002 0.021127101 -0.012836725 0.07790091
0.054512 0.009873834 -0.0062362165 0.098734125 -0.4585631 0.055705734 -0.1187076 -0.019697329
-0.06072522 0.06883132 -0.00027241942 0.027451327 -0.13123268 -0.068353824 0.1116019 -0.6333634
-0.12424419 0.095223516 0.059977874 -0.08332324 -0.19403225 0.009816134 0.1210558 -0.15831403
-0.052289378 0.17580768 -0.8565224 -0.049011894 -0.28077546 -0.023430796 -0.09961767 -0.110576265
-0.09709484 -0.12042777 -0.24015094 -0.50186074 0.076728605 -0.22545567 0.053958118 0.0445045
-0.024346031 0.07316941 -0.07935138 -0.0065957764 -0.06319069 -0.018116063 -0.051153272 -0.06788887
-0.19384703 0.011979215 -0.023614656 -0.06822764 -0.030872371 -0.06802538 -0.05316631 -0.10915916
-0.05037476 0.13683483 -0.17963499 -0.17643395 -0.09421273 0.02842118 -0.03536139 -0.18154287
-0.21510306 0.0816346 -0.015637852 -0.084428474 -0.0021324416 0.022623567 -0.4377828 0.04648512
-0.09196008 -0.13855845 0.02384958 -0.045352846 -0.03641495 -0.06394793 -0.009999811 -0.3567007
0.047237154 -0.2573823 -0.15431045 0.13796648 0.038061652 0.09056742 0.045795448 0.026760792
0.07986381 -0.026732508 0.001458568 0.022711115 -0.44496113 0.039157405 -0.05233388 0.029132154
-0.022395184 0.087718345 -0.10415628 0.21751024 0.029025633 -0.017524572 0.0880998 -0.20645621
0.059859425 0.15571989 0.10637935 0.068020135 -0.07201252 -0.0030590165 -0.010080859 -0.051580355

model.0.conv.0.kernels.6.weights f4 [8, 16, 4, 13]
00000000: c6bd a73d 9485 8b3d 5c8b 88bb 9584 7e3e
00000010: 2927 b93e 139f 0fbe 2781 653e 24c3 c43d
00000020: b12f babc 82de 823c e7d1 9b3d acec 43bd
00000030: 4e60 b6bc c338 adbd 40d6 2c3b 9851 0abd
00000040: 4cf3 82bd 9ac3 26be e8a4 2dbe c632 033d
00000050: ce4f 87bc 1e9e aa3b d2b9 383d 9210 b6bc
00000060: a9a9 073d 83d8 a23d facc 2a3c 3da1 22bd
00000070: 6d8b 37bc 58fa ae3c aea5 13bd 6f16 33bd
00000080: 22f4 da3e 1966 bfbd bfcc adbd ecac bdbd
00000090: e3dc 89bd 0a66 ecbc 0e9a 54bd 34b4 6f3c
000000a0: 7ac7 8dbd a973 e0bc 2e98 8e3d 59e7 a0bc
000000b0: ea3e fdbd 433b cb3e 9fd7 7c3d cf74 243e
000000c0: 1680 733d 4f90 993d 9cee a1bd 58c4 293d
000000d0: e0b1 5abe ed94 00bd 3965 9bbd 31e8 3cbe
000000e0: a5e2 e0be 04bc c23d 28c6 8bbe c791 a2bd
000000f0: 4ff7 78bc c64f 1ebd 0d2c 06bd 01c1 b9bc
00000100: ec19 f53c a497 67bd e969 08be da50 1a3d
00000110: 9624 81bc 5a90 1cbd 2ef7 29bb 10eb 22be
00000120: 66e7 a9bb 534f 99bc 4eb9 8abd 24bf 7fbd
00000130: 5131 94bd 1809 733d 539a f73a 73c8 973c
00000140: a06e 0fbd 17ef ebbc b117 55bd fd69 2dbd
00000150: d79b 90be 0b22 423e 4936 413e 99b3 e03d
00000160: 544d fdba 6a21 04bd 41bf 5bbe 44f5 f63b
00000170: 55ea 4f3d 68a2 78bc 6ac8 aa3a 766a 2d3c
00000180: 1ddb f23d 44bb d5be 3435 9d3b 2b5c 59bd
00000190: a80d 4cbd da03 74bd c129 cebd 9a2b d2bd
000001a0: df45 9b3d 71e7 4dbc 6318 873d fd9e 263e
000001b0: 358d 6a3e c71b 55bd a360 8b3d 7c21 203d
000001c0: b324 e4bb c3f0 b53c b3b6 debc dec9 263c
000001d0: 2da2 273a 09d6 733c fd53 92bd 44dc 823d
000001e0: 109d 153d 2878 13bd 962f 59be 8077 d93c
000001f0: e8b8 683d 8874 8cbc 380a d73d 6d83 9b3d
00000200: 875a 06bd eba9 a53d d5ea 1abd 0aab f2bd
00000210: f2f3 55bd 806c 51bd 3439 95bd 1da2 933d
00000220: d3aa 6d3e 9fb7 d23b f983 b0bd 22a5 8ebd
00000230: 8e22 e8bd d3e1 193d aedb 173d 4e98 933c
00000240: 9cad 963d 2fea fa3c e9c7 ad3d 7a27 12bc
00000250: 178f aa3c 5d35 973e 60c5 363e e6a4 263e
00000260: 46ad e03d a20e dd3c ea0d 613d e6fa 9c3d
00000270: 7821 40bd 452a 29bd 5693 0fbc ceb0 71be
00000280: d300 eebe 4ab7 9a3e dd6c a4be 98cf a7be
00000290: cd27 5ebd 2d40 c53d bfad adbd 57ff c0bc
000002a0: 98b5 1dbe cc62 5d3d 9de4 c43d 9606 b33c
000002b0: b790 a5bd bad3 c03d f640 683d df1f c7be
000002c0: c291 473c c3cf 3c3d 1881 31bd 013a efbd
000002d0: a991 95ba cc14 043e d5e7 f73d c614 093e
000002e0: 56ff 433d 0326 a53b bc42 8ebe b006 113e
000002f0: 16c0 03bf c360 6bbd a6b1 1a3d 146b 0ebe
00000300: 98d0 00be 5aed 5fbe 9f61 8cbe b90b 643d
00000310: 3dbf 8d3c 32f6 ea3c c1d7 b53c 226d 45bb
00000320: bb1e 873d f1c3 74bf 4116 0fbe 1dab 08be
00000330: 918a 2cbc 84ee bb3d c4b6 103d 6d03 92be
00000340: c632 82be d77b 56be b2a2 3e3d dfb5 39be
00000350: c958 c0be 6110 9b3d 7750 0fbe ae92 cdbd
00000360: 309c 89bd eca8 543c 3d98 a03d a676 923d
00000370: 12c6 1ebc ae1d deba 05b5 b83d 989b e0bd
00000380: 87ae 08bd d958 063d e012 8f3d feae 80be
00000390: de01 453d d3f9 bc3d 8a0d 04bd 0d47 71bd
000003a0: 4fa9 2d3d 936b bdba 4756 6d3c 119b 673a
000003b0: b242 adbc b2d5 0cbd afaa 8bbd bc24 973c
000003c0: 55ec e6be 56ed d9bd b51a 97bd e321 6abc
000003d0: 6f4b e3bd a8ab 94bd e964 71be 8984 04be
000003e0: a805 b1bd f624 acbd 4059 6e3d 0782 883c
000003f0: 2306 103e f65b 91be 4744 51bd 16a5 4bbe
0.08190493 0.068125874 -0.0041670036 0.24855264 0.3616269 -0.14025526 0.22412549 0.096075326
-0.02272782 0.01597524 0.07608395 -0.04783313 -0.022262719 -0.08458092 0.002637282 -0.03376922
-0.063940614 -0.16285554 -0.16957438 0.032030843 -0.016517546 0.0052068373 0.045099087 -0.022224698
0.033120785 0.079514526 0.010424847 -0.03970455 -0.011202675 0.021359608 -0.036046676 -0.043722566
0.42764384 -0.093456455 -0.08486318 -0.09261498 -0.06731584 -0.02885725 -0.05190473 0.014630366
-0.06922813 -0.027398901 0.0696262 -0.019641565 -0.123655155 0.3969365 0.06172907 0.16060184
0.059448324 0.07498228 -0.07906839 0.041447014 -0.21356916 -0.031392027 -0.07587666 -0.18447949
-0.43922916 0.095085174 -0.2729962 -0.07937961 -0.015195682 -0.038650297 -0.032756854 -0.02267504
0.029919587 -0.0565411 -0.13321652 0.037674762 -0.015764516 -0.038223602 -0.0025934684 -0.15909982
-0.0051850555 -0.018714583 -0.06773625 -0.062438145 -0.07235969 0.059334844 0.0018890597 0.018528199
-0.03501761 -0.02880053 -0.052024547 -0.042337406 -0.28243896 0.18958299 0.18868364 0.109717555
-0.0019325414 -0.03225843 -0.21459676 0.007536562 0.050760586 -0.015175439 0.0013029699 0.010584464
0.11858199 -0.41744435 0.004797602 -0.053066414 -0.04981771 -0.059573986 -0.10066558 -0.102622226
0.07581686 -0.012567387 0.06596448 0.16271587 0.22905429 -0.052028444 0.06805541 0.039094433
-0.0069623827 0.02220953 -0.027186727 0.010179965 0.00063947105 0.014882573 -0.07144926 0.063896686
0.03652674 -0.03600326 -0.21209559 0.02654624 0.056816965 -0.01714541 0.10499996 0.07593427
-0.032801177 0.0808905 -0.03782161 -0.11849029 -0.052234598 -0.051128864 -0.07286301 0.07208655
0.23209696 0.0064305807 -0.08618922 -0.0696509 -0.11334716 0.03756888 0.037074737 0.01801696
0.07357332 0.030629246 0.084853955 -0.008920545 0.020820184 0.295329 0.1784873 0.16273841
0.10970549 0.026984517 0.05494491 0.076650426 -0.04690692 -0.041300077 -0.008763155 -0.23602602
-0.46485004 0.30217963 -0.32114306 -0.3277557 -0.054237176 0.09631381 -0.08480405 -0.023559256
-0.15401304 0.0540493 0.09613917 0.021853726 -0.08084243 0.09415384 0.056702577 -0.38891503
0.012180747 0.046096575 -0.043336004 -0.11680985 -0.0011411208 0.12898558 0.12104765 0.1338683
0.04785093 0.0050399317 -0.2778529 0.14162707 -0.51464975 -0.057465326 0.037767075 -0.13908035
-0.12579572 -0.21867886 -0.2741823 0.055675242 0.017303104 0.028681848 0.022197606 -0.0030124863
0.06597658 -0.9561148 -0.13973333 -0.13346525 -0.010531084 0.091763526 0.03533055 -0.2851824
-0.25429362 -0.20945679 0.046541877 -0.18135785 -0.37567738 0.075714834 -0.13995539 -0.100377426
-0.067192435 0.012979727 0.07841537 0.07151537 -0.009690778 -0.0016946101 0.09018902 -0.10967177
-0.033369567 0.032799575 0.06986022 -0.25133508 0.048097484 0.09227338 -0.032239474 -0.05890565
0.042397793 -0.0014451615 0.014485902 0.00088350574 -0.021149967 -0.034383483 -0.06819665 0.018450134
-0.45102182 -0.10640971 -0.07378141 -0.014290306 -0.11098372 -0.07259303 -0.2357365 -0.12941183
-0.08643657 -0.08405487 0.058190584 0.016663564 0.14064841 -0.28390473 -0.051090505 -0.19887194

model.0.conv.0.kernels.7.weights f4 [8, 16, 4, 15]
00000000: 11c2 873e c8a5 d33d bff6 babd 0574 3dbc
00000010: 0968 453e 6e44 f33e 443d 95bd 6df9 973e
00000020: bfa2 033d a618 723b a620 0f3d 92db ad3d
00000030: 8313 2fbb ff52 8cbd 7a3f 2cbe da8a 633c
00000040: 49ae c13d ce0a 713c f2c4 7bbb 98fe 63bd
00000050: eaf2 b6bd 2c48 f0bd f6a9 243c e9e4 19be
00000060: 7939 c2bd 3951 3ebc 4ff2 13be 3248 b73c
00000070: bccf b9ba be0e db3d 119f 2a3d c60d 25bc
00000080: 3b2f 98bc 2d68 583d 4464 57bc 3470 02bc
00000090: 05f9 93bd 172c b13e 6956 11bc 1d1a 6dbd
000000a0: 6c15 41be dc12 abbd 278e 38be ae77 c4bc
000000b0: 53a8 d7bc 2b01 323c 1ebd f6bc a782 93bd
000000c0: d164 d4bd 61ab 113e 7e32 b6bd 70d9 08be
000000d0: 95a8 0d3f 3dc3 e03d e1db 8a3d f8fd 413d
000000e0: 8802 9aba 8581 1d3e ee8d c1bc b1e4 d83c
000000f0: e2f6 a7be 0433 41bd 9e79 f6bd 42da 9ebd
00000100: a06a 0cbe 1ca0 a3be 31b5 d23d 8b63 b8be
00000110: b328 83bd 5bd6 8d3d 75d8 39bb 1606 503d
00000120: 4368 23bd c755 b8bd d727 48bb d531 e2bc
00000130: d0e1 6f3c 1c0a a33b 8c99 b63c fa48 f83d
00000140: 084c 9a3d 77fd 80bc d8f3 40be 6873 673d
00000150: 8918 12bd 3429 2b3d f3bb 883d 9f1e be3d
00000160: a83c 893b 43b7 d83d 8279 abbc 0c57 bc3c
00000170: a7c2 0cbe 3fae 17bc a310 44bd 4df4 3abc
00000180: 2828 53bc 19bd cbbe bb3f 8ebc 23c1 ba3d
00000190: a863 fd3d 228b 1dbe 9f39 86bd 872c 13be
000001a0: 6470 9fbe b202 4ebd 2ed8 d63b 56f9 4c3d
000001b0: b18a a7b9 9029 023d db3a 5a3d eeec 523d
000001c0: ffd8 b6be 0c87 ecbd 6750 78be ab1e 9ebc
000001d0: d573 e33c dec3 773c 42b8 13be 9ef5 8abd
000001e0: 468c 903d cb5c 283d fbb9 7cbc fc8e 1bbd
000001f0: 2ea3 023e ac3f ee3d a644 d1bd 008f 0fbc
00000200: efa1 ac3d 11f4 91bb 4c14 803d 7956 d53d
00000210: bd9d 24bd 66f3 953d 6375 2e3c a892 87bd
00000220: e012 23bd 4d3b 64bd c438 a53d 6acd afbd
00000230: d6a5 e8bc 4b77 aebd 4673 473d a979 5abd
00000240: f883 da3c dd6c efbc 06a8 3cbd 1bc2 e23c
00000250: 9091 d4bd b1c0 373d b813 6c3d 90f7 b5bc
00000260: b6ea 13bc e7b4 d13a 60dc 493d 9eed 74bc
00000270: 7050 21bd 4a7a 343e de6f 21bd c5da a73c
00000280: 15de 37bd 4106 b93c 17a4 ecbc 7f18 053e
00000290: 8db7 ee3d 46fb 02bd 77bd fb3c 1860 b6bc
000002a0: d02f fa3d 5c11 943d 2bfe bdbc 7273 4dbd
000002b0: deb7 513e f3d2 13be 2c8d 3b3d 2c55 5c3d
000002c0: 6cc9 743d 36e2 6ebd 2677 703c a6aa b83c
000002d0: 0fbb c7bd f96d 09be a678 a5bc 3081 e7bc
000002e0: e61c 66be 79a3 f5be c421 4a3e e540 b1be
000002f0: 0a2e c9be d497 a5bd ce17 c53d 9903 cc3d
00000300: d285 26bd 652d f7bd 8b92 f3bd f852 1d3e
00000310: c070 363e d228 aeb7 8c32 50bd dcd9 0ebb
00000320: 1c98 e53b 1847 363d c44c bcbe b1ae 693d
00000330: 0869 98bd b8d3 4cbd cf77 123e bb9b 343e
00000340: 7492 83bd bfab 753c 904c 453c cb50 283d
00000350: 5a30 183e 3213 8a3b ea13 44bd d13e c8bd
00000360: f6f2 463e fe9f 09bf 12eb 473e a49c 2a3e
00000370: 4ac7 1ebc 8d03 28be 170f 01be 6e26 81be
00000380: 9a6e f7be 4229 30be f489 f9bd 3466 96bc
00000390: 84c5 963c 5e5b b0bb 8ec5 ba3d 4825 1c3e
000003a0: 5d48 57bf 3209 b8bd 358a 4abe 2a92 c53d
000003b0: cf98 02bd c69d 8fbd dc7c 39be fa14 94be
000003c0: 35e6 c7be e8f8 c2bd 5ffc 9bbd 21b7 cabc
000003d0: 4f2f 1cbe 161f fbbe d5da 2e3d 5c42 fbbd
000003e0: 748c 55bc 6284 36bd 0acb 38bd c052 7abd
000003f0: bf17 0abd 2e38 b73c e2e3 84bd 74db debc
0.26515248 0.10334355 -0.09129094 -0.011563306 0.19277968 0.47513145 -0.07287076 0.29682484
0.03213763 0.003694096 0.034943245 0.08489145 -0.002671451 -0.06851768 -0.1682109 0.013888085
0.094570704 0.014712049 -0.003841695 -0.05566272 -0.08933051 -0.11732516 0.0100502875 -0.15028729
-0.09483618 -0.011616045 -0.14447902 0.022373293 -0.001417629 0.10696171 0.041655604 -0.010074085
-0.018577209 0.052833725 -0.013146464 -0.007961322 -0.07225231 0.3460395 -0.008870699 -0.05788623
-0.18855828 -0.083532065 -0.18022977 -0.023982849 -0.02632538 0.010864536 -0.030119475 -0.07202654
-0.10370792 0.14225532 -0.08896349 -0.13364196 0.5533536 0.10974739 0.0678022 0.047361344
-0.0011750022 0.15381439 -0.023627248 0.026476236 -0.32805544 -0.047167793 -0.120349154 -0.07756473
-0.13712549 -0.3195809 0.10288466 -0.36013445 -0.06404247 0.06925651 -0.0028357778 0.050787054
-0.039894354 -0.09000736 -0.0030541325 -0.027611652 0.01464124 0.0049755704 0.022290014 0.12123294
0.07534033 -0.015745861 -0.18843019 0.056506544 -0.03566793 0.04178734 0.066764735 0.09283184
0.004188139 0.105818294 -0.020931963 0.022990726 -0.13746129 -0.009257852 -0.04786743 -0.011410785
-0.012887992 -0.39792708 -0.017364373 0.09118869 0.123725235 -0.15385106 -0.06553959 -0.14372455
-0.31140435 -0.05029554 0.0065565323 0.050042473 -0.00031956055 0.03177792 0.053278785 0.051495485
-0.3571243 -0.11549196 -0.24249421 -0.019301733 0.027765194 0.015122382 -0.14425758 -0.06785129
0.07058005 0.04110412 -0.015425201 -0.037978157 0.1275756 0.11633238 -0.10218172 -0.008762121
0.08429324 -0.004454144 0.06253871 0.10416884 -0.040189493 0.07321815 0.010648104 -0.06619769
-0.039812922 -0.055720616 0.08067468 -0.085841015 -0.02839939 -0.08518847 0.048693918 -0.05333868
0.026674256 -0.029226715 -0.046058677 0.027680447 -0.10379326 0.0448615 0.057635993 -0.022212774
-0.009028127 0.0015999348 0.04928243 -0.0149492305 -0.03938335 0.17624775 -0.039413325 0.02049006
-0.04488953 0.02258599 -0.028886838 0.12997626 0.11656103 -0.031977914 0.030729992 -0.022262618
0.12216151 0.072298735 -0.023192486 -0.050158925 0.20480296 -0.1443594 0.04578893 0.053792164
0.059762403 -0.0583212 0.014676845 0.022542309 -0.097524755 -0.13420857 -0.020199131 -0.028259844
-0.22471961 -0.47976282 0.19739443 -0.34619823 -0.39292938 -0.080855995 0.09623681 0.09961624
-0.040654965 -0.12069205 -0.11893185 0.15363681 0.17816448 -2.0761425e-05 -0.050829455 -0.0021797335
0.0070066582 0.044501394 -0.36777318 0.057051364 -0.07441908 -0.0500066 0.14303516 0.17637531
-0.06424418 0.014994561 0.01204218 0.041092675 0.14862195 0.004213714 -0.047870554 -0.09777606
0.1942862 -0.53759754 0.19523266 0.16661316 -0.009691069 -0.16407605 -0.12603413 -0.25224632
-0.4832657 -0.17203239 -0.121845156 -0.018359281 0.01840473 -0.0053819856 0.09119712 0.15248597
-0.8409479 -0.08986129 -0.19779284 0.09647019 -0.03188401 -0.07012515 -0.18114036 -0.28922254
-0.39042822 -0.09520131 -0.07616495 -0.024745526 -0.15252422 -0.49047154 0.042689163 -0.122685164
-0.013033975 -0.044559844 -0.04511551 -0.061114073 -0.033714052 0.022365656 -0.06488778 -0.027204253
