trained_models/TimesNet_RSAD_coniferous_CRSWIR/checkpoint.pth (torch, 658722 bytes, 39 tensors)

model.0.conv.0.kernels.0.weights f4 [8, 16, 4, 1]
0.43065923 -0.31856722 -0.038843296 0.8159401 -0.020342397 0.11065169 0.49094588 -0.24385497
0.15291737 0.18356954 -0.2642031 0.05020036 0.28446215 -0.10093173 -0.011353206 -0.20480277
-0.026273863 -0.41360673 -0.095496744 0.20726733 0.16174157 -0.44171295 -0.27327192 0.077637985
0.12050088 -0.5157602 0.07156637 0.03113513 0.40829828 -0.30301532 -0.37282762 0.53449374
0.7528904 -0.002419391 -0.16240102 0.9261622 0.06643511 -0.94310725 -0.101399034 0.3811371
0.08942056 -0.05210273 0.18834493 -0.20869519 0.089089505 -0.5376761 0.18102826 0.5066545
-0.18863516 0.7025417 0.31104144 -0.08097204 -0.08132953 0.32720375 0.4200682 -0.19043979
-0.40683058 0.7506058 0.7125182 -0.33434743 0.004100555 0.1346181 0.2989968 0.19976944
0.50848436 0.06656903 -0.25498942 -0.33157772 -0.06750929 0.116082914 -0.06559816 -0.085427165
-0.22966051 -0.21205102 0.1017509 0.46178666 -0.0013080188 -0.21419597 -0.28760192 -0.12108045
0.22637841 -0.54097605 -0.40167218 0.5430736 0.23351422 0.47997698 0.7796164 0.06314681
0.22288065 -0.44927776 -0.4137996 -0.28582808 0.58427036 0.32945925 0.41715902 -0.55217445
-0.33954 -0.060044717 -0.5482392 -0.5505767 0.17614399 0.9021494 0.14371504 -0.63574976
-0.1972689 -0.063687935 -0.42285556 0.17075737 -0.44842392 -0.022307202 0.13733527 -0.31490138
-0.953629 -0.49676558 -0.77866113 0.09004161 -0.566324 -0.6543523 -0.2683437 0.5583446
-0.21132132 -0.14361572 -1.190442 -0.22758755 -0.36458632 -0.107613005 -0.000514034 0.2166984
0.13951895 0.13473593 0.21161719 0.44466963 -0.08795822 -0.09517025 -0.036703233 0.06859075
-0.35031247 0.18984205 -0.05291084 -0.37270316 -0.10314703 0.0050533125 0.00022533032 -0.3568973
0.1127715 0.11541204 0.2707496 0.15420371 0.3120514 -0.047582712 0.52355665 0.10542187
0.18599473 0.11443323 0.4401166 -0.41773552 0.8443416 -0.17215775 0.47524124 1.1745114
0.31900862 0.14185697 0.06347281 0.65153176 -0.30761704 -0.21307486 0.2623534 -0.30535612
0.023524392 -0.08407571 -0.52297515 0.3416405 0.35408768 0.37776807 0.13957082 0.06491266
0.023475196 0.18685357 -0.63640636 0.15640108 -0.5155754 0.42076814 0.20011069 -0.76526725
-0.48716003 0.12613547 -0.985339 -0.18793076 0.037332445 0.29762444 0.108443975 0.23080005
0.43492067 0.3824912 0.2630941 0.14620776 0.19009626 -0.10816048 0.095961094 -0.048507288
-0.14084545 -0.45492637 -0.47231045 0.05508045 0.1130792 0.3323068 0.092222996 0.04804461
-0.20165877 0.57954156 0.16737172 0.10606881 0.15779485 0.059864685 0.042149696 0.16223659
0.18177825 0.20602432 0.18427384 0.104266666 0.34595615 0.98523307 0.7435657 -0.7878929
0.031149015 0.22361091 0.3539664 0.09886697 -0.49448532 0.093134195 0.2979546 0.31415024
-0.15526085 -0.23435576 -0.22348484 0.23851813 0.33159742 0.112198114 0.26643136 0.34993947
-0.19426359 0.17374294 -0.43274388 -0.0565228 -0.5829852 -0.5888952 -0.68517476 0.71091676
-0.7961276 -0.8295443 -0.34496707 0.00056399277 -0.0517298 -0.078144416 0.017615093 -0.29257205
00000000: 5e7f dc3e 3e1b a3be 261a 1fbd 73e1 503f
00000010: 19a5 a6bc 5a9d e23d 425d fb3e 1eb5 79be
00000020: 5f96 1c3e a7f9 3b3e a145 87be e59e 4d3d
00000030: 06a5 913e 4bb5 cebd cc02 3abc d1b7 51be
00000040: 493c d7bc 43c4 d3be cc93 c3bd e33d 543e
00000050: 959f 253e 3328 e2be 4cea 8bbe aa00 9f3d
00000060: 2ac9 f63d dc08 04bf 6491 923d 1a0f ff3c
00000070: 790c d13e d324 9bbe 43e3 bebe 95d4 083f
00000080: 6dbd 403f a58e 1ebb 744c 26be f718 6d3f
00000090: 220f 883d 7a6f 71bf 4caa cfbd 6724 c33e
000000a0: 2022 b73d ac69 55bd 7edd 403e 31b4 55be
000000b0: 8f74 b63d 24a5 09bf 795f 393e 1cb4 013f
000000c0: 9329 41be c6d9 333f d340 9f3e abd4 a5bd
000000d0: 1990 a6bd 4087 a73e 2e13 d73e a602 43be
000000e0: 194c d0be b427 403f 9867 363f 962f abbe
000000f0: f35d 863b 54d9 093e 1c16 993e 5c90 4c3e
00000100: 082c 023f 5855 883d f98d 82be 8ec4 a9be
00000110: 5042 8abd e1bc ed3d 5458 86bd 70f4 aebd
00000120: 202c 6bbe e723 59be c762 d03d 4d6f ec3e
00000130: d471 abba 3056 5bbe 8f40 93be 07f9 f7bd
00000140: becf 673e 687d 0abf faa7 cdbe df06 0b3f
00000150: 5a1e 6f3e 8bbf f53e f194 473f 1d53 813d
00000160: d33a 643e bc07 e6be 8bdd d3be 0f58 92be
00000170: be92 153f e2ae a83e de95 d53e 4e5b 0dbf
00000180: 30d8 adbe 73f1 75bd 6759 0cbf 98f2 0cbf
00000190: 175f 343e 43f3 663f 092a 133e 7fc0 22bf
000001a0: dc00 4abe d26e 82bd 8680 d8be 05db 2e3e
000001b0: d297 e5be 98bd b6bc 9ea1 0c3e c13a a1be
000001c0: 0821 74bf 0f58 febe 5656 47bf bc67 b83d
000001d0: 9cfa 10bf a283 27bf 5864 89be acef 0e3f
000001e0: 9e64 58be 0010 13be 6760 98bf b60c 69be
000001f0: 0fab babe 3564 dcbd 3dc0 06ba 2fe6 5d3e
00000200: 0ede 0e3e 37f8 093e 2db2 583e bdab e33e
00000210: 7023 b4bd 9fe8 c2bd 2156 16bd 4f79 8c3d
00000220: 285c b3be f465 423e 09b9 58bd f3d2 bebe
00000230: c03e d3bd 4296 a53b a646 6c39 3ebb b6be
00000240: bff4 e63d 265d ec3d b19f 8a3e 94e7 1d3e
00000250: 33c5 9f3e 17e6 42bd cf07 063f 6ce7 d73d
00000260: 6775 3e3e f85b ea3d f756 e13e 6ee1 d5be
00000270: c526 583f 1f4a 30be d252 f33e 6456 963f
00000280: 1955 a33e f442 113e 08fe 813d c9ca 263f
00000290: fb7f 9dbe 4c30 5abe 2f53 863e a357 9cbe
000002a0: 3ab6 c03c e32f acbd b3e1 05bf 81eb ae3e
000002b0: fb4a b53e d16a c13e a7eb 0e3e eef0 843d
000002c0: 0e4f c03c 8b56 3f3e 87eb 22bf 9b27 203e
000002d0: c0fc 03bf ec6e d73e d1e9 4c3e 8ee8 43bf
000002e0: 0a6d f9be a829 013e 2d3f 7cbf ec70 40be
000002f0: e8e9 183d 3b62 983e e017 de3d d956 6c3e
00000300: ecad de3e e3d5 c33e 45b4 863e 7db7 153e
00000310: 98a8 423e 3e83 ddbd 4087 c43d 94af 46bd
00000320: ca39 10be 1cec e8be add2 f1be 0a9c 613d
00000330: 1196 e73d 1e24 aa3e 69df bc3d 6dca 443d
00000340: a37f 4ebe d65c 143f 7e63 2b3e 9b3a d93d
00000350: f994 213e ac34 753d 29a5 2c3d 5921 263e
00000360: 1424 3a3e 0af8 523e 48b2 3c3e c389 d53d
00000370: 2a21 b13e 3c38 7c3f 525a 3e3f 59b3 49bf
00000380: 382c ff3c 42fa 643e 153b b53e c47a ca3d
00000390: 2e2d fdbe 24bd be3d 818d 983e 4dd8 a03e
000003a0: b3fc 1ebe f5fa 6fbe 36d9 64be 193e 743e
000003b0: 23c7 a93e 20c8 e53d b169 883e 442b b33e
000003c0: 09ed 46be abe9 313e 9b90 ddbe 7484 67bd
000003d0: 853e 15bf d6c1 16bf 9d67 2fbf a4fe 353f
000003e0: 05cf 4bbf 045d 54bf 869f b0be ead8 133a
000003f0: a0e2 53bd 2e0a a0bd 874d 903c 01cc 95be

model.0.conv.0.kernels.1.weights f4 [8, 16, 4, 3]
0.20046824 0.036561936 -0.054878816 0.111730866 -0.3021426 -0.015581891 -0.052976027 -0.3118903
0.22325462 0.3075045 0.20901069 0.08088304 0.024317427 -0.281215 0.20428646 0.10807518
0.08669918 0.1612043 0.013455086 0.044170998 -0.0826098 -0.07643554 -0.11345748 -0.044979624
-0.071498446 -0.17306982 0.10205724 -0.0020002779 0.3821804 0.036672283 0.08368743 0.031636614
-0.105063155 0.03858377 -0.2392491 0.07984516 0.084154725 -0.067442946 -0.27836 0.10912748
-0.36666286 -0.02887194 0.09606992 -0.15760976 -0.038516525 0.0043305918 -0.13411833 0.03713835
0.12197877 0.09133308 0.2209681 -0.061600827 -0.30766204 -0.28983954 -0.09978172 -0.068861246
-0.14725834 0.010324332 0.24351126 0.28907678 0.22072624 0.26551312 -0.17692506 -0.040363736
-0.50713766 -0.07380535 -0.6944209 -0.080980346 0.030621724 -0.24342446 0.2840897 0.20202336
-0.07255407 0.22912428 0.16256885 0.41952363 -0.30766368 -0.124199905 -0.020929847 -0.21807158
-0.095419586 -0.071663305 0.12524252 -0.06929832 0.124779314 0.44678286 -0.31434387 -0.14657123
-0.6158407 0.19101445 -0.273198 -0.47050342 0.20553924 0.09456127 0.31300718 -0.29598993
0.41979074 0.24660262 0.018144932 0.09327769 -0.14711753 0.19786377 -0.11461374 -0.15774643
0.18383305 0.43357387 0.35827217 0.10527744 0.23874958 -0.15240315 -0.03251549 0.19553009
-0.6922163 -0.12689498 -0.8824319 -0.2587686 0.41137218 0.20714413 0.09413724 -0.11012767
-0.20828149 -0.34021822 0.033998713 0.11157597 0.36584428 -0.1474188 0.2452284 0.012237844
-0.030077992 -0.06886694 -0.057019252 0.22681071 0.06026893 0.4622817 0.4355432 -0.21693581
-0.15729487 0.001048678 -0.33649823 -0.2429114 0.08416843 0.13379177 0.24917303 0.25576243
-0.08832868 -0.15993331 -0.09256016 0.109739006 0.60423976 0.194011 0.33289674 0.8639047
-0.18017136 -0.17222102 0.009868888 -0.041076332 0.010459511 -0.2157774 0.28621507 0.28743434
0.29957488 -0.015066095 0.29079056 0.4041878 0.21332276 -0.07902626 0.06652595 0.36739945
-0.16254497 -0.3458336 0.038907092 0.09127985 0.34776855 0.063889116 0.06207996 0.40149367
-0.19194585 -0.11911476 -0.51532733 0.044156205 -0.0037067013 -0.21642515 0.1531076 0.18477833
-0.14314204 -0.10939502 0.09391931 0.21614447 -0.14496733 0.027663251 -0.24568535 -0.05173728
-0.022309095 0.10948999 0.09672103 0.05943292 -0.1684363 -0.043919396 -0.34561065 0.29815763
-0.21155621 0.1074392 0.008685538 0.17920518 0.001085686 -0.32139665 -0.30108303 0.1958498
-0.2605553 0.15318954 0.071861364 0.16735022 -0.0043480988 0.18496817 0.16489866 -0.09080003
-0.16605693 -0.1169008 0.060909685 0.0021777998 -0.3014091 0.25047964 0.015114128 0.05978517
-0.0064441687 0.16255121 0.25224954 0.049791064 0.14679642 0.0034729678 0.1514055 0.16018572
-0.012888336 0.25321832 0.0965 0.13249142 0.010313283 -0.017561007 -0.09679086 -0.021254444
0.16281573 0.2749126 0.20648451 -0.047022484 0.010063541 -0.33943796 -0.29988295 -0.55716765
-0.24263716 -0.13933286 -0.12805536 -0.022878587 0.102073066 0.22566445 0.214654 -0.01074495
00000000: 8c47 4d3e f8c1 153d 9cc8 60bd 27d3 e43d
00000010: 6fb2 9abe 304b 7fbc 64fd 58bd 16b0 9fbe
00000020: dc9c 643e 3b71 9d3e e606 563e 02a6 a53d
00000030: 5735 c73c 6afb 8fbe 7830 513e 8556 dd3d
00000040: 578f b13d bd12 253e b972 5c3c a6ec 343d
00000050: 542f a9bd 3d8a 9cbd 655c e8bd 8e3c 38bd
00000060: c76d 92bd 3739 31be 6303 d13d 1817 03bb
00000070: 26ad c33e ad35 163d 5164 ab3d 6595 013d
00000080: 5a2b d7bd 040a 1e3d b7fd 74be dc85 a33d
00000090: 5059 ac3d 871f 8abd 3485 8ebe 3a7e df3d
000000a0: 3cbb bbbe d984 ecbc 4ec0 c43d 7464 21be
000000b0: 81c3 1dbd a3e7 8d3b 5156 09be 621e 183d
000000c0: 01d0 f93d d60c bb3d 7645 623e 2651 7cbd
000000d0: e185 9dbe d965 94be 5c5a ccbd 2007 8dbd
000000e0: e4ca 16be 6327 293c 045b 793e df01 943e
000000f0: 0f06 623e 56f1 873e d82b 35be 7254 25bd
00000100: c6d3 01bf 4227 97bd 91c5 31bf 06d9 a5bd
00000110: 69da fa3c 4344 79be 3574 913e 36df 4e3e
00000120: 3a97 94bd 8e9f 6a3e 7378 263e cdcb d63e
00000130: 1886 9dbe 855c febd 1275 abbc 284e 5fbe
00000140: 586b c3bd 36c4 92bd 933f 003e 47ec 8dbd
00000150: 4c8c ff3d b9c0 e43e aef1 a0be c516 16be
00000160: bca7 1dbf 4b99 433e 9ce0 8bbe d3e5 f0be
00000170: e178 523e 57a9 c13d 7a42 a03e fe8b 97be
00000180: d0ee d63e 6685 7c3e aea4 943c 6008 bf3d
00000190: faa5 16be cd9c 4a3e 9cba eabd 4888 21be
000001a0: bb3e 3c3e 65fd dd3e 736f b73e b39b d73d
000001b0: c57a 743e 920f 1cbe f62e 05bd 0a39 483e
000001c0: 1635 31bf c2f0 01be 0fe7 61bf 517d 84be
000001d0: 609f d23e 971d 543e 06cb c03d 9e8a e1bd
000001e0: be47 55be 1531 aebe 3c42 0b3d f181 e43d
000001f0: f14f bb3e f4f4 16be 271d 7b3e 3d81 483c
00000200: 1f66 f6bc 1c0a 8dbd 058d 69bd 1141 683e
00000210: 8edc 763d 30b0 ec3e 85ff de3e 6c24 5ebe
00000220: e811 21be cb73 893a 7f49 acbe c4bd 78be
00000230: 7f60 ac3d b600 093e 3727 7f3e 4bf3 823e
00000240: abe5 b4bd 8fc5 23be 2e90 bdbd d8be e03d
00000250: 75af 1a3f d2aa 463e 7171 aa3e dc28 5d3f
00000260: d77e 38be b55a 30be 1eb1 213c a83f 28bd
00000270: 5e5e 2b3c c0f4 5cbe c88a 923e 982a 933e
00000280: e161 993e c8d7 76bc 80e2 943e b4f1 ce3e
00000290: 4871 5a3e 85d8 a1bd c23e 883d c81b bc3e
000002a0: 3072 26be 1a11 b1be 0b5d 1f3d eef0 ba3d
000002b0: b80e b23e 4cd8 823d 8e47 7e3d 9490 cd3e
000002c0: 748d 44be 70f2 f3bd 7eec 03bf 23dd 343d
000002d0: 21ec 72bb 8e9e 5dbe 3dc8 1c3e 8836 3d3e
000002e0: d493 12be 7f0a e0bd c458 c03d fa54 5d3e
000002f0: 5172 14be 0b9e e23c f194 7bbe 78ea 53bd
00000300: 90c1 b6bc 4a3c e03d ad15 c63d ef6f 733d
00000310: 917a 2cbe d3e4 33bd e1f3 b0be 1ea8 983e
00000320: 31a2 58be 1509 dc3d c94d 0e3c 9081 373e
00000330: 944d 8e3a 1a8e a4be 8e27 9abe da8c 483e
00000340: 8167 85be b8dd 1c3e 0d2c 933d db5d 2b3e
00000350: 7f7a 8ebb 4c68 3d3e 32db 283e 5ef5 b9bd
00000360: d40a 2abe b069 efbd 6f7c 793d 6bb9 0e3b
00000370: 4b52 9abe de3e 803e 3fa1 773c 4be1 743d
00000380: 9b29 d3bb d373 263e da26 813e b7f1 4b3d
00000390: cd51 163e bb9a 633b 0b0a 1b3e ba07 243e
000003a0: 9929 53bc d5a5 813e cba1 c53d d5ab 073e
000003b0: 0bf9 283c 1adc 8fbc 493a c6bd cd1d aebc
000003c0: 2bb9 263e 58c1 8c3e ad70 533e a69a 40bd
000003d0: 8de1 243c d0ca adbe 428a 99be 8aa2 0ebf
000003e0: e075 78be 46ad 0ebe f220 03be e06b bbbc
000003f0: af0b d13d 9514 673e 42ce 5b3e 960b 30bc

model.0.conv.0.kernels.2.weights f4 [8, 16, 4, 5]
-0.048721798 0.17810076 0.10267852 0.08066636 0.05910359 0.0019611549 0.062004708 -0.30612493
-0.1392524 -0.056379907 -0.1494037 -0.01810131 -0.33940017 0.21656702 -0.01897742 0.0438465
0.02083743 0.39375284 -0.036885735 0.13168198 -0.096568406 0.021811878 -0.0058641215 -0.1284932
-0.06764364 -0.10988859 -0.0051956153 0.095950305 0.090022564 0.16929437 0.02908601 0.10046737
0.17383112 -0.29013753 0.10289442 0.0045847036 -0.12141694 -0.30583024 -0.13184059 0.11453416
-0.07790837 -0.13353118 -0.4237282 0.081904136 0.0054735434 0.053367518 0.09920208 0.14877339
-0.13846302 0.076148845 0.054830894 0.21591724 0.4204571 -0.14920619 0.08250329 0.057978943
-0.088807784 -0.20897125 -0.24132323 -0.18634382 -0.16053231 0.0084019 -0.09438337 -0.1426627
-0.0713526 0.07294307 0.087322906 -0.13254611 0.16516872 -0.09679208 -0.07120863 0.059796717
0.09793596 -0.045853123 0.091023214 0.1249561 -0.045340538 0.046386283 0.15131369 -0.105421975
0.075421795 -0.014137017 0.050625157 -0.01604134 -0.18282942 0.032703377 -0.27045083 -0.40998822
-0.0651291 0.2578769 0.016898166 -0.122586 -0.10911224 0.118810095 -0.1820276 0.01840772
-0.055881225 0.20567624 -0.14640267 0.0417102 -0.048991695 0.1816463 0.10603254 0.15978083
0.08983988 0.16414566 0.013849333 -0.2983618 -0.005340408 -0.028822677 -0.1391822 -0.3985896
-0.39924622 0.041752815 0.0011937475 -0.06312633 0.24272883 0.36662287 -0.101341516 0.124436125
-0.29894662 0.19508404 -0.011748387 0.023782484 0.012926156 -0.06525171 -0.14723809 -0.26832885
0.16898113 0.1547318 -0.2116943 -0.12400983 -0.09742862 0.010096044 -0.092532516 0.051806305
0.17733622 0.3478714 -0.033472177 -0.09228475 -0.09032029 -0.067657664 0.36628252 -0.11299617
-0.1366133 0.31272876 0.08842328 -0.49621075 0.1698134 0.10466275 -0.21547082 -0.24653788
-0.6546658 -0.007271767 0.059311993 -0.1089896 -0.16965456 0.1329177 0.005487351 0.12076637
0.15752737 0.47549874 0.36344498 0.24717765 0.2231647 0.08988524 -0.026616864 -0.080818415
0.15865612 0.2124188 0.050798446 -0.20961997 0.0737773 0.35867333 0.0590965 0.50392085
0.7632531 0.5830429 0.06507357 0.40245897 0.008096826 0.0026205587 0.24896915 -0.15282033
0.165295 0.08304875 -0.074815415 -0.757964 -0.24384594 0.0360415 -0.26129454 -0.46613225
-0.6287755 0.13929975 0.120679826 0.115190156 0.12940261 -0.2591191 0.14453444 -0.053590342
0.16879188 0.036975518 0.06306543 -0.17400534 -0.110169366 0.1038589 -0.20894974 0.21220179
0.05485688 -0.05674851 0.06528372 0.1543474 0.3893248 -0.19080152 -0.019274954 -0.16471243
-0.04833409 -0.028685909 0.1571236 0.090955935 0.17784841 0.31313515 0.4181605 0.08621259
0.20179681 0.35893998 0.053707287 -0.029933184 0.1073122 0.15509911 -0.09858002 -0.09682997
0.10624164 0.021217821 0.046131413 0.29488623 0.44286096 0.28216448 0.010012376 0.17054479
-0.13900739 -0.044316977 -0.14141357 -0.107394226 -0.03738244 -0.23998894 -0.16073112 0.5048192
0.2436193 0.014434026 0.13702674 0.33516115 0.4198028 -0.13179956 -0.021190977 -0.17400107
00000000: 8290 47bd 0c60 363e 1e49 d23d 6834 a53d
00000010: 9b16 723d b886 003b a6f8 7d3d 68bc 9cbe
00000020: 2e98 0ebe 9eee 66bd 49fd 18be 3349 94bc
00000030: dcc5 adbe bfc3 5d3e 8976 9bbc 6398 333d
00000040: 42b3 aa3c f999 c93e 7f15 17bd a4d7 063e
00000050: a8c5 c5bd d3ae b23c d127 c0bb b993 03be
00000060: c088 8abd 450d e1bd fb3f aabb 9881 c43d
00000070: c05d b83d 815b 2d3e c945 ee3c d6c1 cd3d
00000080: c900 323e e88c 94be 4fba d23d 483b 963b
00000090: 72a9 f8bd c895 9cbe 3801 07be e390 ea3d
000000a0: 6c8e 9fbd 66bc 08be e7f2 d8be 5bbd a73d
000000b0: 695b b33b e697 5a3d 762a cb3d 0d58 183e
000000c0: 40c9 0dbe edf3 9b3d 5c96 603d 6919 5d3e
000000d0: 2746 d73e 82c9 18be 7cf7 a83d 547b 6d3d
000000e0: dbe0 b5bd 8ffc 55be 701d 77be ead0 3ebe
000000f0: 9562 24be 1fa8 093c 114c c1bd 2c16 12be
00000100: 5021 92bd 2d63 953d 5ad6 b23d 2bba 07be
00000110: fd21 293e ed3a c6bd d5d5 91bd 67ed 743d
00000120: a692 c83d 7cd0 3bbd 616a ba3d fce8 ff3d
00000130: 00b7 39bd 8bff 3d3d faf1 1a3e 7ae7 d7bd
00000140: be76 9a3d f29e 67bc 535c 4f3d 2169 83bc
00000150: a337 3bbe faf3 053d 8878 8abe fae9 d1be
00000160: 6862 85bd 7108 843e 066e 8a3c 5e0e fbbd
00000170: 3d76 dfbd b552 f33d 7165 3abe c9cb 963c
00000180: b6e3 64bd cb9c 523e 95ea 15be 51d8 2a3d
00000190: 84ab 48bd 7d01 3a3e 9727 d93d 969d 233e
000001a0: f9fd b73d cd15 283e 50e8 623c e1c2 98be
000001b0: 97fe aebb 891d ecbc c785 0ebe f013 ccbe
000001c0: 006a ccbe 0005 2b3d 8577 9c3a 6148 81bd
000001d0: e88d 783e feb5 bb3e 248c cfbd 5ed8 fe3d
000001e0: 880f 99be 1cc4 473e 4e7c 40bc 7cd3 c23c
000001f0: 3ac8 533c b0a2 85bd 95c5 16be 6662 89be
00000200: 6409 2d3e 0372 1e3e 64c6 58be def8 fdbd
00000210: a888 c7bd e169 253c b081 bdbd d932 543d
00000220: a097 353e 331c b23e 1f1a 09bd c9ff bcbd
00000230: d8f9 b8bd 1a90 8abd 6289 bb3e 896a e7bd
00000240: 5be4 0bbe fc1d a03e 4417 b53d 560f febe
00000250: 90e3 2d3e 6d59 d63d 62a4 5cbe 6d74 7cbe
00000260: 2e98 27bf 0148 eebb 22f1 723d f035 dfbd
00000270: edb9 2dbe 941b 083e 3dcf b33b 5c54 f73d
00000280: db4e 213e 9274 f33e 7615 ba3e 231c 7d3e
00000290: 4a85 643e c115 b83d 9c0b dabc 2084 a5bd
000002a0: c076 223e 5084 593e 0812 503d 9ea6 56be
000002b0: 8e18 973d 08a4 b73e 2c0f 723d f500 013f
000002c0: 8e64 433f 4d42 153f 4b45 853d 1a0f ce3e
000002d0: 8da8 043c aebd 2b3b c5f1 7e3e ef7c 1cbe
000002e0: 1843 293e 7715 aa3d d338 99bd ee09 42bf
000002f0: c0b2 79be 40a0 133d 66c8 85be e3a8 eebe
00000300: 6ef7 20bf 98a4 0e3e fc26 f73d d1e8 eb3d
00000310: 1e82 043e 42ab 84be d600 143e 8c81 5bbd
00000320: c7d7 2c3e a473 173d 7328 813d 752e 32be
00000330: 7aa0 e1bd fab3 d43d ecf6 55be 6d4b 593e
00000340: 9cb1 603d 2071 68bd 79b3 853d 3f0d 1e3e
00000350: 9555 c73e 7961 43be 82e6 9dbc 60aa 28be
00000360: f7f9 45bd b6fe eabc 02e5 203e 1b47 ba3d
00000370: e51d 363e 4053 a03e 2219 d63e 3a90 b03d
00000380: d3a3 4e3e fbc6 b73e 2cfc 5b3d 7036 f5bc
00000390: 80c6 db3d 4dd2 1e3e 52e4 c9bd cb4e c6bd
000003a0: 3895 d93d ffd0 ad3c 4bf4 3c3d 54fb 963e
000003b0: acbe e23e dd77 903e f30a 243c 4ba3 2e3e
000003c0: f457 0ebe b885 35bd b8ce 10be 81f1 dbbd
000003d0: 541e 19bd a9bf 75be b396 24be d53b 013f
000003e0: 5677 793e b17c 6c3c bd50 0c3e 3e9a ab3e
000003f0: 65f0 d63e 77f6 06be b398 adbc 562d 32be

model.0.conv.0.kernels.3.weights f4 [8, 16, 4, 7]
0.048248205 -0.12926906 0.22136302 0.16674618 0.118302755 0.15241793 -0.01737211 0.017213633
0.009261819 0.051797435 -0.48284423 -0.025832878 -0.036398496 0.12305844 -0.05952243 -0.11507859
-0.30263895 -0.19645055 -0.09334284 0.012322509 0.14507422 0.04134738 0.11139808 0.09133145
0.16711448 -0.0019574827 0.048620574 0.0023790556 -0.0025926435 0.10577766 -0.21921706 -0.04937792
-0.05528581 -0.021858528 -0.017173886 -0.25858137 -0.03029701 0.033340093 0.3106592 -0.15638974
-0.03133425 0.05985544 0.12325685 -0.055089828 -0.04124723 0.008446811 -0.099204175 -0.10978136
-0.088016674 -0.053226557 -0.016471552 0.016942864 -0.0633106 -0.09105517 -0.15915647 -0.18310434
0.058046654 -0.14456527 -0.19075805 -0.2578338 -0.022766981 -0.07848876 0.094892055 -0.030685315
-0.19786994 -0.045088544 0.42377758 0.19456334 -0.04827976 0.051287934 -0.04735725 0.18555255
0.14239916 0.252289 0.05551795 0.10207776 -0.12986752 0.051322635 -0.240882 -0.03378513
-0.37197456 -0.07943751 -0.0910332 -0.04580569 -0.117638044 -0.08010241 0.09231227 -0.08826825
-0.096212156 -0.017294267 -0.043129325 0.016144896 -0.07818272 0.045145098 -0.14845029 0.04927982
0.05035068 0.0021168245 0.12762304 0.03723575 0.03135843 -0.12392914 -0.13019319 0.081096895
-0.21685757 0.014909191 0.11706603 0.022140173 0.052549258 -0.163992 0.12970018 -0.020427749
-0.024862422 -0.047530275 0.035997488 0.09928692 0.008000587 0.030919023 -0.21550675 0.04256038
-0.004511931 -0.086112864 -0.33413562 0.046625197 -0.052133918 0.053134523 0.10388637 -0.006831959
-0.33041257 -0.11827941 0.019756226 -0.04583271 0.16932972 -0.07145662 0.07407752 0.1406375
0.219179 0.09403295 0.22142215 -0.041397642 -0.04302791 0.039727878 0.050235722 0.079323865
0.034666136 -0.102322415 -0.0065117273 0.1742159 0.055169262 -0.004660216 -0.2918466 0.06302119
0.068500414 -0.0054058097 0.017771814 -0.044785067 -0.04832489 -0.23136768 0.22071375 -0.013545537
-0.0044969236 -0.092318654 0.009248317 0.1316623 0.34284788 -0.11123836 0.09473014 0.008758615
-0.14076369 0.12186194 0.10323025 0.29515424 0.14939094 0.014476004 -0.19450083 0.043410167
0.15998465 -0.020219563 -0.11871245 -0.0796008 -0.14452961 -0.16807795 -0.12351511 -0.1329785
-0.2832072 -0.03033908 0.12068117 -0.049240697 -0.07626579 0.15708224 0.09251342 -0.019731084
0.1953987 0.08032248 -0.14934167 -0.030295035 0.027331708 0.0131505355 0.17845474 0.39429
-0.017146934 -0.13444266 -0.23081408 0.15414578 0.09296647 -0.082950905 -0.57934517 0.30464047
0.05775293 0.1804863 -0.038813833 -0.1417824 -0.18536386 -0.56517625 -0.13187233 -0.06322383
0.16406985 -0.09343211 0.0005043601 0.049820222 0.21158104 -0.1310944 0.009042327 -0.13085407
0.28435507 0.2892109 0.2028686 0.3966107 0.05956677 0.20707025 -0.030117996 0.1026337
0.23314011 -0.047775313 -0.14202312 -0.01909572 -0.08104184 0.02209287 -0.20794587 -0.23628595
-0.16783711 -0.045940764 -0.040043972 0.078345254 0.1493728 0.3206322 0.39351764 0.37839982
0.2619567 0.1948544 0.26389316 0.19344571 -0.0010816117 0.00700587 0.13103567 0.09521937
00000000: e99f 453d 1c5f 04be fdac 623e 83bf 2a3e
00000010: b748 f23d 7213 1c3e f54f 8ebc 9b03 8d3c
00000020: e2be 173c 8c29 543d 5c37 f7be 799f d3bc
00000030: 9716 15bd 1006 fc3d cbcd 73bd 53ae ebbd
00000040: 7ef3 9abe 552a 49be 882a bfbd 59e4 493c
00000050: 568e 143e df5b 293d ad24 e43d fc0b bb3d
00000060: 0f20 2b3e 1c49 00bb 5e26 473d eee9 1b3b
00000070: 57e9 29bb f5a1 d83d 707a 60be 8040 4abd
00000080: 6073 62bd a810 b3bc 40b0 8cbc c764 84be
00000090: 6f31 f8bc 9f8f 083d b90e 9f3e a224 20be
000000a0: 5858 00bd fa2a 753d 166e fc3d dfa5 61bd
000000b0: dbf2 28bd 7e64 0a3c 8f2b cbbd 0dd5 e0bd
000000c0: 1642 b4bd 1704 5abd 59ef 86bc c3cb 8a3c
000000d0: fda8 81bd 227b babd eaf9 22be b47f 3bbe
000000e0: 54c2 6d3d eb08 14be 1456 43be cb02 84be
000000f0: d281 babc b7be a0bd c456 c23d c55f fbbc
00000100: 6b9e 4abe c4ae 38bd 60f9 d83e 9d3b 473e
00000110: ffc0 45bd 4c13 523d adf9 41bd 7d01 3e3e
00000120: 16d1 113e 062c 813e ca66 633d 250e d13d
00000130: fefb 04be af37 523d c5a9 76be 4762 0abd
00000140: 7373 bebe 22b0 a2bd 9d6f babd bf9e 3bbd
00000150: 37ec f0bd bb0c a4bd 370e bd3d fcc5 b4bd
00000160: e10a c5bd b5ac 8dbc 60a8 30bd 4d42 843c
00000170: 431e a0bd 11ea 383d 5a03 18be a3d9 493d
00000180: 843c 4e3d 6cba 0a3b 9daf 023e 8484 183d
00000190: b271 003d 90ce fdbd 5d51 05be 2116 a63d
000001a0: e90f 5ebe ae45 743c 51c0 ef3d 4f5f b53c
000001b0: e43d 573d 85ed 27be 20d0 043e 1858 a7bc
000001c0: 47ac cbbc 1baf 42bd 1a72 133d f156 cb3d
000001d0: e514 033c e449 fd3c cdad 5cbe cb53 2e3d
000001e0: d2d8 93bb f15b b0bd d313 abbe 10fa 3e3d
000001f0: 608a 55bd 96a3 593d 61c2 d43d a0de dfbb
00000200: d62b a9be 7a3c f2bd cfd7 a13c 14bb 3bbd
00000210: c564 2d3e d957 92bd f4b5 973d 4703 103e
00000220: 7670 603e 5994 c03d 7dbc 623e 9390 29bd
00000230: 093e 30bd b3b9 223d f9c3 4d3d 8d74 a23d
00000240: 14fe 0d3d 6a8e d1bd 5460 d5bb a765 323e
00000250: 2af9 613d bab4 98bb eb6c 95be 4111 813d
00000260: f249 8c3d 3823 b1bb 3296 913c 8c70 37bd
00000270: 52f0 45bd a6eb 6cbe c902 623e 1aee 5dbc
00000280: ee5a 93bb 9011 bdbd 4186 173c 7bd2 063e
00000290: c289 af3e f0d0 e3bd e001 c23d 4b80 0f3c
000002a0: 5b24 10be c192 f93d 626a d33d 751e 973e
000002b0: f0f9 183e c32c 6d3c 3a2b 47be dcce 313d
000002c0: 04d3 233e 7fa3 a5bc 831f f3bd bf05 a3bd
000002d0: 92ff 13be a01c 2cbe 7df5 fcbd 842b 08be
000002e0: 8900 91be aa89 f8bc b027 f73d 9db0 49bd
000002f0: 3d31 9cbd 2bda 203e ad77 bd3d 15a3 a1bc
00000300: 9916 483e 1d80 a43d 06ed 18be 4b2d f8bc
00000310: bfe6 df3c 5875 573c d7bc 363e 61e0 c93e
00000320: ba77 8cbc 56ab 09be 875a 6cbe 64d8 1d3e
00000330: 3465 be3d 2ae2 a9bd f74f 14bf d6f9 9b3e
00000340: 568e 6c3d 67d1 383e 41fb 1ebd 682f 11be
00000350: 06d0 3dbe 64af 10bf 8a09 07be 7f7b 81bd
00000360: ed01 283e 5659 bfbd 0937 043a 4a10 4c3d
00000370: b3a8 583e 9c3d 06be 4526 143c 9cfe 05be
00000380: fd96 913e 7313 943e c9bc 4f3e 8f10 cb3e
00000390: 49fc 733d 390a 543e 04ba f6bc 9e31 d23d
000003a0: 48bc 6e3e 0cb0 43bd 826e 11be a16e 9cbc
000003b0: 44f9 a5bd 1bfc b43c c3ef 54be f2f4 71be
000003c0: 7edd 2bbe 622c 3cbd 2605 24bd 7a73 a03d
000003d0: 2ff5 183e e729 a43e 257b c93e 9fbd c13e
000003e0: 301f 863e e987 473e 011d 873e a216 463e
000003f0: dec4 8dba 7f91 e53b 372e 063e 6002 c33d

model.0.conv.0.kernels.4.weights f4 [8, 16, 4, 9]
-0.069768935 -0.040769946 0.03315424 -0.036887422 0.20015197 -0.09748139 0.032840755 -0.08885805
0.018697169 -0.034349345 0.07870975 0.038408414 -0.01888372 -0.2984898 0.0132138 0.05452668
-0.105078444 -0.024607806 -0.02792076 -0.043730974 -0.038604807 -0.10960066 -0.26703107 0.028374152
0.09031835 0.038586397 -0.04849196 0.11661074 0.059788126 -0.009992374 0.06583889 0.09721482
0.0066589923 -0.011787299 0.073241666 -0.15240684 -0.06730353 0.1678275 -0.14211641 0.04098771
-0.144036 -0.008215666 -0.054236 0.14194289 0.093871206 0.0102954395 0.090051845 -0.063009106
-0.0005661878 0.27405632 0.15334573 -0.08316316 -0.07536236 0.10064849 0.016785095 -0.03466511
-0.03008798 0.33406156 0.26420814 -0.14646769 0.15770547 -0.071000546 0.10548467 -0.17666796
-0.048377577 -0.07999012 -0.07018142 0.0019106817 -0.019844644 -0.016157659 0.09407141 0.035789143
0.15032524 -0.00082930527 -0.005067549 0.01849883 -0.12871008 0.18100832 -0.123616844 0.01191585
-0.07097438 0.0158487 -0.072334 -0.18087445 -0.07285732 0.45375183 0.094701804 0.15264061
0.07123031 0.059499875 -0.0069321906 0.15487474 0.08358511 0.17549846 0.22740959 -0.023843922
0.06659884 -0.26241264 0.045919888 -0.13643244 0.010294755 0.050646644 0.048827466 -0.21619081
-0.19744694 0.045373723 -0.0064270888 0.0100653935 -0.08691998 -0.14002752 -0.14820455 -0.0059273425
-0.11668575 -0.23721224 -0.06333865 -0.0100117605 0.11468657 -0.2523138 -0.06487219 0.007621485
0.0699821 -0.13983354 0.057752162 -0.033436023 0.07534314 -0.12638944 -0.21954724 0.070867695
-0.16315202 -0.0034864435 -0.11932882 0.11976477 -0.17184553 -0.038155958 0.18188594 0.03525312
0.060465574 0.06096738 -0.047798544 0.15884215 -0.086056426 -0.21826175 0.112124614 0.06471528
0.08108252 -0.017535994 -0.05059231 -0.097907074 0.15076806 -0.06700537 -0.029822623 -0.06926011
0.0854569 0.07540501 0.16019993 -0.10437617 0.08974789 -0.16971141 -0.15169305 0.040181857
0.08278886 -0.014248611 -0.019390361 0.13493182 0.012974949 -0.19938429 -0.12498289 -0.12724692
0.10002566 -0.09971447 0.089981645 0.009492272 -0.0077609085 0.025852574 0.003946172 -0.085111216
0.11497391 0.010132613 0.02103378 -0.0038153774 -0.16643614 0.057111982 -0.07058871 0.004545683
0.19544357 -0.02426641 0.04261427 -0.048671883 0.15283568 -0.04806364 -0.011221107 0.14740786
0.09570662 -0.2125431 0.05242315 0.005576648 0.013603366 0.0473771 -0.23327379 -0.082051136
-0.15092492 -0.20316207 -0.3078831 0.20948377 0.13071239 0.18371038 -0.21916816 -0.1732745
0.09974547 0.066249676 -0.01036767 0.20075749 0.017229345 0.0071628415 -0.073149875 0.019269636
-0.0043604765 -0.018130777 -0.065833464 0.094100356 -0.10326447 0.055486653 0.0064702784 -0.13047595
-0.15481955 -0.11055298 -0.023028282 0.022545565 -0.118997976 -0.20845823 -0.11263256 0.028001275
-0.00055246387 0.050976217 -0.14112705 0.012669189 -0.1679873 -0.0895428 -0.086691745 -0.14513771
-0.060000215 -0.05768707 -0.09639741 0.10762795 0.28364936 0.0780756 0.25601324 0.21136314
0.000108598964 -0.0009827637 -0.118462615 -0.049192183 -0.12852421 -0.18835436 -0.020651197 0.2551943
00000000: 04e3 8ebd 63fe 26bd becc 073d 4417 17bd
00000010: a3f4 4c3e 53a4 c7bd 0784 063d 36fb b5bd
00000020: ce2a 993c e6b1 0cbd 9432 a13d 2452 1d3d
00000030: 08b2 9abc a8d3 98be b27e 583c 5e57 5f3d
00000040: 5e33 d7bd 4f96 c9bc 14ba e4bc 401f 33bd
00000050: 1320 1ebd 5076 e0bd 4cb8 88be e970 e83c
00000060: d4f8 b83d c50c 1e3d 819f 46bd 9dd1 ee3d
00000070: 65e4 743d 0eb7 23bc 8ad6 863d 9018 c73d
00000080: ad33 da3b 841f 41bc baff 953d 8a10 1cbe
00000090: 6fd6 89bd f9da 2b3e f786 11be bbe2 273d
000000a0: 2c7e 13be 009b 06bc 9126 5ebd 7a59 113e
000000b0: 8c3f c03d 34ae 283c 1a6d b83d eb0a 81bd
000000c0: 386c 14ba 1c51 8c3e aa06 1d3e 7251 aabd
000000d0: 9557 9abd cc20 ce3d e580 893c 01fd 0dbd
000000e0: 117b f6bc 1e0a ab3e 4a46 873e a0fb 15be
000000f0: 8b7d 213e bc68 91bd 5908 d83d 72e8 34be
00000100: 9127 46bd dcd1 a3bd 47bb 8fbd d76f fa3a
00000110: 3c91 a2bc 115d 84bc 83a8 c03d a397 123d
00000120: dcee 193e bc65 59ba af0d a6bb dc8a 973c
00000130: 93cc 03be 3f5a 393e d42a fdbd b33a 433c
00000140: 045b 91bd 22d5 813c d923 94bd 2737 39be
00000150: 3836 95bd 2952 e83e 05f3 c13d d24d 1c3e
00000160: 32e1 913d 24b6 733d 6e27 e3bb 7c97 1e3e
00000170: ac2e ab3d deb5 333e 0fde 683e 5454 c3bc
00000180: f964 883d f35a 86be 7e16 3c3d f2b4 0bbe
00000190: 55ab 283c db72 4f3d 4fff 473d 2061 5dbe
000001a0: 882f 4abe ccd9 393d 549a d2bb 52e9 243c
000001b0: 1a03 b2bd 6063 0fbe efc2 17be 273a c2bb
000001c0: f0f8 eebd c4e7 72be b2b7 81bd 5e08 24bc
000001d0: cbe0 ea3d 462f 81be b6db 84bd a6bd f93b
000001e0: c652 8f3d 8630 0fbe 888d 6c3d 36f4 08bd
000001f0: 814d 9a3d 3c6c 01be fed0 60be 1523 913d
00000200: 5311 27be d17c 64bb ab62 f4bd 3b47 f53d
00000210: 46f8 2fbe 6c49 1cbd 4f40 3a3e 9365 103d
00000220: c0aa 773d eeb8 793d 68c8 43bd 84a7 223e
00000230: 5a3e b0bd 0280 5fbe 97a1 e53d 7289 843d
00000240: 980e a63d a5a7 8fbc e239 4fbd 8183 c8bd
00000250: f162 1a3e 1d3a 89bd 934e f4bc 3fd8 8dbd
00000260: 0704 af3d f16d 9a3d 730b 243e 2cc3 d5bd
00000270: becd b73d d4c8 2dbe 6c55 1bbe bb95 243d
00000280: 358d a93d 0273 69bc 89d8 9ebc 912b 0a3e
00000290: e194 543c 652b 4cbe 08f7 ffbd 044d 02be
000002a0: 41da cc3d 1a37 ccbd 4c48 b83d 7985 1b3c
000002b0: 384f febb c7c8 d33c e44e 813b ca4e aebd
000002c0: 7177 eb3d 4203 263c 094f ac3c 690b 7abb
000002d0: 3c6e 2abe 41ee 693d d090 90bd f4f3 943b
000002e0: 5c22 483e 5aca c6bc 4d8c 2e3d 2b5c 47bd
000002f0: f580 1c3e 61de 44bd bcd8 37bc 16f2 163e
00000300: d501 c43d e6a4 59be a8b9 563d 50bc b63b
00000310: a7e0 5e3c 7d0e 423d 53df 6ebe 6d0a a8bd
00000320: 108c 1abe b809 50be dba2 9dbe ea82 563e
00000330: 78d9 053e 931e 3c3e 9e6d 60be df6e 31be
00000340: 5a47 cc3d e9ad 873d 29dd 29bc 5f93 4d3e
00000350: 8e24 8d3c 45b6 ea3b 9acf 95bd 5bdb 9d3c
00000360: 54e2 8ebb ff86 94bc b2d3 86bd b0b7 c03d
00000370: 537c d3bd f945 633d a104 d43b 7d9b 05be
00000380: 0489 1ebe 9a69 e2bd cfa5 bcbc 7ab1 b83c
00000390: 36b5 f3bd 1376 55be e6ab e6bd ee62 e53c
000003a0: 39d3 10ba 70cc 503d 9c83 10be 6e92 4f3c
000003b0: dd04 2cbe 3762 b7bd 718b b1bd fb9e 14be
000003c0: c9c2 75bd 4749 6cbd 016c c5bd 0b6c dc3d
000003d0: 7d3a 913e 1ae6 9f3d 2b14 833e 946f 583e
000003e0: a0bf e338 14d0 80ba 879c f2bd be7d 49bd
000003f0: da9b 03be f7df 40be b32c a9bc d4a8 823e

model.0.conv.0.kernels.5.weights f4 [8, 16, 4, 11]
-0.0050396333 -0.04917536 0.009212528 -0.056619633 0.026181709 0.102171615 -0.02940685 0.0011671544
-0.1666345 0.02240101 -0.12593599 -0.09425337 0.016231723 0.04908879 0.010046847 0.06575436
-0.20751491 0.08112726 0.21810904 -0.022589972 0.07620486 0.036162414 -0.091825746 -0.029868849
-0.0495929 0.07301732 -0.2255636 -0.26035094 0.103717625 0.02120543 -0.040502273 0.012279498
-0.075292334 -0.08781187 -0.021767965 0.10178243 -0.07672794 0.006177425 0.23880593 -0.018756261
0.09828102 0.060741033 -0.087456204 -0.0114823375 0.19164494 0.09547628 0.08439258 0.05913679
-0.052531205 0.022156008 -0.02970984 -0.06275218 0.008214144 -0.026223987 0.10587021 -0.031728145
-0.09518345 0.001669445 -0.0059177973 0.053415563 0.21071151 0.011214436 0.058468778 0.082120515
-0.16149776 -0.14716852 0.03666358 -0.0032314467 0.1347921 0.21724977 0.26043487 0.1973577
-0.12628286 0.053129215 -0.08091886 -0.04142499 0.06852887 0.03259593 0.039710846 -0.14256188
0.04462107 -0.020649163 -0.07428986 0.03918622 0.01677402 -0.018294645 -0.09225252 -0.15985201
0.16673571 -0.05650934 0.042667024 0.0548978 0.029129436 -0.19061542 -0.0757871 0.06299401
0.22321177 0.016868817 0.042197343 0.010947673 -0.05893381 -0.16641444 -0.23515058 0.14061905
0.3934053 -0.008924944 0.006210012 0.018608117 0.033750016 -0.01831965 0.13101913 -0.08402929
0.057710253 0.089238614 0.19776727 0.2153684 -0.04447226 0.096691005 -0.17052776 0.023575606
-0.007878503 -0.03406131 -0.02191066 0.008406926 -0.01608385 -0.04962896 -0.25253054 -0.13984147
-0.050914057 0.024022419 0.010628618 -0.045093197 0.0834384 -0.15116319 -0.13059898 0.01924948
-0.05041878 -0.13891968 -0.17998737 0.09028009 -0.0046669985 0.044982027 -0.05165005 -0.12891552
-0.14681439 -0.060947306 0.07755795 0.02682788 -0.14290985 0.04261685 -0.13519724 0.05459705
0.1907794 -0.10985713 0.031535007 -0.06563133 -0.011939453 -0.09945822 -0.1133553 -0.16819231
-0.10803786 -0.011204551 -0.16635713 0.06173568 0.12969303 -0.13088495 0.078648925 0.08297571
0.0750702 0.017372666 0.1473898 -0.11075756 -0.08090949 0.03311455 0.18053773 0.091990024
-0.015173905 0.116767615 -0.12823176 -0.20546359 0.08397326 0.29756814 0.06575547 -0.03420991
-0.14009772 -0.08652228 -0.04651866 -0.012830541 0.11527519 0.035803635 0.008033926 -0.101620056
-0.20539732 -0.1264804 0.19871494 0.09822353 0.123010896 0.07894758 0.078538895 0.0057005477
-0.047150716 0.0137892645 -0.28717992 -0.14258839 0.05520631 0.029175097 0.018602919 -0.05954069
0.13189232 -0.002122927 -0.017205182 0.1489307 0.13130116 0.28415075 0.08158579 -0.10718252
0.07930823 0.054102372 -0.14509848 -0.054919265 -0.07776974 -0.110050716 0.030786268 -0.09564452
0.10412445 0.087948054 0.018809166 -0.06485154 -0.040642332 -0.024665225 0.05189494 0.093207635
0.0194483 0.08417657 0.06438752 0.08180131 -0.31298852 0.096796215 0.1437467 0.045505866
0.016042933 0.070204414 -0.20762491 -0.08020366 0.0012350186 -0.18195023 -0.24186623 -0.39535886
0.045303255 -0.027588744 0.0060038115 -0.07168917 0.108955055 0.041768517 0.076387614 0.16133115
00000000: 8223 a5bb 1a6c 49bd 25f0 163c fde9 67bd
00000010: 067b d63c 5a3f d13d a2e6 f0bc 34fb 983a
00000020: 3ca2 2abe 5382 b73c 5df5 00be e907 c1bd
00000030: 64f8 843c 5411 493d 889b 243c 39aa 863d
00000040: ca7e 54be 0d26 a63d fa57 5f3e 9b0e b9bc
00000050: 4b11 9c3d 0a1f 143d 230f bcbd 84af f4bc
00000060: ed21 4bbd 1b8a 953d 25fa 66be b84c 85be
00000070: e869 d43d 03b7 ad3c b6e5 25bd f32f 493c
00000080: de32 9abd b6d6 b3bd bb52 b2bc 4f73 d03d
00000090: 8a23 9dbd ff6b ca3b 8b89 743e bba6 99bc
000000a0: 8f47 c93d 97cb 783d 3d1c b3bd 6a20 3cbc
000000b0: 923e 443e 1189 c33d 04d6 ac3d 6b39 723d
000000c0: f62a 57bd 8480 b53c 0d62 f3bc 3784 80bd
000000d0: 9e94 063c b0d3 d6bc 7bd2 d83d 5ff5 01bd
000000e0: 8aef c2bd 47d1 da3a 15ea c1bb 47ca 5a3d
000000f0: c2c4 573e c1bc 373c f57c 6f3d cd2e a83d
00000100: ab5f 25be 58b3 16be 8d2c 163d aec6 53bb
00000110: f106 0a3e b976 5e3e b857 853e 2318 4a3e
00000120: 4b50 01be 059e 593d cab8 a5bd 40ad 29bd
00000130: dd58 8c3d 4f83 053d d7a7 223d befb 11be
00000140: 95c4 363d 6f28 a9bc 4825 98bd bb81 203d
00000150: ab69 893c a7de 95bc e4ee bcbd 3fb0 23be
00000160: c4bc 2a3e 5676 67bd 9ec3 2e3d 84dc 603d
00000170: dba0 ee3c b030 43be 4436 9bbd 0103 813d
00000180: a091 643e 7930 8a3c 1fd7 2c3d de5d 333c
00000190: 9464 71bd 8c68 2abe 50cb 70be 71fe 0f3e
000001a0: 6b6c c93e ee39 12bc 5b7d cb3b 0d70 983c
000001b0: 753d 0a3d 1713 96bc e129 063e 8c17 acbd
000001c0: 9661 6c3d bcc2 b63d 8183 4a3e 8989 5c3e
000001d0: 8b28 36bd ef05 c63d d49e 2ebe a121 c13c
000001e0: d614 01bc df83 0bbd fc7d b3bc 34bd 093c
000001f0: 47c2 83bc bd47 4bbd af4b 81be 9a32 0fbe
00000200: 428b 50bd aaca c43c a823 2e3c a5b3 38bd
00000210: c0e1 aa3d 86ca 1abe bdbb 05be 16b1 9d3c
00000220: ec83 4ebd f640 0ebe 9c4e 38be c5e4 b83d
00000230: 9fed 98bb 133f 383d 018f 53bd 6e02 04be
00000240: 8356 16be e2a3 79bd b4d6 9e3d 24c6 db3c
00000250: f656 12be 028f 2e3d 2571 0abe 28a1 5f3d
00000260: ad5b 433e c6fc e0bd da2a 013d b869 86bd
00000270: b29d 43bc c0b0 cbbd d326 e8bd 9b3a 2cbe
00000280: f442 ddbd 4b93 37bc 8659 2abe 8dde 7c3d
00000290: 40ce 043e b406 06be b012 a13d 2bef a93d
000002a0: 68be 993d 1f51 8e3c 5aed 163e dcd4 e2bd
000002b0: e0b3 a5bd 1fa3 073d e2de 383e 4465 bc3d
000002c0: f89b 78bc dc23 ef3d 304f 03be 0c65 52be
000002d0: 2cfa ab3d da5a 983e ceaa 863d b11f 0cbd
000002e0: c775 0fbe 9832 b1bd 5a8a 3ebd 3037 52bc
000002f0: 6615 ec3d d5a6 123d baa0 033c 2d1e d0bd
00000300: ad53 52be 1484 01be ee7b 4b3e 6b29 c93d
00000310: 23ed fb3d 45af a13d 00d9 a03d a9cb ba3b
00000320: 1c21 41bd 5eec 613c 3f09 93be b102 12be
00000330: 0320 623d 9d00 ef3c 2665 983c f0e0 73bd
00000340: c80e 073e ce20 0bbb e2f1 8cbc 4a81 183e
00000350: d073 063e 357c 913e 7316 a73d 8282 dbbd
00000360: 5a6c a23d 739a 5d3d b294 14be 06f3 60bd
00000370: be45 9fbd 4562 e1bd 7c33 fc3c 46e1 c3bd
00000380: 333f d53d 1c1e b43d ae15 9a3c e2d0 84bd
00000390: 9378 26bd ba0e cabc ca8f 543d a5e3 be3d
000003a0: 0b52 9f3c c464 ac3d 9bdd 833d 7287 a73d
000003b0: 0840 a0be 183d c63d 5632 133e 5c64 3a3d
000003c0: 786c 833c 55c7 8f3d a09b 54be d141 a4bd
000003d0: 59e0 a13a 2951 3abe c8ab 77be 7a6c cabe
000003e0: e88f 393d ca01 e2bc 9fbb c43b c6d1 92bd
000003f0: d423 df3d 7715 2b3d 1c71 9c3d fe33 253e

model.0.conv.0.kernels.6.weights f4 [8, 16, 4, 13]
-0.108552404 -0.17804617 -0.006701486 0.0017930568 -0.12805872 0.00066873024 0.15659787 0.07080353
-0.05349694 -0.048926167 0.091317266 0.07004878 0.072902866 0.08160773 0.07168908 0.13998689
0.10980645 0.05354798 -0.012814051 -0.15595584 -0.024096264 -0.059769075 0.09627241 0.036579523
-0.0115680555 -0.06934292 0.073352374 -0.04369451 0.043193582 -0.047490712 -0.088565506 -0.13661036
-0.11028118 0.09764062 -0.22973068 0.03598703 0.048696622 0.063227646 -0.04476474 0.02033604
-0.03204634 -0.02945578 0.10165885 0.08098376 0.12705241 0.36862287 0.012525939 0.047950346
0.04486782 -0.038169518 0.062994696 0.059149537 0.1051495 0.029106244 0.035738472 -0.120221525
0.0907887 -0.057469077 -0.07692229 -0.07870311 -0.09110084 0.016803533 -0.026147079 -0.03035014
0.06923181 -0.10167208 -0.044160716 -0.039943792 -0.013447483 -0.056421585 -0.060350392 0.27064928
0.0008690346 0.032243334 -0.136253 0.029964047 0.105013914 0.024550527 0.036238767 0.08915875
-0.0041714027 0.025861679 0.14170088 0.22976266 0.22949171 -0.0053578783 -0.017764177 -0.054895207
-0.09000351 0.07827528 -0.057177346 -0.119431354 -0.12250976 -0.087784775 -0.028627545 -0.14809267
-0.20416471 -0.10016768 0.04489133 -0.096689604 -0.11671795 0.032004435 0.05123695 -0.0840625
0.05992389 0.10168064 0.01633993 -0.10692072 0.103377275 -0.123309754 -0.23107569 -0.09028563
-0.07450719 0.05415555 0.0721389 0.006649539 0.10577508 0.04997691 -0.043987293 0.036348533
0.029416857 0.05859044 0.042134393 0.25369847 -0.004812852 0.12464812 -0.02081009 0.029746773
0.10785616 -0.0061408686 0.13057356 0.04123237 0.033516962 0.06842238 0.02474954 0.2463148
0.3267887 -0.021894518 -0.028441256 -0.05865727 -0.08386022 -0.049748726 0.015531354 -0.0418622
-0.021679603 -0.0627296 0.07864101 -0.0046504294 -0.05061668 -0.07412637 -0.1535583 -0.080366515
-0.026802454 -0.00027348782 -0.012922988 -0.11047647 -0.066513054 -0.15182245 -0.19302692 -0.13322586
-0.06749206 0.034737 -0.09275123 -0.13002813 0.07622193 0.026223412 0.021565745 -0.015461078
0.033891078 0.037174422 0.060657762 -0.14788786 -0.04889082 -0.012804079 0.1028785 -0.14601831
0.20640981 -0.05599012 -0.09033777 0.09435791 -0.024232194 -0.1846831 0.086723946 -0.16894162
-0.095123224 0.010010378 -0.10897784 -0.10342688 -0.11348905 -0.024074493 0.0016922717 -0.12924145
0.09072785 0.17505465 0.05280672 -0.1687125 -0.23000243 -0.074020475 -0.114299715 -0.0651998
0.10243053 0.072680056 -0.20293684 -0.18351488 -0.015162497 -0.051843677 -0.0129180765 -0.19374414
-0.07799576 -0.059353486 -0.13856108 -0.037222803 -0.10714977 0.10866132 0.13959499 -0.019055171
-0.029198438 -0.044896606 0.028906303 0.03846374 0.10223293 -0.00362578 -0.0021600982 0.200584
0.021459116 0.021367924 -0.05257895 -0.19621159 -0.15609995 -0.05087029 0.018792855 0.05309012
-0.022994831 0.06399557 0.05172355 0.030902557 0.078204066 0.025419818 -0.24788539 -0.18770485
-0.038755283 -0.06666982 0.010781655 -0.024506599 -0.032513592 0.12733787 -0.03696549 -0.073809706
-0.05355758 -0.017789697 0.038895484 0.15906319 0.20198704 0.18299185 0.082058504 0.040979877
00000000: b950 debd bc51 36be 2498 dbbb 0105 eb3a
00000010: d321 03be ba4d 2f3a 315b 203e 7101 913d
00000020: 9b1f 5bbd ce66 48bd 8c04 bb3d bc75 8f3d
00000030: 194e 953d f421 a73d b9d1 923d b958 0f3e
00000040: 34e2 e03d 2055 5b3d 06f2 51bc e3b2 1fbe
00000050: 8765 c5bc 6bd0 74bd 782a c53d 69d4 153d
00000060: f187 3dbc a903 8ebd c539 963d 04f9 32bd
00000070: c1eb 303d 9f85 42bd d561 b5bd 96e3 0bbe
00000080: 19db e1bd cef7 c73d 853e 6bbe 2367 133d
00000090: 1c76 473d 7f7d 813d 3b5b 37bd c497 a63c
000000a0: 0643 03bd 3f4d f1bc 8432 d03d d0da a53d
000000b0: 071a 023e 23bc bc3e 9939 4d3c 9567 443d
000000c0: 52c7 373d a457 1cbd 5d03 813d c946 723d
000000d0: 9f58 d73d 3870 ee3c 8162 123d b436 f6bd
000000e0: 6def b93d b264 6bbd 6f89 9dbd 192f a1bd
000000f0: 1493 babd 90a7 893c 6632 d6bc dba0 f8bc
00000100: 68c9 8d3d 7439 d0bd dee1 34bd 1a9c 23bd
00000110: d552 5cbc 521a 67bd f931 77bd 8b92 8a3e
00000120: edcf 633a 9611 043d e885 0bbe 2977 f53c
00000130: 8911 d73d 301e c93c 1a6f 143d dd98 b63d
00000140: 43b0 88bb dfdb d33c 091a 113e e746 6b3e
00000150: e0ff 6a3e 2491 afbb 2e86 91bc ccd9 60bd
00000160: c353 b8bd ca4e a03d cb32 6abd 6d98 f4bd
00000170: 66e6 fabd 81c8 b3bd 5084 eabc 9ba5 17be
00000180: 8e10 51be b624 cdbd f9df 373d 3305 c6bd
00000190: d209 efbd 1517 033d d6dd 513d f628 acbd
000001a0: c172 753d f03d d03d 51db 853c 40f9 dabd
000001b0: 77b7 d33d d389 fcbd 1b9f 6cbe ace7 b8bd
000001c0: 3a97 98bd 36d2 5d3d 8fbd 933d 60e4 d93b
000001d0: 9ba0 d83d 97b4 4c3d 052c 34bd 33e2 143d
000001e0: 9ffb f03c 87fc 6f3d 1d95 2c3d c4e4 813e
000001f0: 21b5 9dbb 8347 ff3d ec79 aabc 81af f33c
00000200: b1e3 dc3d 5739 c9bb 13b5 053e 46e3 283d
00000210: 1549 093d 0821 8c3d 8cbf ca3c f239 7c3e
00000220: d950 a73e 225c b3bc a3fd e8bc 9b42 70bd
00000230: e8be abbd 52c5 4bbd 3877 7e3c b377 2bbd
00000240: 6c99 b1bc 6078 80bd 8a0e a13d a162 98bb
00000250: 7053 4fbd 91cf 97bd 633e 1dbe 3397 a4bd
00000260: d290 dbbc ea62 8fb9 f1ba 53bc 7d41 e2bd
00000270: ff37 88bd 5877 1bbe d9a8 45be 5c6c 08be
00000280: 4739 8abd 6248 0e3d 5bf4 bdbd 1826 05be
00000290: 3e1a 9c3d 7bd2 d63c a5aa b03c 7650 7dbc
000002a0: 5fd1 0a3d 3544 183d 4674 783d ea6f 17be
000002b0: be41 48bd 33c8 51bc f7b1 d23d d385 15be
000002c0: 185d 533e e555 65bd 0203 b9bd b83e c13d
000002d0: 9882 c6bc 911d 3dbe 539c b13d 08ff 2cbe
000002e0: f7cf c2bd 9202 243c c62f dfbd 79d1 d3bd
000002f0: f26c e8bd df37 c5bc 37cf dd3a df57 04be
00000300: 86cf b93d 8741 333e dc4b 583d f8c2 2cbe
00000310: c285 6bbe 0c98 97bd f815 eabd 7987 85bd
00000320: 19c7 d13d 48d9 943d adce 4fbe 53eb 3bbe
00000330: 1f6c 78bc 095a 54bd 57a6 53bc dd64 46be
00000340: 3ebc 9fbd a41c 73bd f5e2 0dbe f076 18bd
00000350: 5771 dbbd d389 de3d fdf1 0e3e 9719 9cbc
00000360: 9031 efbc 81e5 37bd e9cc ec3c 288c 1d3d
00000370: 805f d13d 7f9e 6dbb 6f90 0dbb e465 4d3e
00000380: 07cb af3c c90b af3c 065d 57bd b1eb 48be
00000390: aad8 1fbe 5d5d 50bd 79f3 993c 0775 593d
000003a0: a85f bcbc 1c10 833d 13dc 533d 5c27 fd3c
000003b0: 7429 a03d 393d d03c abd5 7dbe b335 40be
000003c0: dcbd 1ebd 308a 88bd 8aa5 303c 10c2 c8bc
000003d0: f92c 05bd dc64 023e 2069 17bd 8b29 97bd
000003e0: 315f 5bbd b3bb 91bc df50 1f3d 76e1 223e
000003f0: b1d5 4e3e 3762 3b3e 4a0e a83d 84da 273d

model.0.conv.0.kernels.7.weights f4 [8, 16, 4, 15]
-0.1768625 -0.06474418 0.024077792 -0.14757267 0.016102824 -0.070628 0.045072842 0.2527684
-0.014227571 -0.0024674032 -0.099810116 0.042389542 0.030526588 0.034404375 0.027819306 0.0104360925
-0.06902852 -0.014875278 -0.019382793 0.0773791 0.06632107 -0.015691413 -0.1740922 0.04643671
0.07999956 -0.09072508 -0.026158743 0.016473979 0.06254569 -0.04990742 -0.23003739 -0.028264554
-0.030936489 0.046520248 0.14493822 -0.03577444 -0.30445412 -0.2623672 0.17657462 -0.10753956
0.09908501 0.0028340796 0.0040245764 0.046645038 -0.00976795 0.112220496 -0.052154128 -0.019754905
0.02902968 -0.13161105 0.07802548 -0.0128 0.102868915 0.00094983634 0.01987827 0.03633602
-0.015285197 -0.048360124 0.07952194 0.0013183625 -0.07770845 -0.028679406 0.10282361 0.0739161
-0.11004754 0.051060304 -0.07699417 -0.08766672 -0.026070062 0.0737077 0.07838582 -0.040518418
-0.09819507 -0.11676047 -0.051261127 0.009127999 -0.020076387 -0.035670478 -0.035813835 -0.081893355
-0.09287774 -0.18019827 0.14574413 -0.04317001 -0.05813128 0.029506626 -0.026689088 -0.020433966
0.010022522 0.04086684 0.14312522 0.19066513 0.04890422 0.11978028 -0.004550828 0.16407341
0.13283366 0.3098081 0.008025721 -0.010060695 0.04979843 -0.04751375 -0.0006688378 -0.0048677307
-0.023013862 -0.02714609 -0.04597526 -0.07167377 -0.09064723 0.047531243 -0.06248033 -0.009105059
-0.03188262 0.07577745 -0.25110978 -0.13648398 -0.07144569 -0.014231274 -0.038466215 -0.070121355
0.17669332 0.017088981 0.14927037 0.026418699 -0.08841625 0.115491346 -0.07094221 -0.07195106
0.08559931 -0.16313137 0.07111421 -0.038930263 0.034508914 0.035242528 -0.016913874 0.06168068
-0.0018143166 -0.08109677 -0.03765855 -0.103910916 -0.0937519 0.037941884 0.35830334 -0.043286815
0.16134883 -0.0835963 0.1265681 -0.07449895 0.188128 0.05402354 0.10536056 0.040151037
0.17516495 0.009808072 0.051094264 0.11153283 0.29436794 0.39862958 -0.05221263 0.13021405
0.053674452 0.02498651 -0.06043989 0.03432385 0.104596816 -0.13603747 -0.010975798 0.09769538
0.15629135 -0.029448355 0.024029026 0.006899582 -0.23868823 -0.043902382 -0.03675661 0.045591824
-0.033307765 -0.10383949 -0.023501387 -0.06765941 -0.048123833 -0.04507883 -0.041239362 -0.19987561
-0.09771392 0.06643323 0.060123645 -0.21940167 -0.14669527 0.0946777 -0.12270896 0.052087273
-0.07964726 -0.10171937 -0.028967282 0.11456472 0.09046161 0.009119554 -0.084148824 0.012150995
0.03268187 -0.03991176 -0.3181444 0.061286695 0.027735647 -0.04155575 -0.038554586 -0.054593075
-0.20934908 -0.15313436 0.10394252 -0.024092466 -0.059868958 -0.009547398 0.04964157 -0.11313787
-0.047405463 -0.3485032 -0.041713994 0.041631915 -0.2568405 0.078022204 0.16799092 -0.07300351
-0.14806221 -0.06897805 -0.29204422 -0.259874 -0.028240563 0.0048511126 -0.009254451 -0.14396332
-0.067726195 -0.061635584 -0.13665895 0.09472453 0.09165475 -0.0058798417 -0.10055486 -0.19972253
-0.03711881 -0.061274752 -0.049143247 -0.013453119 -0.016959388 -0.09151114 0.18790776 0.09070859
0.027473034 -0.08595747 -0.13760465 -0.11706571 0.0061418926 0.037685577 0.08166696 0.11883224
00000000: 711b 35be 9998 84bd ca3e c53c 4a1d 17be
00000010: 12ea 833c 6aa5 90bd 4d9e 383d dc6a 813e
00000020: c21a 69bc 28b4 21bb 3f69 ccbd a8a0 2d3d
00000030: e512 fa3c 9aeb 0c3d 50e5 e33c 25fc 2a3c
00000040: d35e 8dbd 70b7 73bc aac8 9ebc ef78 9e3d
00000050: 57d3 873d 478b 80bc 3a45 32be 6b34 3e3d
00000060: cfd6 a33d 12ce b9bd dc4a d6bc 70f4 863c
00000070: f417 803d b96b 4cbd ec8e 6bbe 118b e7bc
00000080: 856e fdbc 048c 3e3d af6a 143e 3888 12bd
00000090: 69e1 9bbe fe54 86be facf 343e b33d dcbd
000000a0: 15ed ca3d f7bb 393b 98e0 833b de0e 3f3d
000000b0: c009 20bc dcd3 e53d 919f 55bd 0ad5 a1bc
000000c0: a7cf ed3c 0cc5 06be d3cb 9f3d 17b7 51bc
000000d0: f0ac d23d 70fe 783a c1d7 a23c 14d5 143d
000000e0: c36e 7abc 4415 46bd 66dc a23d e8cc ac3a
000000f0: 9c25 9fbd 13f1 eabc 2f95 d23d 5361 973d
00000100: 9b60 e1bd 9c24 513d 1faf 9dbd 9c8a b3bd
00000110: e290 d5bc 10f4 963d bf88 a03d a4f6 25bd
00000120: 7f1a c9bd 1d20 efbd 30f7 51bd 9a8d 153c
00000130: 3c77 a4bc 351b 12bd 87b1 12bd b4b7 a7bd
00000140: af36 bebd e585 38be f33d 153e 09d3 30bd
00000150: 111b 6ebd e1b7 f13c 13a3 dabc 2265 a7bc
00000160: 8135 243c fd63 273d 6b8f 123e b83d 433e
00000170: cb4f 483d 5d4f f53d 1d1f 95bb dc02 283e
00000180: 8c05 083e 2b9f 9e3e 507e 033c 9dd5 24bc
00000190: 70f9 4b3d c79d 42bd f254 2fba 7c81 9fbb
000001a0: 9187 bcbc 7a61 debc 8e50 3cbd b3c9 92bd
000001b0: 41a5 b9bd 1fb0 423d 60eb 7fbd 632d 15bc
000001c0: 5a97 02bd 3531 9b3d 7691 80be 75c2 0bbe
000001d0: 1e52 92bd 4a2a 69bc c08e 1dbd c99b 8fbd
000001e0: 18ef 343e 31fe 8b3c 55da 183e 076c d83c
000001f0: 9413 b5bd ba86 ec3d 264a 91bd 145b 93bd
00000200: b14e af3d e90b 27be 54a4 913d 5775 1fbd
00000210: 3859 0d3d 785a 103d f78e 8abc e1a4 7c3d
00000220: 5dce edba 1016 a6bd da3f 1abd 3fcf d4bd
00000230: ff00 c0bd f368 1b3d 8973 b73e 844d 31bd
00000240: a138 253e 8934 abbd 119b 013e e892 98bd
00000250: a0a4 403e ca47 5d3d 47c7 d73d 6a75 243d
00000260: 715e 333e 09b2 203c 3848 513d 536b e43d
00000270: 65b7 963e 2d19 cc3e e9dc 55bd d556 053e
00000280: bed9 5b3d 82b0 cc3c d18f 77bd 2a97 0c3d
00000290: db36 d63d 684d 0bbe d5d3 33bc 8414 c83d
000002a0: d70a 203e ad3d f1bc 85d8 c43c e415 e23b
000002b0: b06a 74be fcd2 33bd 198e 16bd 7ebe 3a3d
000002c0: b96d 08bd cca9 d4bd fb85 c0bc 0491 8abd
000002d0: 7f1d 45bd 94a4 38bd 9bea 28bd 31ac 4cbe
000002e0: 3c1e c8bd 250e 883d 3644 763d d5aa 60be
000002f0: 4937 16be 62e6 c13d d64e fbbd 7759 553d
00000300: 1a1e a3bd 3f52 d0bd cb4c edbc e8a0 ea3d
00000310: f043 b93d 2f6a 153c 3856 acbd f814 473c
00000320: 6ddd 053d 837a 23bd d3e3 a2be c207 7b3d
00000330: de35 e33c 5d36 2abd 6aeb 1dbd fd9c 5fbd
00000340: 9b5f 56be 41cf 1cbe d1df d43d 905d c5bc
00000350: 2739 75bd b16c 1cbc f554 4b3d d4b4 e7bd
00000360: 3b2c 42bd 036f b2be 4bdc 2abd 3a86 2a3d
00000370: 9980 83be 1bca 9f3d d005 2c3e dd82 95bd
00000380: 9f9d 17be 5d44 8dbd d286 95be 340e 85be
00000390: c158 e7bc 15f6 9e3b fb9f 17bc 1f6b 13be
000003a0: 08b4 8abd 9875 7cbd 53f0 0bbe effe c13d
000003b0: 7cb5 bb3d b0ab c0bb b5ef cdbd 1084 4cbe
000003c0: e509 18bd 3cfb 7abd 6e4a 49bd 796a 5cbc
000003d0: 6aee 8abc 316a bbbd e46a 403e 6dc5 b93d
000003e0: 210f e13c 780a b0bd 3ce8 0cbe 26c0 efbd
000003f0: ee41 c93b 315c 1a3d 0241 a73d 515e f33d
