trained_models/TimesNet_RSAD_coniferous_all_bands/checkpoint.pth (torch, 659874 bytes, 40 tensors)

model.0.conv.0.kernels.0.weights f4 [8, 16, 4, 1]
000000 7e ff 9c 3e f5 35 c2 bc d3 56 a2 be 11 23 76 be
       0.30663675 -0.02370737 -0.31706867 -0.24036814
000010 f4 ed 04 3e ab 83 1e 3e 7d 0c 02 3e ad 4b 9e 3d
       0.12981397 0.15479915 0.12700076 0.07729278
000020 95 47 43 be a1 72 64 bd 21 73 a2 3e 02 a1 70 3e
       -0.19070275 -0.05577338 0.3172846 0.2349892
000030 de 98 56 3f 1b 2b 6b be bf 1b 3b be 3b 77 2b 3e
       0.83827007 -0.22965662 -0.18272303 0.16744702
000040 f5 b4 b9 be 08 63 d5 be 75 e4 06 3f aa 72 21 3e
       -0.36270872 -0.41677117 0.5269235 0.15766397
000050 7a 2f 4e 3f 31 bb e2 3d e1 38 5e bc 22 78 94 be
       0.80541193 0.1107086 -0.013563366 -0.28997904
000060 08 b7 07 3f dd 24 d4 3d ea f8 37 bf 6c a6 8c 3d
       0.5301366 0.103585936 -0.7186419 0.0686768
000070 47 4e b2 be d6 d4 24 3e f9 cc c8 3c 50 b0 5d 3e
       -0.34825346 0.16096815 0.024511801 0.21649289
000080 0b 95 d1 be fe 23 bb 3e 8b 39 60 be 82 e1 58 3e
       -0.40934023 0.36550897 -0.21896951 0.21179774
000090 6f 76 2e 3e 4b 07 33 3e 0d 47 04 3f 59 c8 f8 3e
       0.17037366 0.17483251 0.51670915 0.48590353
0000a0 5e 3e aa 3e e1 5d 6b 3f 7f fd 39 bf a8 fa 50 be
       0.33250707 0.9194012 -0.7265243 -0.20408118
0000b0 26 d2 9f 3e 4f cc a1 be c3 4b 84 be 8e 73 1b be
       0.31215018 -0.31601188 -0.25839052 -0.151808
0000c0 90 87 d2 be 61 f6 da bb 0e c4 e0 3e ec 94 cf bd
       -0.4111905 -0.0066822027 0.43899578 -0.101358265
0000d0 d3 e2 8a be 52 f2 16 3f 6f c6 1b bd 88 e8 e1 3e
       -0.27126178 0.589635 -0.038031038 0.4412272
0000e0 26 cc 2e bf 30 8b 6a be 68 53 12 3f 5e ba 94 be
       -0.68280256 -0.22904658 0.5715852 -0.29048437
0000f0 b4 01 44 be 69 2c 14 3f 44 24 1c bf 0f 8e 49 3d
       -0.19141275 0.57880265 -0.60992837 0.049207743
000100 02 d5 d3 be ff 65 38 bf 17 47 c6 bd 19 1d 03 3e
       -0.4137345 -0.72030634 -0.09681528 0.12804069
000110 29 a0 95 3d 81 42 50 bf 2c a0 05 be 98 59 ce 3c
       0.07305939 -0.81351477 -0.13049382 0.025189206
000120 d4 e2 10 3d d6 24 11 3f 97 47 1d 3f 8a 83 67 be
       0.03537257 0.5669683 0.6143736 -0.22608772
000130 9b 63 87 be 5a 6e aa be ab a1 d2 3d 2a 43 d5 be
       -0.2644318 -0.33287317 0.10284742 -0.41652805
000140 bb 22 89 3e 86 02 3d 3f 60 d8 82 3e 7e d6 e4 3d
       0.2678431 0.73831975 0.25555706 0.11173724
000150 57 c5 8f be 8b dd 3c be fd 57 49 be 71 cc a4 bc
       -0.28080246 -0.18443887 -0.19662471 -0.020117017
000160 4e 91 02 3f b8 e8 92 be 5a c3 3b bf b5 93 c0 3e
       0.5100297 -0.28693175 -0.7334496 0.37612692
000170 8c 86 54 3e e8 c2 1f bf 95 7b 3c be 38 5a 0a 3f
       0.2075445 -0.6240678 -0.18406518 0.5404391
000180 a1 29 8a 3e 42 be d4 3e 21 8e 56 3e 27 dd 10 be
       0.26984885 0.41551405 0.20952655 -0.14146863
000190 12 b4 b9 3e b4 ac ee 3c 79 5d b9 3d 15 08 85 3e
       0.36270195 0.029135086 0.090510316 0.2598273
0001a0 e0 4b dd 3e 4c 0b 74 bf 82 e9 aa be 7c 07 a9 3e
       0.4322195 -0.9532974 -0.33381277 0.33013523
0001b0 57 0f 82 bd 21 02 01 3f 5c 2e 50 3e 3b 3a f8 3c
       -0.06350582 0.50393873 0.20330185 0.030301204
0001c0 4e 67 9f bd c8 06 a3 3e 4a 13 de 3e f1 b0 cf be
       -0.07783376 0.3184111 0.4337409 -0.40564683
0001d0 98 2c 11 3f ea 1d c1 3e f3 16 1a 3e 55 21 91 be
       0.5670867 0.37718135 0.15047817 -0.28345743
0001e0 cd 4b 02 bf b7 77 60 3f 19 65 2b 3f cf 65 0a bf
       -0.5089691 0.8768267 0.6695114 -0.540616
0001f0 c5 96 1a 3f f0 19 13 3d 91 d9 68 be 81 9c ab 3a
       0.60386306 0.035913408 -0.22739245 0.0013092906
000200 96 c4 43 bd 98 13 ba bd 08 dc 06 3e 26 77 1b 3d
       -0.0477949 -0.090857685 0.13169873 0.037955426
000210 4d cf 0d bf ba 20 55 be 18 da f0 bd 83 90 02 3d
       -0.5539444 -0.20813265 -0.11760348 0.0318761
000220 00 0b 78 3e 76 26 0f be 92 3c 3b be f2 50 aa 3e
       0.24222946 -0.13979515 -0.18284824 0.3326488
000230 8f cf 65 3e 63 d6 17 3e 4a 22 d8 bd 6e cc 67 be
       0.22442459 0.14827876 -0.10553415 -0.22636577
000240 42 ee f6 bd 5d d6 da 3e 73 fb 96 be 7d 8f 05 3d
       -0.12057163 0.4274167 -0.29488716 0.032607544
000250 34 fc 02 3f 23 5d 8f 3e e9 a4 c2 3e 9d 36 ed bd
       0.5116608 0.28000745 0.3801644 -0.11582682
000260 0b 0a ff be 47 d9 08 be ae 79 00 bf 09 9d 23 bd
       -0.4981235 -0.13364135 -0.5018567 -0.039944682
000270 a3 69 60 be 5c e7 11 3f 8e 68 93 3e ba d1 2c 3e
       -0.21915297 0.5699365 0.28790706 0.1687688
000280 8e c0 e3 be bf c3 ba bc 3a 53 86 be 2a db f8 3e
       -0.44482845 -0.022798417 -0.26235372 0.4860471
000290 df f3 23 3f cf 07 69 3e e8 8f 88 3e 4e e4 0d 3e
       0.6404399 0.22756885 0.26672292 0.13856623
0002a0 1b 49 a8 be de 63 05 bf 98 49 a4 3e c9 e3 e6 bd
       -0.32868275 -0.5210551 0.32087398 -0.11273915
0002b0 5d 57 06 be 72 63 d9 3e 37 80 52 bf b1 84 bd 3e
       -0.13119264 0.42458683 -0.8222689 0.37015298
0002c0 8f 93 e7 3b d2 f9 84 be 41 a7 c4 be d0 0f 61 bd
       0.007067151 -0.25971848 -0.38408855 -0.05494672
0002d0 76 2a 76 bf 39 af 9c be 26 af 46 bd b2 ab 49 3f
       -0.9615854 -0.30602434 -0.04850688 0.7877761
0002e0 cd 37 aa 3e 85 29 50 3f f5 a6 76 3e f4 94 a6 3d
       0.33245698 0.81313354 0.24087127 0.08133879
0002f0 2f 62 03 be 16 d0 07 be 7d 4d b2 be 56 ef c4 3e
       -0.12830423 -0.13262972 -0.34824744 0.3846385
000300 bf b6 94 be 4e 9a f3 3e 71 ad 13 3e 33 98 81 be
       -0.29045674 0.47578663 0.14421631 -0.2531143
000310 af 09 18 be d0 25 94 3e bc 34 04 3f 29 b2 8d be
       -0.14847444 0.289351 0.51642966 -0.27674988
000320 00 c0 3f 3f b8 e9 cd be 56 1e b1 be 4e 2d ea bc
       0.74902344 -0.40217376 -0.34593457 -0.028586056
000330 0e e7 1d 3b 1f e5 00 3f 5e 0a 02 be 3b b7 3a 3e
       0.0024094018 0.5034961 -0.12699267 0.1823396
000340 a8 31 1e 3f 23 a3 27 be ef 8d 93 be d5 23 39 3e
       0.6179452 -0.16370825 -0.28819224 0.18080075
000350 af cf e3 be 59 ed 13 3e 77 86 a3 be 2c d0 02 3e
       -0.44494388 0.1444601 -0.31938526 0.12774724
000360 7c b0 af be f4 0e 25 3e 77 da bc be 52 b6 91 3d
       -0.34314334 0.16118985 -0.36885425 0.07114853
000370 3a 19 ae bd 2d 0f 00 3f a8 48 4f 3f 13 53 0e be
       -0.08500905 0.50023156 0.8097024 -0.13898878
000380 d1 04 04 3f d3 e5 85 bf 30 21 29 be 24 f6 8c 3e
       0.5156985 -1.0460762 -0.16516566 0.2753154
000390 c7 d7 8f be 87 49 38 3f bb 28 a3 3d 57 52 08 be
       -0.28094313 0.71987194 0.07966753 -0.1331266
0003a0 38 69 b1 be a6 33 3a bc 9b a8 d0 3d c9 b4 5e bd
       -0.34650588 -0.011364853 0.10188409 -0.05437163
0003b0 51 0e 8f 3c e0 e0 ca 3c a4 65 d8 be a6 ee cd be
       0.017462881 0.024765432 -0.42265046 -0.40221137
0003c0 33 c0 95 be 4e 1f 87 be e0 a9 a6 be eb 6d fc bd
       -0.292482 -0.2639107 -0.3255148 -0.12325653
0003d0 86 80 0a 3f ae 6a 1f bf 1f df 23 3e ae bc 7b 3e
       0.5410236 -0.62272155 0.16003083 0.24583694
0003e0 85 1a 4b 3f 4e 6e 04 be 24 08 84 be 5e d4 d1 bd
       0.7933734 -0.12932703 -0.2578746 -0.10245584
0003f0 79 93 16 3f 89 06 3d bf ca 6f 85 3c b4 db f3 bc
       0.58818775 -0.73838097 0.016288657 -0.029767849

model.0.conv.0.kernels.1.weights f4 [8, 16, 4, 3]
000000 ea 06 43 bd 39 b1 55 3f 51 51 f0 3d e7 f4 f6 be
       -0.047614016 0.83473545 0.1173426 -0.4823372
000010 4e f3 71 bd b5 0b a7 bc e6 ec 87 be e1 e1 86 be
       -0.059069924 -0.020391325 -0.26547927 -0.26344207
000020 5d db 50 bd 04 d4 f0 3c 44 79 50 be 22 d3 a6 be
       -0.05099045 0.029397972 -0.20358759 -0.32582957
000030 98 e2 03 be 11 c0 e0 3e 33 33 ae bd d5 9b 68 bd
       -0.12879407 0.43896535 -0.08505859 -0.056789238
000040 d3 de 1b 3e d8 8d fa 3d 69 a0 a6 bd ea 79 9e bc
       0.1522172 0.12234086 -0.081360646 -0.019345243
000050 eb 95 8b be 10 93 82 3e cc 95 0c be a6 00 87 bd
       -0.27262816 0.25502825 -0.13729018 -0.065919206
000060 2b cf e8 bc 35 0f 29 bf 80 9f 6e be c8 10 6d 3e
       -0.028419098 -0.6603883 -0.23303032 0.23150933
000070 a1 ae ec 3d 42 b9 8a be 18 63 cf bc ca a2 bd 3e
       0.11556745 -0.27094465 -0.025315806 0.3703826
000080 88 04 4f 3e c3 1d 35 be 6f 03 e7 bd e1 7d 55 3e
       0.20216572 -0.17687134 -0.11279952 0.208488
000090 64 d5 c6 3c 9d 4c c1 3e 1b 27 dd 3e ec ca cd bd
       0.024271674 0.37753764 0.43193898 -0.1004847
0000a0 4e 38 54 be 04 e8 15 be 5b 7f 01 bd ee 90 0f bd
       -0.20724604 -0.14639288 -0.031615596 -0.035050325
0000b0 59 17 bb 3d 13 89 20 3e e5 98 e7 3d af e4 9f 3d
       0.091353126 0.1567729 0.11308459 0.0780729
0000c0 18 a5 03 3e 5f 51 b2 bd 1e f2 d8 bb 6e 84 f1 3e
       0.12855947 -0.087069266 -0.0066206595 0.47171348
0000d0 6e eb 20 be 83 6e 14 bf 7a 40 2c 3e b8 f2 b3 3d
       -0.1571481 -0.5798113 0.16821471 0.08786529
0000e0 68 c3 40 3e f3 d0 69 be aa a2 94 bd f2 67 c5 3d
       0.18824542 -0.22833614 -0.07257588 0.096389666
0000f0 7a 6b 42 3a 40 5a 2c 3f 33 66 1d 3d 0b 31 ae bd
       0.0007416528 0.6732521 0.038427543 -0.08505448
000100 ed 3a 8e be ad 93 8f 3e 73 40 d6 be 35 68 83 be
       -0.27779332 0.28042355 -0.41846046 -0.2566544
000110 af 63 34 3d 6e 87 35 3e a3 6b 94 bc 19 2e 66 be
       0.04404038 0.17727444 -0.018117731 -0.22478522
000120 51 c9 8c bc 48 7a 51 3f d9 14 d0 3c fa 5a 7a bd
       -0.017185839 0.8182721 0.025400566 -0.06112192
000130 59 4a 67 bd 58 9e 64 be ef 20 91 bc 4e 33 40 bf
       -0.056467388 -0.22326028 -0.0177159 -0.75078285
000140 4c 56 85 be 84 db 03 be c4 e5 a7 be 23 62 b1 be
       -0.26042402 -0.12876707 -0.32792485 -0.34645185
000150 d6 50 42 bc 7c 40 b9 be c4 0c be bd e8 4e b6 3d
       -0.011860093 -0.3618201 -0.092797786 0.08901769
000160 33 f8 10 3e 7d 8d 2c 3e da e1 c7 3d 1f fb 46 3e
       0.1415718 0.16850848 0.09759875 0.19431733
000170 a5 6f d6 bd b3 25 08 be 5b 51 03 3f b9 f7 ec 3e
       -0.10470513 -0.13295631 0.51296014 0.46282747
000180 f5 ba 6a be b3 2e c0 be b1 55 18 be 1f b0 e6 3e
       -0.22922881 -0.3753563 -0.14876439 0.45056245
000190 e9 30 34 3c 19 f7 33 3e ed 53 07 bf 7e 50 53 bd
       0.010997989 0.17574729 -0.52862436 -0.051590435
0001a0 1b 20 54 be 09 5c 05 be 91 65 fd bd 81 82 62 bd
       -0.20715372 -0.1302339 -0.12372888 -0.05530024
0001b0 ee 47 e4 3d bf 6a 33 3e 10 c1 b3 3e 04 2f 1e bd
       0.11146532 0.17521189 0.35108232 -0.038619056
0001c0 90 93 c7 3e 1a d7 d5 3e e4 ef 17 3f 19 42 fe 3e
       0.3897977 0.41765672 0.5935042 0.49659804
0001d0 fc c5 7f 3e b0 2b cc 3e 2d 3f c7 3e 44 d7 c5 3e
       0.24977869 0.3987708 0.38915387 0.38640797
0001e0 03 ba a0 be 9d 3e 7e 3e 59 82 8a 3d e2 94 41 be
       -0.31391916 0.24828573 0.06763143 -0.1890445
0001f0 52 3f 56 3f fd af b0 3e 0d 1e fe be 52 52 4c be
       0.8369037 0.34509268 -0.49632302 -0.19953278
000200 ec 0e 17 be f6 63 c5 3d 75 f4 a0 be c6 de e8 bb
       -0.14751786 0.09638207 -0.31436506 -0.007106635
000210 33 af ee be 72 64 e0 3e 0d 0a d8 3e a1 85 86 3d
       -0.4661804 0.43826634 0.42195168 0.065684564
000220 2b fc 5c 3d ac 1d 05 3e a3 8b b6 be a0 8a bd be
       0.053951424 0.129996 -0.3565341 -0.37019825
000230 f9 1b 65 be 3f ad 78 be 02 37 41 bf 98 fe f2 be
       -0.22373952 -0.24284838 -0.7547456 -0.47459865
000240 8d 6c c7 3c b7 e3 98 be f0 5c ab be 18 ef 9b be
       0.024343753 -0.29861233 -0.33469343 -0.30455852
000250 8f f4 e7 be 9c 0a e0 be 65 17 33 bd 62 23 e9 bb
       -0.4530377 -0.43758094 -0.043723483 -0.0071148137
000260 f0 25 16 be 73 98 f6 be b9 69 3e 3e 9b bd 25 be
       -0.1466291 -0.48163185 0.18595017 -0.1618561
000270 a8 5a f9 3d c8 d8 df bd 32 d3 b9 bd c0 cf 1a 3f
       0.121754944 -0.109300196 -0.090734854 0.6047325
000280 07 17 c2 3e 2b e1 2a 3e e2 51 9e be e4 1a 16 bf
       0.37908193 0.16687457 -0.30921847 -0.5863478
000290 e9 ec ca bd 26 9a cb 3d eb b4 e9 bd a3 69 47 bc
       -0.09908468 0.09941511 -0.114114605 -0.012171182
0002a0 cb ee 84 bc 9f 74 45 bf 76 e0 81 be b6 68 c3 3e
       -0.016227147 -0.77131075 -0.25366563 0.38165826
0002b0 92 a4 0a bf 2e 78 a7 be e4 67 d0 3d ce 55 08 3f
       -0.54157364 -0.32708877 0.101760656 0.5325593
0002c0 1a 66 56 3d a5 36 0e bf ef a6 13 3d 62 fe f5 3d
       0.052343465 -0.5555213 0.036047872 0.1201141
0002d0 53 32 5d be b6 58 c0 be ad 1b 5a be a4 a7 03 3f
       -0.21601228 -0.3756768 -0.2129962 0.51427674
0002e0 90 90 f9 3e b2 49 67 3e bd 07 b6 be de ae 0c bf
       0.48743105 0.22586706 -0.3555278 -0.54954326
0002f0 ef c0 60 be a5 5a 22 3d ef ec d7 bd 20 c7 68 bd
       -0.21948598 0.039637227 -0.10543238 -0.056830525
000300 ec c1 ad be 2f 1a b9 3d a9 fd 8c 3e 03 9b 00 bf
       -0.33937013 0.09038197 0.27537277 -0.5023653
000310 35 9f 6c be 42 fd 5c bd 0a c3 49 3e 82 bd 97 3b
       -0.23107608 -0.053952463 0.19703308 0.0046307454
000320 d7 2a 5d be 4f 57 00 bf 57 34 0f 3b 12 f0 48 3f
       -0.21598373 -0.5013322 0.0021851265 0.7849132
000330 78 b0 e4 bc 46 2f f1 3d c2 62 80 be 16 7d ee bd
       -0.027916178 0.11776595 -0.25075346 -0.11644952
000340 ac b6 46 bf e6 ba 26 3d a2 be d1 3e fa a9 4a be
       -0.77622485 0.040705584 0.40965754 -0.19791403
000350 8c d8 8b bd c9 54 1f be ee d6 22 3d 0d d9 2d 3e
       -0.068284124 -0.15559687 0.039755754 0.1697733
000360 8f 31 8e bd 07 79 9b be 5f b9 c6 be 0c ee 8a 3e
       -0.06943046 -0.30365774 -0.38813302 0.2713474
000370 a5 7b b7 3d 65 a0 ce 3c 1f e1 24 be 81 d3 0e 3e
       0.0895913 0.025222966 -0.16101502 0.1394787
000380 97 00 88 3e 40 8d 69 be e6 38 36 bd 1a 68 25 be
       0.2656295 -0.22807789 -0.044487856 -0.16152993
000390 05 23 a7 bd 95 cd 00 bf 28 a0 1b bc f6 13 b0 bd
       -0.08160976 -0.50313693 -0.009498633 -0.08597557
0003a0 c4 5e 8a bd 8b 8d 24 3e 0e 45 bf bc 72 4a 8d 3c
       -0.06756356 0.1606962 -0.023348358 0.017247412
0003b0 32 41 a0 3d 38 76 a8 bd 22 c8 9a bd f5 5e a2 3d
       0.07824935 -0.082256734 -0.075577036 0.07928268
0003c0 b6 7d ab 3e 1a 9c 97 bd 62 66 a5 be 21 8c 93 3e
       0.33494347 -0.07402821 -0.32304674 0.28817847
0003d0 c6 a6 14 3f 95 34 3e bd 96 c5 de be d5 c9 8f 3e
       0.58066976 -0.046436865 -0.4351012 0.28083673
0003e0 9c 1c 27 3e 7a 7d 31 3e 46 fe 15 be 18 83 91 be
       0.16319507 0.17333022 -0.14647779 -0.2842033
0003f0 21 e6 d9 3d 39 5b 74 3d 09 af d5 3e c1 5a 27 be
       0.10639597 0.05965731 0.41735104 -0.16343214

model.0.conv.0.kernels.2.weights f4 [8, 16, 4, 5]
000000 07 d6 e4 3d ec 50 bb 3d 6b 7c 2a 3f 46 bc ca 3d
       0.11173635 0.09146294 0.66596097 0.098991916
000010 e7 fd 36 3e 6c 9c 4a 3e 63 f5 b9 be cc 03 68 bd
       0.17870294 0.19786233 -0.36320028 -0.056644246
000020 44 63 a9 3d ab 4b 97 3c c7 6d 00 3c 80 89 87 be
       0.082708865 0.018468698 0.007838673 -0.26472092
000030 27 76 05 be f5 2b 0d be 40 44 1a bf 1d c3 0b bf
       -0.13033353 -0.137863 -0.6026039 -0.54594594
000040 38 54 86 3e 9e e1 36 be e0 e1 a0 be 56 b5 de bd
       0.2623613 -0.17859504 -0.3142233 -0.10874431
000050 e1 e2 aa 3d 92 b5 c7 bd 0e 1b dc 3e 1d 95 a5 3d
       0.08344055 -0.09751429 0.4298939 0.08085082
000060 db 88 85 3d 8b e0 d4 3c 74 5f 61 be bd 63 6e 3e
       0.06520244 0.025985977 -0.22009069 0.23280235
000070 94 5a 8e 3e a1 fa d6 3c f7 74 98 3e b7 9c c1 3d
       0.2780348 0.026242556 0.29776737 0.09453719
000080 06 e5 35 be d7 90 d4 bd b8 87 a3 be 37 1e c1 be
       -0.17763147 -0.103791885 -0.31939483 -0.37718365
000090 f4 f1 bc 3e 02 e2 62 3d 25 f5 7b be ab fb 01 be
       0.36903346 0.05539132 -0.24605234 -0.1269366
0000a0 60 a7 63 bd 92 d7 23 3e 83 a5 de be 0f 06 6f be
       -0.055579543 0.16000202 -0.4348565 -0.23342155
0000b0 a4 14 d3 bd 68 6b 54 3c d5 5d d0 3e eb dc 40 be
       -0.10306671 0.012965061 0.40696588 -0.18834274
0000c0 6e 77 d6 be a3 64 60 be 71 a4 70 3d 67 a9 97 3d
       -0.41887993 -0.2191339 0.058750574 0.07405358
0000d0 e6 c0 9d 3d 6a 79 38 3e 25 f8 fe 3e 0f 42 0d 3e
       0.07702808 0.18015066 0.49798694 0.1379473
0000e0 f8 a5 b5 be 2e fb f4 3d fc 07 8d bc ec 7b 0e 3e
       -0.35478187 0.11961971 -0.017215721 0.1391446
0000f0 74 48 18 3e a3 83 8c be d4 d6 ef 3e 73 d1 68 3e
       0.14871389 -0.2744418 0.46843588 0.22736149
000100 8b 3d 21 3e 77 e0 65 bd 7a 06 b3 bd aa b4 3e 3d
       0.15746133 -0.05612227 -0.0874147 0.046559013
000110 43 54 00 3d cc 2a a5 bd eb 5f 3f 3e fb 57 51 be
       0.03133036 -0.080648035 0.18688934 -0.20443718
000120 e8 5d 3c bc b0 d8 b6 bd 6c 5b 3a be 40 97 a3 be
       -0.011496998 -0.089280486 -0.18198937 -0.31951332
000130 ca 5d c8 3d b8 a7 c4 3d 83 0a bc bd 9a ba ec bd
       0.09783514 0.09602302 -0.091816925 -0.11559029
000140 9c 46 ff bc ea e4 23 3e 85 29 9c be 8a c1 76 bd
       -0.031161599 0.16005293 -0.30500427 -0.060243167
000150 cd 4e 1b be cd 0d 8b be 56 f0 b6 3e b8 c0 73 be
       -0.15166779 -0.27158967 0.35730237 -0.23803985
000160 b1 21 ea be bb 9c 7d be 21 e1 e2 3c 01 82 27 bd
       -0.4572883 -0.24766819 0.02769524 -0.040895466
000170 c5 9e 05 bd b0 48 01 3e 00 f9 d5 3e bc 4e 83 3e
       -0.032622118 0.12625384 0.41791534 0.25646007
000180 ad a9 f5 be 94 ae f6 bd ae 6d d9 3d ad 43 49 3e
       -0.47981015 -0.12045017 0.10616623 0.19654723
000190 9b 37 f6 bc e0 3c a2 bd 4c b3 1a 3f f3 bd 98 3e
       -0.030055812 -0.07921767 0.60429835 0.2983242
0001a0 35 a4 b1 3e e3 4c 3d bd 93 b5 fa bd 52 f2 82 bd
       0.34695593 -0.046215903 -0.12241664 -0.06393875
0001b0 81 97 88 3e 7a c6 52 3e 91 89 28 bd a8 66 5e bd
       0.26678088 0.20583525 -0.04114682 -0.05429712
0001c0 fa 5f b6 be df 70 58 3e 11 3d 3d be 0a d5 31 be
       -0.356201 0.21136807 -0.18480326 -0.17366424
0001d0 5b 79 d6 3b 28 bc 66 be 71 d3 d3 bd ee 4b f2 bd
       0.0065452284 -0.22532713 -0.103430636 -0.11830889
0001e0 b9 b8 2e 3e 08 2d 3a be 77 a6 36 3f 1c 5f 53 3e
       0.17062654 -0.1818124 0.71347755 0.2064175
0001f0 9e d3 46 3e 33 f9 0a be a9 1c d4 3c 0e 07 83 3e
       0.19416663 -0.13571624 0.025892572 0.2559132
000200 bf 26 1a be 43 2a 9f be 71 0c cb 3d e1 04 87 be
       -0.15053843 -0.3108693 0.099144824 -0.2637091
000210 80 80 12 bf 1d b8 14 be ac 35 02 bf 98 c2 a4 be
       -0.57227325 -0.14523359 -0.50863147 -0.32179713
000220 ea d7 c1 3c 52 7d 10 bf 11 fd 71 be c5 55 c7 be
       0.023662526 -0.56441224 -0.23631693 -0.38932624
000230 22 19 6d 3e 31 c7 f7 3b 9a ad a7 be 22 0e 15 3b
       0.23154119 0.0075615873 -0.32749635 0.002274402
000240 5c c7 e5 bd 66 7b 8b bd f9 14 42 bd 03 96 b6 3e
       -0.112196654 -0.06810646 -0.047383282 0.35661325
000250 8f fb 94 3e 74 3a 26 3e 05 a9 97 3d a7 52 e9 3d
       0.29098174 0.16233236 0.07405285 0.11392718
000260 af 00 61 3c 06 19 b8 3c 78 71 db 3b a8 04 f8 bd
       0.013733073 0.02247287 0.006696876 -0.12110263
000270 e9 0b 27 3e 20 42 86 3e 52 e6 1c 3e 87 fa d4 3c
       0.16313137 0.26222324 0.15322235 0.025998367
000280 b3 fa 60 be 49 f9 25 bd b7 ac 99 be b3 c5 1f be
       -0.21970634 -0.04052094 -0.30014583 -0.1560276
000290 bb 07 e3 bd 49 6e 66 3e 92 00 14 3f 5d c6 48 3d
       -0.11085459 0.22503008 0.5781337 0.0490173
0002a0 f0 44 da 3e 5e bc c2 3e 9e e3 13 bf b1 f0 1f bf
       0.4263072 0.38034338 -0.5776919 -0.6247664
0002b0 a9 fd 04 be 6f 96 29 bd fa c8 80 3e 4b cc a0 be
       -0.12987389 -0.04140323 0.25153333 -0.31405863
0002c0 cf 46 8a be 59 ae 31 3d 86 b5 1f 3e f4 54 9c 3e
       -0.27007148 0.04337916 0.1559659 0.30533564
0002d0 b4 23 a6 3e 58 99 8b 3e d6 5e 67 3e 98 37 b9 3e
       0.32449114 0.2726543 0.22594771 0.36175227
0002e0 e3 be 49 3e a4 3f 85 3e ec 8f 72 3d 62 75 b7 3e
       0.19701724 0.26025116 0.059219286 0.35831743
0002f0 94 04 c8 3e 35 81 63 3e 9d 31 8b 3e 5f 5c c2 3e
       0.39065993 0.22217257 0.2718629 0.379611
000300 49 f9 a4 3e 26 47 93 3e 56 f4 8e be 0b c0 3f 3e
       0.3222144 0.2876522 -0.2792079 0.18725602
000310 9e 1f 8e 3e 9b b7 c1 3e 73 f9 af 3e 67 2c 59 3d
       0.27758497 0.37835392 0.34370002 0.05302086
000320 db 42 20 be af c4 58 be 90 cc 07 3e 93 66 03 be
       -0.15650503 -0.21168779 0.13261628 -0.12832098
000330 50 56 6e bd f4 6c d9 3d 43 79 20 be 89 1e 0d 3f
       -0.058187783 0.10616484 -0.15671258 0.5512472
000340 51 3a 36 3f 19 29 10 3e 14 70 af be cd 55 ac be
       0.71182734 0.14078178 -0.34265196 -0.3365921
000350 98 58 97 be d5 1a 87 be 76 59 04 bf 71 2e 9d be
       -0.2955978 -0.2638766 -0.51699007 -0.30699494
000360 03 28 9b 3d 41 f8 41 3d c1 78 69 be 9d 94 92 be
       0.07575991 0.047355894 -0.2279997 -0.28629008
000370 58 99 5c bd 33 4c 28 bd 76 8d 93 3e 86 a1 25 3c
       -0.053857177 -0.041088294 0.28818864 0.010109311
000380 76 91 a0 3e 45 25 3f be 95 07 df 3b 6a 04 57 be
       0.31360978 -0.18666561 0.006806324 -0.20997778
000390 95 92 00 3e c6 a5 bc 3c 5f f4 8c be cc cc ac be
       0.12555917 0.023028266 -0.2753019 -0.33749998
0003a0 99 d6 00 bf 0a 4e 68 be 35 30 a4 be 31 21 e7 be
       -0.5032745 -0.2268602 -0.3206803 -0.4514251
0003b0 a5 e2 b8 be fa cb c8 be a6 dc fe be e2 a9 e2 bd
       -0.36110416 -0.39218122 -0.49777716 -0.11067559
0003c0 f9 5e bc 3c fb 2a e5 bc a7 89 36 be c6 a5 f5 be
       0.022994505 -0.027974596 -0.17825948 -0.47978038
0003d0 c6 24 7c be bb 21 f8 bc ac 1b cb 3c e7 65 95 be
       -0.24623403 -0.030289521 0.024793468 -0.29179308
0003e0 5e 41 d0 be 18 db c0 be d4 1d 06 be 2f d4 ad be
       -0.4067487 -0.37667155 -0.13097316 -0.33950946
0003f0 5a a0 92 3d f9 b7 50 be 12 6b a5 3e f6 f4 8a be
       0.07159491 -0.2038268 0.3230825 -0.27140015

model.0.conv.0.kernels.3.weights f4 [8, 16, 4, 7]
000000 04 c5 e2 bd 39 57 3e 3e 3c d4 bc bd 01 6f 11 3f
       -0.11072734 0.1858796 -0.09220168 0.56810004
000010 2e 9c 29 3e 8b be ae 3d 3c 67 1b be 2c c4 16 3c
       0.16563484 0.08532437 -0.151761 0.009202044
000020 35 71 91 bc 30 8d 89 be 46 f6 7b be 51 79 95 bc
       -0.017754177 -0.2686553 -0.24605665 -0.018246325
000030 ef 48 26 bd 80 67 ee 3d 11 71 4d be f4 ae a1 bd
       -0.0405969 0.11640835 -0.20062663 -0.07894698
000040 2e 4c 74 be 81 f1 ff be 44 84 e8 bd 3f 82 fc be
       -0.23857185 -0.4998894 -0.11353353 -0.4931812
000050 43 9d ff 3e 2f 53 cf be 52 69 f0 be fb 18 8a 3e
       0.4992467 -0.40493152 -0.46955353 0.26972184
000060 e5 3a 15 be 8b 64 d7 bd 5b 51 a1 bd 00 9f ca 3c
       -0.14573248 -0.10517224 -0.078768454 0.02473402
000070 3d 09 0b be e4 45 ff bc 9f c9 2f be bd 30 b0 3e
       -0.13577743 -0.031161256 -0.17166756 0.34412184
000080 ea 2c 55 bd f8 98 9e 3d 31 f0 5e be a1 19 e7 3d
       -0.052044787 0.0774402 -0.21771313 0.11284185
000090 6a 5b a1 3e f2 99 64 be 08 18 02 3f 36 6a f9 3c
       0.31515056 -0.2232435 0.5081792 0.030446153
0000a0 dc ec 42 bd 34 bc 01 3e 4c a6 83 be 7d f2 8b 3e
       -0.047589168 0.1266945 -0.25712812 0.2733344
0000b0 cb 2e e7 bc cc 5a 9d bd 08 1f 87 be 1d f2 4d be
       -0.028220555 -0.07683334 -0.26390862 -0.2011189
0000c0 56 3c 95 3e 0d e6 8d be 86 f0 91 be a0 7a 3a 3e
       0.29147595 -0.27714577 -0.28503817 0.1821084
0000d0 fe 96 4b be d5 58 e8 bd 16 26 8a be 6c 23 93 3d
       -0.19881818 -0.11345068 -0.26982182 0.071844906
0000e0 47 2b 90 bd 7d 8d 2d be e7 e8 8a bc e3 c4 f8 be
       -0.070395045 -0.16948505 -0.01695676 -0.48587713
0000f0 83 70 28 be cb 9e a6 be 3d 7c eb bc e0 fd a6 3d
       -0.1644917 -0.32543024 -0.028745765 0.081538916
000100 ea 43 c5 3a 42 29 35 3e 49 ad cc be 5d 5e 8e be
       0.0015050147 0.1769152 -0.39975956 -0.27806368
000110 48 70 55 be 42 3b 60 be 86 b0 fb 3e 25 d3 26 3d
       -0.20843613 -0.21897605 0.49158114 0.040728707
000120 95 ba d8 3d 4b a2 96 3e b7 60 49 3e 6d 48 be 3e
       0.10582463 0.29420695 0.196658 0.3716463
000130 06 a2 8c be 81 23 34 bd 84 86 c1 3d cc 27 bd be
       -0.27467364 -0.04397917 0.09449485 -0.36944425
000140 bf 86 0a be c7 2b 0b 3d fa 27 8e 3d 79 28 b8 be
       -0.13527964 0.033977296 0.06941219 -0.35968378
000150 75 1d 95 bc 2f 93 5e 3e 34 4e 7d be bb 47 de 3e
       -0.018202523 0.21735834 -0.24736863 0.434141
000160 5c 47 e9 3d ca 86 1a 3e 6e 03 fd 3d d3 0f 41 3e
       0.11390564 0.1509048 0.1235417 0.18853693
000170 bd 4d d4 bd 22 94 52 be ce f5 8d be 74 74 1f bc
       -0.1036639 -0.2056432 -0.27726597 -0.009732354
000180 21 36 a2 bd 18 db e6 bd f7 21 27 bd 44 58 10 3d
       -0.079204805 -0.112722576 -0.040803876 0.035240427
000190 a7 8a 7f bd 4f e3 22 be 02 68 0d 3e 2c 2f 30 be
       -0.06238809 -0.15907024 0.13809207 -0.17205495
0001a0 a5 35 97 3e fa 12 c0 bd 44 40 53 be f9 05 34 3d
       0.29533115 -0.093786195 -0.20629984 0.04395101
0001b0 ad a5 ba 3c 67 82 43 be 43 40 d7 bc e6 da 0c 3d
       0.022784078 -0.19092713 -0.02627576 0.034388445
0001c0 2c 6e 0a 3d 83 d5 49 be d1 85 b0 3e 82 0e 0b bf
       0.033796474 -0.19710355 0.34477094 -0.5431901
0001d0 34 e3 8f bd e0 f2 cd bd 00 c4 a7 3d 7d 8a 40 be
       -0.070257574 -0.1005609 0.08191681 -0.18802829
0001e0 f0 ab 2c be b1 06 00 3f 4c 51 96 be 0f a1 ae be
       -0.16862464 0.5001021 -0.293589 -0.34107253
0001f0 5d 04 82 be 5e bc 86 be 29 c3 7d 3e de f5 85 bd
       -0.25393954 -0.26315588 0.24781479 -0.06541036
000200 fb f8 e1 3d d7 c7 6f 3e 62 46 ed 3e f8 cb 05 3f
       0.110338174 0.23416077 0.4634276 0.52264357
000210 27 58 60 be 44 c7 82 3d e7 1d b1 3e 5d 0b 73 be
       -0.21908627 0.06385663 0.34593126 -0.23734803
000220 6e e9 50 3d d7 a7 ba 3d a4 f2 28 3e 20 27 eb bd
       0.051003866 0.09114044 0.1649881 -0.11482072
000230 df f4 db bd 82 63 9d 3e 07 e9 53 be 23 96 ea 3e
       -0.10740065 0.3073998 -0.20694362 0.4581767
000240 45 ea 06 3e e0 56 61 3e b1 67 49 3e 92 05 f8 bd
       0.13175304 0.22005796 0.19668461 -0.121104375
000250 7c 22 11 be 36 cc 00 be 7f b0 cf bc 55 cc 0f 3e
       -0.14173311 -0.125779 -0.025352715 0.1404279
000260 c8 fe ac 3d 68 49 f9 3d 78 ba ce be 01 f8 81 be
       0.08447033 0.12172204 -0.4037664 -0.25384524
000270 7b 70 94 be 8c 0b 4f be 9d af 2e 3d a8 aa c0 be
       -0.28992066 -0.20219249 0.042647947 -0.376302
000280 d5 b2 b8 3e 89 32 5d be 80 45 91 be 34 fd 1b 3e
       0.36073938 -0.21601309 -0.28373337 0.15233308
000290 99 dc 75 bd 5f 57 16 be 68 97 86 bb 85 6e 0a 3d
       -0.06002483 -0.14681767 -0.0041074045 0.033796806
0002a0 b2 12 b7 3d c1 ea 10 3e 3a 37 db bd 70 a4 39 3f
       0.08939113 0.14152052 -0.10703893 0.72516537
0002b0 5e 6e 72 3e 29 16 0f 3e 3c e2 c7 bd 09 55 05 3c
       0.23674914 0.13973297 -0.09759948 0.00813795
0002c0 77 fe 35 3d af 74 ed bc 51 2d 4c 3e fc 20 10 be
       0.04443213 -0.028986303 0.19939162 -0.14075083
0002d0 b2 1c 55 bd 00 be 2a be cd d4 0b be b7 0a ea 3d
       -0.05202932 -0.16674042 -0.13655396 0.11427825
0002e0 4b 32 e1 be 28 8a db be fc 22 05 be e7 ab 45 be
       -0.43983683 -0.42878842 -0.13001627 -0.19303857
0002f0 af ff 4d 3e 59 61 14 be 5a 1b 9a be 05 af 30 3c
       0.20117067 -0.1449026 -0.30098993 0.010783915
000300 af b7 8d be 3a dc 03 bf 89 d9 8a be 74 e8 3b be
       -0.27679202 -0.51507914 -0.2711909 -0.18350393
000310 db df 3d bd 53 e6 4c be 3a a9 06 be 48 d6 06 be
       -0.046356063 -0.20009737 -0.13150492 -0.1316768
000320 b8 ea dc 3d c6 45 fe bd 25 90 d5 bc e4 56 53 be
       0.107869565 -0.12415652 -0.02606971 -0.20638615
000330 05 d5 bd bd 49 7e 2d be d4 6e 9d 3e 6c e0 8c bd
       -0.09269146 -0.16942705 0.30748618 -0.068787426
000340 e9 20 2e 3e bd 1d dc 3c 21 5f 27 be df ef 64 3c
       0.17004742 0.026869649 -0.16344883 0.013973205
000350 a1 f7 b3 3d c1 dd 54 3e 00 97 03 3b 23 2e 09 3e
       0.08787466 0.20787717 0.0020079017 0.13396506
000360 02 4d 89 be 89 25 f1 3d 72 ec ad bd cc 02 b3 3d
       -0.26816565 0.117747374 -0.08492364 0.08740768
000370 6b ab 83 3e 87 7b 53 3e a5 7e 81 bc db f9 90 3d
       0.2571672 0.2065259 -0.01580746 0.07078906
000380 a1 8e fc ba 9f 1b 80 be 2b 4d 35 bc 2b 62 96 be
       -0.0019268581 -0.25021073 -0.011065762 -0.2937177
000390 79 32 cb 3c 91 b6 47 be a0 43 82 3e 04 71 88 3e
       0.02480434 -0.19503237 0.2544222 0.26648724
0003a0 13 a1 91 bd 54 75 cb 3e 92 94 27 3e 72 8c aa 3e
       -0.071108006 0.39737952 0.16365269 0.33310276
0003b0 f2 c3 71 3e 35 60 ad 3e 5b 10 c9 be ef 3b 5b bf
       0.23609903 0.33862463 -0.3927029 -0.85638326
0003c0 11 18 fe be aa a5 38 be 06 6d 53 bd 54 c0 2c 3e
       -0.49627736 -0.18031946 -0.051617645 0.16870242
0003d0 00 68 c3 be b6 8b 2f be eb d1 e8 bd 68 5a 5d be
       -0.38165283 -0.17143139 -0.11368164 -0.21616518
0003e0 c3 57 d2 bd c3 e9 d1 3c 29 6c 7c 3e 88 1f 85 3e
       -0.102706455 0.025624162 0.24650635 0.2600062
0003f0 22 bf a6 3d 6f d9 00 3e 03 87 39 bd fe 63 db 3e
       0.081419244 0.12582944 -0.045294773 0.42849725

model.0.conv.0.kernels.4.weights f4 [8, 16, 4, 9]
000000 07 7f c9 3c 22 14 ee bd 96 db 3e 3e a5 42 14 bd
       0.024596704 -0.11624934 0.18638453 -0.03619637
000010 63 59 32 3f f0 5f b3 3d 2d bd 46 3e 8b 08 a4 3d
       0.69667643 0.08758533 0.19408102 0.08009442
000020 09 f4 80 3d 81 64 58 3d b2 42 8b 3d f0 b6 06 3e
       0.06296546 0.052830223 0.067998305 0.13155723
000030 74 ea af be 33 6a 4d be 64 01 02 3e 01 06 88 bd
       -0.3435856 -0.20060043 0.12695843 -0.0664177
000040 0e ce 07 bd 16 39 89 3e 48 a4 1f bd 15 62 81 bd
       -0.033155493 0.26801366 -0.03897503 -0.06317536
000050 7a 72 e7 3d ca 21 9a be 5d 37 80 be 46 71 2c 3d
       0.113011315 -0.30103904 -0.2504224 0.042100213
000060 b3 0a dd be 78 8f 84 3e d2 cb 35 3e 9d 00 ff bc
       -0.43172225 0.25890708 0.17753533 -0.031128222
000070 1c 0c 29 be 36 1b ef be 01 dd 24 3e 2f 5e 03 be
       -0.16508526 -0.46700448 0.16099931 -0.12828897
000080 08 a7 9a bd c4 c4 3b be c5 46 d4 3d 35 1c 1e 3e
       -0.0755139 -0.18336779 0.10365061 0.15440448
000090 70 ab 3f be a2 e1 3e bd 09 89 a2 3d 24 ab 09 be
       -0.18717742 -0.0466019 0.07936294 -0.13444191
0000a0 05 99 9c 3e 1e 40 9c 3d 1c 06 8e 3e f0 fa 83 be
       0.30585495 0.07629417 0.27739036 -0.25777388
0000b0 9f 27 26 be 9e c4 db bd ce d5 97 bd 4e a2 81 3e
       -0.16226052 -0.10730861 -0.07413827 0.2531914
0000c0 43 35 a5 be f6 43 ec 3e 23 30 b4 bd 81 fd eb bc
       -0.32267198 0.461456 -0.08798244 -0.028807404
0000d0 a9 89 99 3d 29 0a 44 3e 2f 4e db 3d d8 b4 ee bd
       0.0749696 0.19144501 0.10708272 -0.11655587
0000e0 cf ce 87 3e 35 53 21 3d 1c 2a 36 be 60 cb 86 3a
       0.2652497 0.039385993 -0.17789501 0.0010283999
0000f0 f3 b4 b7 be 15 57 83 3e 62 6b 89 3e 23 ac b2 3d
       -0.3588024 0.25652376 0.2683974 0.08724239
000100 6c 54 84 be b5 aa a0 be cb aa e9 3d 12 a1 ca bd
       -0.2584566 -0.3138024 0.11409529 -0.09894003
000110 ad 45 1f be f2 94 12 be 50 33 9d bc 0c ba 2e 3e
       -0.15553923 -0.1431463 -0.019189507 0.17063159
000120 44 b5 df bc 21 4d 1e be a4 1c 61 be e7 60 02 3e
       -0.027308114 -0.1545911 -0.21983582 0.12732278
000130 95 b4 21 bf 64 f2 a4 be 9b 84 9c be e7 7e f4 bd
       -0.6316617 -0.3221618 -0.3056992 -0.11938267
000140 ea f2 0e be cf e5 46 bd bc 8d ed bc 97 6e 64 bd
       -0.13959852 -0.048559006 -0.028998248 -0.05576953
000150 9b d1 c8 3e d3 31 c7 be 0a e5 ef be eb 45 30 be
       0.39222416 -0.389052 -0.4685443 -0.17214172
000160 44 da ab be ac b5 ae be ed 80 a5 3e 41 7b d8 3e
       -0.3356496 -0.3412298 0.32324925 0.42281535
000170 5b fe 9a 3e fe 05 63 3e ad 08 88 3e 29 a8 79 3e
       0.30272183 0.22170255 0.2656912 0.24380554
000180 22 10 ca 3e aa d1 ba bc 8d a7 69 bd e6 99 ae be
       0.39465433 -0.022805054 -0.057044555 -0.3410179
000190 4e d1 43 3e 7d 68 b4 3e c1 83 96 be d9 d7 1f 3e
       0.19122812 0.35235968 -0.29397395 0.15609683
0001a0 2c 90 13 3d 9a 89 fd 3c 76 78 d2 3c b2 ee 9a bd
       0.036026165 0.030949403 0.025692206 -0.07565059
0001b0 f0 49 f2 bd 82 19 d7 bd bd 5c 2e be 82 9d f4 bd
       -0.11830509 -0.10502912 -0.17027564 -0.11944105
0001c0 8d 83 00 3f 18 32 78 bc ef c0 8b 3d 2c 95 ab 3d
       0.5020073 -0.015148662 0.068239085 0.08378062
0001d0 60 18 9b 3d 5a 8e a6 bd 0f b3 04 be f8 67 21 bd
       0.075730085 -0.0813262 -0.1295893 -0.039405793
0001e0 34 e0 61 be c0 ff 3b be c0 ef cb 3c 6e bf 0b bd
       -0.22058183 -0.1835928 0.024894595 -0.03411811
0001f0 f3 90 3d be 6f c1 ab 3b 94 42 9a 3d ea 3f 1a 3c
       -0.18512325 0.005241565 0.0753223 0.009414652
000200 ac 85 85 bc eb 82 2d 3d c0 c1 9a bd d6 67 a1 3d
       -0.016299091 0.04236118 -0.07556486 0.07881133
000210 7f 81 54 bd 9e 55 68 3e e9 45 3e 3e fb 97 0a be
       -0.05188131 0.2268891 0.18581356 -0.13534538
000220 61 a4 c9 bd 6a 71 84 be e3 f0 78 3d 59 e4 f4 bd
       -0.09845806 -0.25867778 0.060776602 -0.11957616
000230 ab 1a c0 bd 43 05 51 3c 68 81 1c bd c6 66 47 3e
       -0.093800865 0.012757602 -0.03820935 0.19472799
000240 a8 ee 83 bd 91 2c 75 bd 7e ab 7d be 5c c7 8b bc
       -0.064420044 -0.059856955 -0.2477245 -0.017062835
000250 f8 cf 9d be 73 2c 8d bd 75 d0 49 be 76 95 e5 3d
       -0.3082273 -0.06893244 -0.19708426 0.11210148
000260 72 0b c2 bd 77 06 d9 3d 89 4e 4a be ac dd 0c be
       -0.09474839 0.10596936 -0.19756521 -0.13756436
000270 8e 35 63 3e 4a 58 aa be b8 83 d0 be 93 00 85 be
       0.22188398 -0.33270484 -0.40725493 -0.25977
000280 9b b0 bc 3c d9 e7 1b be da c9 15 3e 30 f6 46 3e
       0.02303343 -0.15225162 0.14627782 0.1942985
000290 95 ae 6e be 36 d3 01 3e 7e a1 4b 3e 87 ad 41 3e
       -0.23308785 0.12678227 0.19885823 0.18913852
0002a0 a0 0c ba 3e 6a c4 59 be 5e fa 3b be d0 1e 7e bd
       0.36337757 -0.21266332 -0.18357226 -0.062041104
0002b0 4f 95 45 3e 48 b0 9e 3e 14 64 a5 be ad 7e ce 3b
       0.19295238 0.30993867 -0.32302916 0.006301722
0002c0 16 0a cb 3d 67 6f 84 3e 93 77 27 3e 11 8b 7a bd
       0.09914033 0.25866243 0.16354208 -0.06116778
0002d0 2a 81 ad bc 28 4a 18 3e e0 d6 85 3a b1 f5 08 be
       -0.021179754 0.14872038 0.0010211132 -0.13374974
0002e0 21 6e 09 3f b4 f0 98 3e f3 91 b3 3e b8 41 83 3d
       0.5368367 0.29871142 0.35072288 0.06409019
0002f0 9e 72 ff 3d 91 d8 59 be 55 f3 85 bd 64 dd db bd
       0.12473033 -0.2127402 -0.065405525 -0.10735586
000300 eb 78 29 be ca 80 1e be f7 a3 8e 3e 61 2c 53 3e
       -0.16550033 -0.15478817 0.2785947 0.20622398
000310 c9 a2 3d bd 01 65 9a 3d ad 07 c6 be e2 b0 be be
       -0.046297822 0.07538796 -0.3867773 -0.37244326
000320 9b da 5b be 91 e6 83 be 77 3f 4b be 9e 84 5d 3d
       -0.2147011 -0.25761846 -0.19848429 0.05408155
000330 62 f5 9f be cf 3a 8d 3e 93 8e 19 3e 57 12 19 be
       -0.312419 0.2758393 0.14995794 -0.14948402
000340 e8 07 81 be e6 d5 b8 be 1c e3 1d 3d 93 48 95 bd
       -0.25201344 -0.36100692 0.038546667 -0.07289233
000350 f4 55 ed bd b0 bb 5e bd 34 5e 16 3e 6b dc 9d 3d
       -0.1158866 -0.05437821 0.14684373 0.07708057
000360 b5 ba fb 3d ac 36 44 3e f3 25 02 3e 37 b2 f6 bd
       0.12291471 0.1916148 0.12709789 -0.120457105
000370 2b 4c 3c 3f 53 6b 24 3e 91 7e 88 3e 5e c5 11 be
       0.73553723 0.16056566 0.26659063 -0.14235446
000380 35 81 2f be 64 a3 62 bd 19 17 ed 3c 86 a7 ae bc
       -0.17139132 -0.055331603 0.028941678 -0.021320116
000390 b6 87 a4 be 87 99 31 bd b1 8e 1d be 4f 9f 1a be
       -0.3213479 -0.043359306 -0.15386464 -0.15099834
0003a0 11 bf 25 be 2d 22 2d be 78 5c 83 bd c8 11 4a 3d
       -0.16186167 -0.16907568 -0.064141214 0.049333364
0003b0 de 03 0f 3d ce 27 c6 be 7a c5 0a bf 08 55 b6 be
       0.034915797 -0.38702244 -0.54207575 -0.3561175
0003c0 a2 07 b6 be 19 ff 31 3e 72 53 38 3e eb 25 5a 3e
       -0.35552698 0.17382468 0.18000582 0.21303527
0003d0 58 b0 87 bd c0 24 60 be 57 b1 b2 3d 10 c2 1c bf
       -0.06625432 -0.21889019 0.08725231 -0.61233616
0003e0 c3 64 c0 be e0 06 9a be 9c b5 5c be f0 a7 9d 3d
       -0.37576875 -0.3008337 -0.21553653 0.07698047
0003f0 1d c0 a5 3d 8c 45 13 3e 02 86 33 be 8e 36 c8 3c
       0.08093283 0.14381999 -0.17531589 0.024440076

model.0.conv.0.kernels.5.weights f4 [8, 16, 4, 11]
000000 a9 88 53 bc 20 84 c5 bd dd 92 f8 3c 1e 07 f0 3d
       -0.012911 -0.096443415 0.030343467 0.117201075
000010 f4 57 88 bd 17 f5 27 3f 25 c6 f3 3d a6 1b 7e 3e
       -0.06657401 0.6560835 0.119030274 0.24815235
000020 9b 2e 02 3c 90 97 27 3e 00 b7 b1 3d bc d6 02 be
       0.007945682 0.1636641 0.086774826 -0.12777227
000030 02 06 08 be 43 1b 86 3d 0c cd 39 3e a1 cb 99 be
       -0.13283542 0.065481685 0.18144625 -0.3003817
000040 32 5a ce bc e3 bd 4e bc d7 f1 39 bd 67 fb 7e bd
       -0.025189493 -0.012618515 -0.045396652 -0.062251475
000050 99 63 23 3e 55 10 2c 3e 72 c3 95 bd d7 c3 c1 bd
       0.15955962 0.16803105 -0.07312669 -0.094611816
000060 e1 4c 80 be d4 4c 3c 3c 43 4f b5 be a4 0f 5d be
       -0.25058654 0.011492927 -0.35412034 -0.21587998
000070 66 3a b4 bd 65 9c e1 be dd 72 03 3e 76 6a 73 3e
       -0.08800201 -0.44064632 0.12836786 0.2377108
000080 97 c2 23 be c6 dd 5f be 24 86 0a bd a7 27 ba be
       -0.15992199 -0.21861944 -0.033819333 -0.36358377
000090 a7 8b 23 bf 6a 6c 37 3e ed df 2c be 8f 6d 7a be
       -0.6388497 0.1791245 -0.16882296 -0.24455856
0000a0 bb 0d 86 be 60 8f 10 bd ea be 7f 3e 55 2c d1 3d
       -0.2618235 -0.035292983 0.24975172 0.10213534
0000b0 da 8a 72 be 7b 92 4d be 70 7e 86 be ab 36 cc 3d
       -0.2368578 -0.20075409 -0.2626834 0.099713646
0000c0 b4 67 2d be 5e ec 9c 3e 22 76 1a 3e b2 39 44 3d
       -0.16934091 0.30649084 0.15084127 0.047906585
0000d0 94 0c 55 be 7c 2d a2 bd 5f 7b 94 bc 1e 45 89 bd
       -0.2080558 -0.07918832 -0.018125234 -0.06702636
0000e0 27 ad 09 be b0 f7 ad 3d a4 ec 4c 3d dc f5 87 be
       -0.13444959 0.08494508 0.050030366 -0.26554763
0000f0 53 02 c3 3e 2c b6 06 3e c9 b9 e2 3d 43 0f ba 3d
       0.3808771 0.1315543 0.11070592 0.09084942
000100 28 72 4d 3d 76 16 4e bd 13 e8 1e 3e a3 9f 85 bc
       0.050157696 -0.05031439 0.15518217 -0.016311472
000110 ae f1 36 3c a4 71 87 3e ec 5b 14 3e 65 2c 99 bc
       0.011166019 0.26453888 0.1448819 -0.018697927
000120 9c 2f 4b be e4 b9 98 be 1f 82 05 3e d0 af 88 3e
       -0.1984238 -0.29829323 0.13037919 0.26696634
000130 8d 26 c1 3c 1e 81 7d bd 23 7d cd 3d eb 3b 80 be
       0.023577953 -0.061890714 0.100336336 -0.25045714
000140 e9 78 c7 be 3a ce 35 3e f2 7e 06 be ff 14 e4 bb
       -0.38959435 0.1775445 -0.13134363 -0.0069605107
000150 c5 0c 7b be 48 a4 fe bd d6 41 21 3e 3f e0 a4 3d
       -0.2451659 -0.12433678 0.1574777 0.08050584
000160 0d c3 a3 3c a4 4a 0e be 3d 2c 1f be 0f 7d 24 be
       0.019990468 -0.1389566 -0.1554422 -0.16063331
000170 d2 b8 a1 3c 43 f1 03 bf 92 af 83 be 7a bb e1 be
       0.01974145 -0.5154001 -0.25719887 -0.44088346
000180 5f a9 fc bd d7 05 68 be 5d 69 d3 bd c8 40 3a 3e
       -0.123369925 -0.22658478 -0.10322831 0.18188775
000190 34 e4 66 3c 67 dd 48 bd ac 49 3e be ae c1 6c 3e
       0.014092494 -0.04903927 -0.18582791 0.23120758
0001a0 57 55 20 be 5c 23 e6 be f4 ad 3e be 28 7c fa bd
       -0.15657555 -0.44948852 -0.18621045 -0.12230712
0001b0 e4 63 65 be 84 67 af be 64 60 ae 3e ad 2b c6 3e
       -0.22401386 -0.34258664 0.34057915 0.38705197
0001c0 54 17 dc 3e a4 97 ad 3d 75 16 9b 3d cd 84 88 3e
       0.42986548 0.08476189 0.07572643 0.2666382
0001d0 ea 98 5c 3c 23 93 a9 3e 6e 97 67 be e4 98 c7 bd
       0.013464192 0.3312007 -0.2261636 -0.097459584
0001e0 f1 af c4 3d 3e 20 e1 3c 9f 4c f9 bd b2 de ec 3d
       0.09603871 0.027481195 -0.121728174 0.11565913
0001f0 81 54 b9 3e ec 27 8f be ac d5 93 3d dc bf ab 3d
       0.36197284 -0.27960145 0.07218489 0.08386204
000200 3e 05 8f 3c 8d 99 96 bd 17 68 42 be 39 29 3a 3d
       0.017458554 -0.07353506 -0.1898502 0.04544947
000210 78 d9 52 bd 22 94 08 bd 05 82 3c 3d bb 38 2f 3c
       -0.051476926 -0.033344395 0.046022434 0.010694678
000220 fc 22 03 be 95 7b b3 3e 94 a1 30 3c a3 33 0b 3e
       -0.12806314 0.35055223 0.010780711 0.13593917
000230 ce 19 b1 3d c3 f0 b3 3d 93 03 61 3d 87 ea 6e bd
       0.086475 0.08786156 0.05493505 -0.05832913
000240 82 dd b4 bc 41 10 23 bd bb fa b6 bd 68 72 a2 39
       -0.02207828 -0.039810423 -0.08934542 0.00030984287
000250 bc 01 50 be a4 d3 45 3d 33 9a 7c be f9 bc 7d bd
       -0.20313162 0.04829754 -0.24668197 -0.061947796
000260 7c 6b 6a bd bc 7a 92 bb 33 ac 46 be 97 32 37 bd
       -0.05723141 -0.0044701975 -0.19401626 -0.04472598
000270 b7 9d 8a bd c8 dc 08 bd 6e e3 e0 bd f6 47 bd bd
       -0.06768363 -0.03341368 -0.10980879 -0.09242241
000280 b5 47 a4 bd cd d3 02 be d5 8e 8b 3e ae bb d8 3d
       -0.080214895 -0.12776108 0.2725741 0.10582672
000290 ba 42 01 3d b2 b2 07 be ce 8d 01 3e b3 2e 3b be
       0.031557776 -0.1325176 0.1265175 -0.18279533
0002a0 35 cd a6 be 61 3b 28 3e 9a 39 18 be 94 4f 0d bd
       -0.32578436 0.16428901 -0.14865723 -0.03449972
0002b0 54 d2 82 be 37 b5 44 bc 13 0a 9a 3d 01 7e f1 3c
       -0.25551093 -0.012006096 0.07521453 0.029479029
0002c0 1c aa 9a bd 65 31 5a bd 66 66 4e bd a1 7e 8b be
       -0.07551977 -0.053269763 -0.050390624 -0.27245048
0002d0 09 86 1f 3e fb 62 b3 be 15 55 c6 3d 59 6d f2 bd
       0.15578474 -0.35036454 0.09684197 -0.11837263
0002e0 88 f8 a2 3d 5e 3e 95 3c 30 24 3f be 5b cb 12 3e
       0.0795756 0.018218216 -0.18666148 0.14335386
0002f0 b9 b0 fe 3c 10 af 51 be 6a 20 7f be bd 7f 9e 3e
       0.031090127 -0.20476937 -0.24914709 0.30956832
000300 72 0a 59 be c0 e3 c3 be 55 d9 54 be fa a9 1d be
       -0.21195391 -0.38259697 -0.2078603 -0.15396872
000310 ea 58 32 be 04 88 51 be bb 7c 2f 3e f6 52 1a 3e
       -0.1741673 -0.20462042 0.17137425 0.1507071
000320 8b b5 83 3e 3c a0 33 3d 4b ab 04 be 7b f2 98 3e
       0.25724444 0.043853983 -0.12955968 0.29872498
000330 de 02 1f 3e ae 2a db 3e c7 9c 51 be b1 2e 34 be
       0.15528437 0.42806 -0.20469962 -0.17595936
000340 6c f4 0e bd a8 6a a7 3e 81 ac 9b bd 07 1e 23 3e
       -0.034901068 0.3269856 -0.07601262 0.15929423
000350 aa 95 9e 3e b4 16 b6 be 9b 91 7b bd 21 cc 20 3e
       0.3097356 -0.35564196 -0.061418157 0.15702869
000360 91 db 47 3e 37 95 ad bd b6 7d 1e 3c ef 1d 36 bd
       0.19517352 -0.08475726 0.0096735265 -0.04446214
000370 85 72 44 3d 8b 18 1b 3d 01 4d 2b 3e 65 b0 dd 3c
       0.047960777 0.037865203 0.16728593 0.02706165
000380 dc 67 ce bd 88 d6 27 3f 7f 20 67 3e 49 de c3 3e
       -0.10078403 0.65561724 0.2257099 0.38255528
000390 81 a2 41 3e 72 4a 49 3e 9d f4 27 3e be 49 0a be
       0.18909647 0.19657305 0.16401906 -0.13504693
0003a0 12 0d cd bc 6e 85 08 be e5 aa 9c bd 14 85 35 be
       -0.025030646 -0.1333215 -0.07649783 -0.17726547
0003b0 b4 4c 75 be 28 25 50 3e 2b f0 86 3d e9 07 88 3d
       -0.23955041 0.20326674 0.06588777 0.06642134
0003c0 57 02 8c 3d 66 f1 2f 3e 30 47 c5 be ee 67 44 be
       0.06836384 0.1718193 -0.38530874 -0.19180271
0003d0 87 5a a4 be d5 6a 6e be 52 db ff bd 2f 8f 75 bd
       -0.32100317 -0.2328294 -0.12493004 -0.059951004
0003e0 b1 92 09 3d 27 56 7a be 77 08 a9 3e 69 97 1f 3e
       0.03358716 -0.24446927 0.3301427 0.15585102
0003f0 39 94 63 be 52 a9 ae be f9 7e 7d be cd c5 91 be
       -0.22224511 -0.34113556 -0.24755467 -0.28471223

model.0.conv.0.kernels.6.weights f4 [8, 16, 4, 13]
000000 62 6c 4e bb f9 3e 44 3c 19 50 a5 bd 93 bf 02 3d
       -0.0031497707 0.0119779045 -0.08071918 0.03192098
000010 0e a8 09 3e 46 a6 4d bd 2c 94 0f 3f 5d 77 16 3e
       0.13443014 -0.0502074 0.5608547 0.14693971
000020 97 90 39 3e d9 ad 32 3d 36 05 1c 3e 70 90 a7 3c
       0.18121563 0.043622825 0.15236363 0.020454615
000030 85 4b a1 3d 9f 5c ef bd 0c a1 d0 bd 3c 00 03 be
       0.07875732 -0.11687588 -0.10186967 -0.12793058
000040 a0 91 41 bc d6 db 2e 3d dd f1 d6 be d8 65 e8 bd
       -0.011814505 0.04269012 -0.41981402 -0.1134755
000050 7f 6d 81 3c da b3 db 3c 3c 36 6e 3d 1f d0 f4 3d
       0.015799282 0.026819158 0.05815719 0.119537584
000060 30 63 6b 3e e2 c5 10 3e 92 5c 05 be f4 76 1d be
       0.22987056 0.14137986 -0.13023594 -0.15377408
000070 ac d4 c3 bd 5b e8 65 be 78 6b 72 bc 2b 85 88 be
       -0.09562048 -0.22451918 -0.01479613 -0.266641
000080 d0 08 62 be 80 4a 6e bd a6 5c df be 09 41 a9 3e
       -0.22073674 -0.058176517 -0.43625373 0.3305743
000090 b9 69 5b 3e f6 bd a1 bd b2 2e 84 bc 50 39 95 be
       0.21427049 -0.0789756 -0.016135547 -0.29145288
0000a0 6b 87 7d be 42 f3 98 bd bc 4b 8c be ba 53 0b bf
       -0.24758689 -0.07468273 -0.2740153 -0.5442463
0000b0 a6 26 31 3e 39 b0 88 be ef 00 15 be 55 50 32 be
       0.172999 -0.26696947 -0.14551137 -0.17413457
0000c0 cd 96 bb 3c c4 4f 84 3e 5f 0a 24 3d 4f cc b8 3d
       0.022899056 0.25842106 0.040048953 0.09023344
0000d0 aa ac c1 be 29 75 0d be 1e ea 1a be d4 db 21 be
       -0.37827045 -0.13814224 -0.15128371 -0.15806514
0000e0 0b ee 92 bd 8b 7c d0 bd 15 95 9c 3e 79 f5 b3 3b
       -0.07174309 -0.10180005 0.3058249 0.005491909
0000f0 69 08 da 3d b2 63 83 be d2 76 c9 bd 0b 27 33 bd
       0.10646135 -0.25662 -0.09837116 -0.043738406
000100 f9 e8 87 bd d9 d8 4d bb f0 58 7e be 87 b7 60 bb
       -0.06636233 -0.003140977 -0.24838614 -0.0034289078
000110 b2 e3 0f 3d 94 b2 b2 3d d0 06 95 be 91 14 d7 3e
       0.035129257 0.08725467 -0.2910676 0.42007878
000120 af 99 9e 3d 4b f1 ed bb a2 71 34 3d ca 33 82 3d
       0.077441566 -0.0072614304 0.04405368 0.06357534
000130 de 5b 21 be 24 bb 19 bd 50 09 29 3e f3 8a ea 3d
       -0.15757701 -0.037531987 0.16507459 0.11452284
000140 17 35 bb bc 62 33 2a bd af 8f 4c 3e 8e 61 bf bb
       -0.022852464 -0.04155291 0.19976686 -0.005840487
000150 e8 65 5a bd e4 8d ab bc 6b e3 50 be e7 22 6f 3e
       -0.05331984 -0.020941682 -0.20399253 0.23353158
000160 76 25 51 3e 79 a4 ad 3d 1d 89 10 bd 54 ed ab bd
       0.20424446 0.08478636 -0.03528701 -0.08394876
000170 13 a0 94 b9 51 88 1e 3d c2 a0 60 be 6e 32 b2 be
       -0.00028348024 0.03870422 -0.21936324 -0.348041
000180 89 5e 8e 3e 87 8b 9c bd 15 20 a4 bd 50 05 c7 bd
       0.278065 -0.076438 -0.08013932 -0.0971781
000190 2b 5b b0 3c c6 10 c3 3d b9 14 71 bc 6b 9b 16 3e
       0.021527847 0.09524684 -0.014714413 0.14707725
0001a0 59 98 03 be 84 ca 02 be ef a7 5f bd e6 64 a8 bc
       -0.12851085 -0.12772566 -0.054603513 -0.020555925
0001b0 de 2f fe bd 28 83 36 3d 51 ca 03 bf 1f 46 74 be
       -0.12411474 0.044558674 -0.51480585 -0.23854874
0001c0 d7 22 b0 be a2 df d6 bd 24 75 88 be 44 c0 00 be
       -0.3440158 -0.10491873 -0.2665187 -0.12573344
0001d0 0e 73 8b be 99 51 33 bd 9f 77 e6 bc e5 ed ef 3d
       -0.27236217 -0.04377899 -0.028133212 0.11715297
0001e0 7e 6f 0c 3d 6a 20 88 bd 7b b4 19 3d 1e 9a 9b be
       0.034286015 -0.066468075 0.037525635 -0.3039102
0001f0 c5 4b a0 be 19 91 4c be b1 62 fc bd dc ca 64 be
       -0.31307808 -0.19977225 -0.123235114 -0.2234301
000200 93 ca cf be bb 43 36 be 89 90 c1 3e b2 4d 32 3e
       -0.4058424 -0.17799275 0.37805584 0.17412451
000210 59 35 a8 3e c3 77 c6 3e 20 3b eb 3c a5 8f 6f 3e
       0.328532 0.38763246 0.028714716 0.2339464
000220 55 92 97 3e a6 db 4a 3e 81 e1 cd 3e 7d 1e 3e be
       0.2960383 0.19810352 0.40211108 -0.18566318
000230 1a 1a 3a be c5 58 19 3e cd 16 ff 3d 3c a5 97 3e
       -0.1817402 0.14975269 0.12455521 0.2961825
000240 19 42 11 3e 82 36 b9 bd 0f 87 6c 3e f5 01 74 3e
       0.1418537 -0.090436 0.23098396 0.23828872
000250 85 cd 6c be 03 00 f5 3d cc fa 5d 3e 95 fe e8 3d
       -0.23125274 0.11962893 0.21677703 0.11376683
000260 d4 05 1c bd 7c de 68 bd 05 e8 d5 ba 3d 7b 62 bd
       -0.038091496 -0.056852803 -0.0016319758 -0.05529331
000270 3a 42 2f 3d 31 0f d3 bd f9 6e a7 3d 45 1e 1a bd
       0.042787768 -0.10305632 0.08175463 -0.037626524
000280 99 9c d1 3c 82 7b 99 bd 1e 7a 03 3f 69 a8 cb 3d
       0.025587367 -0.0749426 0.5135821 0.09944231
000290 bf ca 4c 3e 6e f0 9d 3d b1 02 94 bc 30 18 35 3d
       0.19999216 0.07711874 -0.01806769 0.04421252
0002a0 81 66 57 3d e4 d4 d8 bd 52 35 24 bd a2 34 60 bd
       0.05258799 -0.10587481 -0.040089913 -0.054737695
0002b0 5d a7 05 be 4b fc 34 3c a8 e7 2a bd e5 af 08 be
       -0.13052125 0.011046479 -0.04172483 -0.13348348
0002c0 54 6f 9c 3b f2 ae a7 bd 01 49 af bd 9b 13 e8 bd
       0.0047740135 -0.08187665 -0.08558846 -0.113318644
0002d0 e4 74 98 bd 81 a8 a3 3d 9f c7 d2 bd 62 3e 75 bd
       -0.0744417 0.07991124 -0.10291981 -0.059873946
0002e0 2a 49 c7 bc a7 76 8c 3d a7 bd 78 be c0 64 a3 bd
       -0.02432688 0.06858569 -0.24291097 -0.07978201
0002f0 3b 62 d7 3c b3 25 5c bc a5 a9 3d be 5a 8e 96 3d
       0.026291957 -0.013436723 -0.18521746 0.0735137
000300 a1 bf 81 3d a4 7a e2 3b 52 b9 ef 3d 6f 9a b8 bd
       0.063353784 0.0069115926 0.11705269 -0.09013831
000310 fc 07 00 be 34 d8 0b 3d d8 c7 15 bb 6a 92 8d be
       -0.12503046 0.034141734 -0.0022854712 -0.27650768
000320 3c 0d 5f 3d b3 34 7e be c4 3a 00 be 47 9e dd bd
       0.05445598 -0.2482479 -0.12522417 -0.10821205
000330 af 92 6a 3a 8a 7f 88 3e ce 98 33 3e 83 4a a5 3d
       0.0008948249 0.26659805 0.17538759 0.080708526
000340 d4 ec d4 3b 31 63 40 be 45 db e8 3d 9e aa 09 3c
       0.0064979587 -0.18787839 0.11369947 0.008402495
000350 5c c6 15 be 3b 7c 1e 3e d5 9b 87 be 48 7e 6b bd
       -0.1462645 0.15477078 -0.26486078 -0.057493478
000360 0e 97 6b be e4 69 ef 3d 1a 39 c0 3c a7 9a 12 bd
       -0.23006842 0.11690119 0.023464728 -0.03579202
000370 00 0d ef bd bc 38 bd 3c 94 e7 75 3e 70 26 7c bc
       -0.116724014 0.023098342 0.24014121 -0.015390024
000380 bc 4d 61 be d8 27 29 be 8d 06 e5 3e f5 f3 89 be
       -0.2200231 -0.16519105 0.4473156 -0.26943937
000390 97 65 b1 be 28 5c bc bd 66 9f f1 bd b0 0d 4f be
       -0.3464782 -0.09197265 -0.11797981 -0.20220065
0003a0 20 ea c0 bd 2f f2 55 be 99 75 67 3e d6 d5 66 3e
       -0.09419656 -0.20893167 0.22603454 0.2254251
0003b0 96 72 74 3e 91 e5 8b 3e 6e 0c 25 be ba 58 8c 3d
       0.23871836 0.27323583 -0.16118023 0.06852861
0003c0 16 b5 c5 3c a6 85 12 3e 5b d6 a6 3e 10 09 3c be
       0.0241342 0.14308795 0.32585415 -0.18362832
0003d0 3c dc d7 bd a8 61 dc 3d ce 06 f7 3d 15 c3 48 3e
       -0.10540053 0.10760814 0.12061845 0.19605668
0003e0 ca ba 22 3e 4b e5 13 be 33 95 9a 3e 36 35 a8 3e
       0.15891567 -0.14442937 0.30191955 0.32853097
0003f0 53 50 73 be 47 59 bd 3d 42 86 73 3d aa c3 b4 3d
       -0.2376111 0.09245544 0.05945421 0.088263825
